Topics/Fully Connected Network/output/digits_classifier_1.pth (torch, 402576 bytes, 8 tensors)

layers.1.weight f4 [100, 784]
-0.023110446 -0.03179892 -0.01836162 0.033591915 -0.010843873 0.02135538 -0.03103078 0.0116001405
-0.0115159545 -0.01421776 -0.023331776 0.008274015 0.013398176 0.017957961 0.022676725 0.0077404366
0.006743476 0.013183355 -0.007821623 0.03480922 0.009844698 -0.033789687 0.01303326 0.024281468
0.033049326 -0.015997164 0.0052907728 0.003000576 -0.027147064 -0.014632158 -0.025594763 -0.013168493
0.007579226 -0.0025512478 0.035107933 0.03019835 -0.0039450624 -0.01113781 0.026342513 0.022363506
-0.017329227 -0.035737902 0.024210574 0.019358136 -0.029578814 0.025989637 0.029393423 0.034438606
0.033197433 -0.01414337 -0.034203906 0.024029478 -0.024195736 0.01849281 0.016122092 -0.035531797
-0.0014092848 -0.03479551 0.0074872896 0.0073224823 -0.02096586 0.023757169 -0.00920112 -0.0018241532
0.01707811 -0.0010075679 -0.009941877 0.019684138 0.027773539 -0.019242598 0.015583562 0.014973432
0.0055487063 0.0015411212 -0.005340241 0.00022059974 -0.002533092 0.030952811 -0.0043366454 0.000297399
0.018469105 -0.004712588 0.0015038289 0.0013206191 -0.033609465 0.024354357 0.0030522756 -0.02961167
-0.032477353 -0.013519384 0.023730528 0.03057382 -0.017701223 -0.030552227 0.02251194 -0.0068507367
-0.037574768 0.027311927 -0.011491384 -0.00697505 0.017864259 0.00081680133 0.020641971 -0.035866342
-0.033762433 -0.034145758 0.006751008 0.025436819 -0.032825034 0.022681158 0.0034581625 0.010403603
0.01708135 0.029498419 0.020246008 -0.02054345 0.0069281408 -0.022640955 -0.010802362 0.016061138
-0.03038789 0.0039064637 -0.0035539973 -0.03190812 0.023965418 -0.035946812 0.012459816 -0.02153071
-0.0072655217 0.0104399305 -0.030470867 0.016772797 -0.012592404 -0.0026035493 -0.001889446 -0.01640022
0.023326403 0.027173532 -0.014490959 0.0032635748 -0.0028684624 -0.010993652 0.022393994 -0.024408434
-0.027108742 -0.018753206 0.020243622 -0.03396737 -0.021194527 0.028907983 -0.0064039906 -0.023069981
0.015995558 -0.0012087111 0.046288345 0.036704563 -0.019593725 -0.0030544687 -0.0069208685 0.004144522
0.0028951867 -0.0301849 -0.014322904 -0.035871528 0.019786779 -0.0025337778 -0.003549373 -0.029777158
0.0070162453 -0.015263157 -0.0021456142 0.02741038 -0.021578006 -0.007698663 0.02562915 0.011231401
-0.026690882 -0.019265227 0.03334669 -0.013254247 0.021335276 0.04002517 0.025277738 -0.014581675
0.006153613 0.041198283 0.029305926 0.012975265 0.009243487 -0.0065345205 0.0066620377 0.013423004
-0.029207863 0.0076001207 0.026062466 -0.032095063 0.010728662 0.008159293 0.02269591 -0.03279566
-0.026260307 0.0144002 0.010402925 0.040661238 0.024220532 0.021827236 0.014933411 -0.012873409
0.033446584 -0.009191042 0.021327214 0.0027550904 0.044103988 0.017297834 0.004747394 -0.0033810916
0.018059224 0.014573111 0.011625134 -0.004307152 -0.028546864 0.014403099 0.028254481 0.0042734006
0.02471353 0.004338337 0.035447165 -0.017508704 0.026777763 0.015460214 0.03516343 0.029456126
0.017393718 0.017025739 -0.008609109 -0.0067811296 0.030703776 0.050921705 0.021421133 0.04907157
0.060317166 0.0019544058 0.027872117 0.0061491816 0.013012258 0.00075791474 -0.020674933 -0.0028528427
-0.025536045 -0.0059709945 -0.0072708637 0.032416925 -0.026140112 -0.015036065 0.00023342937 0.029265039
00000000: 1e52 bdbc 963f 02bd 1c6b 96bc ad97 093d
00000010: 80aa 31bc 7af1 ae3c 4334 febc 840e 3e3c
00000020: 6aad 3cbc 9cf1 68bc 4822 bfbc bc8f 073c
00000030: 0684 5b3c 931c 933c 8ac4 b93c 7da3 fd3b
00000040: 60f8 dc3b 00ff 573c 4426 00bc 1d94 0e3d
00000050: a84b 213c 0e67 0abd 7489 553c eee9 c63c
00000060: bb5e 073d 7c0c 83bc 385e ad3b 50a5 443b
00000070: 8563 debc b8bb 6fbc 1cac d1bc aac0 57bc
00000080: 285b f83b d632 27bb 56cd 0f3d 8862 f73c
00000090: 9545 81bb 5c7b 36bc 41cc d73c ac33 b73c
000000a0: 06f6 8dbc e861 12bd 4155 c63c f494 9e3c
000000b0: 454f f2bc 38e8 d43c 7aca f03c 7f0f 0d3d
000000c0: 08fa 073d 98b9 67bc 6519 0cbd 78d9 c43c
000000d0: 2336 c6bc 3c7e 973c 7a12 843c ca89 11bd
000000e0: c0b7 b8ba bd85 0ebd f057 f53b 6ff1 ef3b
000000f0: 98c0 abbc 659e c23c 4bc0 16bc 6d18 efba
00000100: 64e7 8b3c 5e10 84ba 41e3 22bc a140 a13c
00000110: 5585 e33c a7a2 9dbc 3252 7f3c 2053 753c
00000120: ecd1 b53b 72ff c93a 30fd aebb cb50 6739
00000130: 3b02 26bb c090 fd3c 6b1a 8ebb 38ec 9b39
00000140: 854c 973c 0e6c 9abb 201c c53a a018 ad3a
00000150: 14aa 09bd ca82 c73c b008 483b 2c94 f2bc
00000160: f906 05bd 6880 5dbc 8666 c23c f375 fa3c
00000170: 2802 91bc aa48 fabc f66a b83c 257c e0bb
00000180: 00e8 19bd 43bd df3c 5c46 3cbc f68e e4bb
00000190: 1158 923c 9c1e 563a 5a19 a93c 96e8 12bd
000001a0: 7a4a 0abd 6cdc 0bbd 8f37 dd3b e060 d03c
000001b0: 8b73 06bd d6cd b93c 57a2 623b e073 2a3c
000001c0: 30ee 8b3c aba6 f13c f5da a53c bd4a a8bc
000001d0: 7505 e33b 8679 b9bc 64fc 30bc a692 833c
000001e0: 06f0 f8bc cb01 803b 2eea 68bb 17b2 02bd
000001f0: 2053 c43c f73c 13bd 4224 4c3c 2c61 b0bc
00000200: 9d13 eebb 3e0c 2b3c 0a9e f9bc 1b67 893c
00000210: 5f50 4ebc 4fa0 2abb 4aa7 f7ba c159 86bc
00000220: 0317 bf3c 079b de3c 7d6b 6dbc b3e1 553b
00000230: d0fc 3bbb b81e 34bc 9c73 b73c 32f4 c7bc
00000240: 2713 debc 53a0 99bc f4d5 a53c 5e21 0bbd
00000250: 25a0 adbc 6fd0 ec3c 91d8 d1bb 42fd bcbc
00000260: 1e09 833c 9d6d 9eba d998 3d3d 8657 163d
00000270: 0583 a0bc 7b2d 48bb 74c8 e2bb c5ce 873b
00000280: 2cbd 3d3b 5346 f7bc 9daa 6abc 06ee 12bd
00000290: e217 a23c bd0d 26bb 999c 68bb 3aef f3bc
000002a0: 88e8 e53b 5212 7abc 6f9d 0cbb bc8b e03c
000002b0: 5cc4 b0bc 1145 fcbb 39f4 d13c e903 383c
000002c0: d6a6 dabc 1cd2 9dbc 8a96 083d 5728 59bc
000002d0: 51c7 ae3c 6ff1 233d 4213 cf3c fae7 6ebc
000002e0: 3fa4 c93b 88bf 283d fb12 f03c 3596 543c
000002f0: ff71 173c 881f d6bb 394d da3b 29ec 5b3c
00000300: 5445 efbc 6f0a f93b f480 d53c 1d76 03bd
00000310: 45c7 2f3c 8eae 053c c6ec b93c be54 06bd
00000320: db1f d7bc d1ee 6b3c 0871 2a3c 668c 263d
00000330: 236a c63c 08cf b23c 44ab 743c feea 52bc
00000340: 49ff 083d 0696 16bc 69b6 ae3c bf8e 343b
00000350: 62a6 343d 30b4 8d3c 0790 9b3b 4e95 5dbb
00000360: f0f0 933c 0fc4 6e3c 5977 3e3c 0223 8dbb
00000370: 1ddb e9bc fafa 6b3c f175 e73c e207 8c3b
00000380: 0774 ca3c 9c28 8e3b 0c31 113d 6a6e 8fbc
00000390: 0a5d db3c d64c 7d3c 8707 103d f94d f13c
000003a0: 457d 8e3c 9079 8b3c 380d 0dbc 3d34 debb
000003b0: 7c86 fb3c 4793 503d 5f7b af3c 45ff 483d
000003c0: 220f 773d 7d15 003b 1154 e43c 137f c93b
000003d0: 5e31 553c ccae 463a 7a5e a9bc c2f6 3abb
000003e0: f830 d1bc 55a8 c3bb 6d40 eebb 9cc7 043d
000003f0: ca23 d6bc d459 76bc b8c4 7439 3cbd ef3c

layers.1.bias f4 [100]
0.021199157 -9.123568e-05 -0.020425076 0.045375157 -0.0017649404 0.04816314 0.00983479 0.013900286
0.031144932 0.03487807 0.0065250383 0.007093016 0.041467004 0.055688515 -0.018187046 0.0059938994
0.060797576 0.015545981 -0.02051041 0.025915064 -0.017628353 0.03475078 0.014479955 0.008719012
0.056867845 -0.023356399 0.0330394 0.020789966 0.04470583 0.02615631 0.027495299 0.0067301774
0.023935255 0.0011916336 0.0077824355 0.033318143 0.04182318 0.029353352 0.04469449 0.060718328
-0.026011862 -0.018624041 0.0013495347 -0.0073662894 0.004612115 -0.0066565494 0.02610974 0.051564917
0.018644048 0.010293595 0.0011872455 -0.009829127 0.002805085 0.043450773 0.039392065 0.009165999
-0.025736677 -0.031229578 0.034573212 -0.029641213 0.02768692 -0.021870112 0.013059177 0.052347027
-0.020206233 0.040408965 0.024313016 -0.01876208 -0.013735332 0.04915452 -0.006406339 -0.010133058
-0.0029895066 0.070598535 -0.026015826 0.043562643 -0.002830647 0.031109024 0.0044730944 0.024745233
0.027016636 0.010361684 -0.016185077 0.013925 0.024390977 0.049305797 0.021205213 0.013279546
0.039517652 -0.026771178 -0.03003642 0.016364569 0.0064765452 0.0043280195 0.008261558 0.037232943
-0.014930675 0.025359368 0.032087862 -0.017301604
00000000: dba9 ad3c c855 bfb8 7d52 a7bc 4ddb 393d
00000010: 9355 e7ba b646 453d 1922 213c 06be 633c
00000020: a823 ff3c 4fdc 0e3d fdcf d53b 886c e83b
00000030: 4ed9 293d a419 643d 00fd 94bc 7968 c43b
00000040: e106 793d 92b4 7e3c 7305 a8bc d44b d43c
00000050: 5669 90bc d556 0e3d 553d 6d3c 30da 0e3c
00000060: 42ee 683d eb55 bfbc 5254 073d b84f aa3c
00000070: 761d 373d c245 d63c d23d e13c d288 dc3b
00000080: de13 c43c 9730 9c3a cd03 ff3b 9b78 083d
00000090: c84e 2b3d 7176 f03c 9211 373d c8b3 783d
000000a0: d416 d5bc 7291 98bc dfe2 b03a ea60 f1bb
000000b0: 3a21 973b 2f1f dabb 18e4 d53c bc35 533d
000000c0: 67bb 983c 77a6 283c 599d 9b3a 590a 21bc
000000d0: 84d5 373b 70f9 313d 9359 213d fc2c 163c
000000e0: b9d5 d2bc 2cd5 ffbc a49c 0d3d 21d2 f2bc
000000f0: aecf e23c f328 b3bc 29f6 553c d669 563d
00000100: 8b87 a5bc df83 253d 172c c73c efb2 99bc
00000110: 280a 61bc 4056 493d 44ec d1bb 2005 26bc
00000120: 99eb 43bb f795 903d 241f d5bc be6e 323d
00000130: 6082 39bb 5ad8 fe3c 0993 923b 84b6 ca3c
00000140: fe51 dd3c 0dc4 293c 9196 84bc af25 643c
00000150: 96cf c73c e0f4 493d 8eb6 ad3c 7492 593c
00000160: 43dd 213d 3b4f dbbc f00e f6bc fd0e 863c
00000170: 3339 d43b 0fd2 8d3b 7c5b 073c 9281 183d
00000180: ca9f 74bc 73be cf3c 906e 033d 18bc 8dbc

layers.3.weight f4 [100, 100]
0.018811109 0.089830056 0.07272146 -0.0058493284 0.06267494 0.036566257 0.09696139 0.033359986
-0.020117998 0.105307624 0.10222281 0.1058583 -0.021524964 -0.0056456383 -0.010000976 -0.014706636
-0.03932901 0.034502212 0.023217112 0.034768734 -0.025432788 0.03663538 -0.051705703 -0.02092799
0.11469217 0.01997904 -0.03368298 -0.023525305 -0.008667445 0.012381247 -0.06669275 -0.050692108
0.061613612 -0.048474524 -0.041589916 0.04469068 0.058439538 -0.0154873235 -0.029752798 0.123311706
0.08128964 -0.08096047 -0.017795675 0.01979004 0.046646822 0.09745189 -0.063279435 0.063581645
0.0010297002 0.019505277 0.009651324 -0.02676642 0.064627536 0.075808704 -0.077519044 0.099553466
0.0568089 0.012958188 0.035755545 0.0027812317 0.06734222 -0.013686694 0.00020863679 -0.0012858751
0.034616515 0.10407838 0.039932817 0.050498635 -0.0053617805 0.10494314 0.073129565 -0.014109703
0.033491235 0.08375975 -0.06857652 0.028387588 -0.09589237 -0.016172634 0.0782193 -0.054391846
-0.019076735 -0.008251517 -0.07541657 0.08508391 -0.058433406 0.0026408755 -0.05083435 0.030580578
0.005351103 -0.025573755 -0.009709852 -0.011592828 0.013638704 0.072038226 0.017479192 0.06489941
0.036716834 -0.081408344 -0.06747626 -0.09500892 -0.049496416 0.0018510519 0.066576056 0.009545772
-0.0942622 -0.043034974 -0.016318224 -0.08444954 -0.085368656 0.04111359 0.032100715 0.0723229
0.09792571 -0.019898646 -0.006996249 0.06380522 0.052774888 0.042569377 -0.068722926 0.07893897
0.03874295 -0.067703575 0.044911206 -0.09845463 -0.05055683 0.039143737 0.044706002 -0.06240828
0.09563938 -0.048362747 0.09716404 0.028835727 0.010634838 -0.010271611 -0.08084345 -0.095356785
0.04610457 -0.011269372 0.029256841 0.07265376 -0.056757912 0.02923456 0.04396568 -0.021641182
0.054889236 -0.031545337 0.0455501 -0.012452303 0.06092535 -0.034490947 -0.08594079 0.09414404
-0.0096624475 0.09575579 -0.021964397 0.04879515 -0.052135754 0.036113318 -0.048915174 0.0124461185
-0.055117317 0.08428966 0.087002076 -0.010392963 0.021998463 -0.026016317 0.029925777 -0.06334967
-0.013812989 -0.073507056 0.09272387 0.062493037 -0.07432741 -0.029963521 -0.09428505 0.051064372
-0.044499815 0.05575978 -0.02481282 -0.06504511 -0.029565863 0.06928649 0.08558245 0.044494577
-0.05415912 -0.08624406 -0.066787384 -0.07729003 0.07784859 0.06914282 0.07095812 -0.002659614
-0.09954085 0.04373136 0.08469249 0.05911154 0.07838269 -0.06299836 0.039264526 0.018453117
-0.019994952 0.09053635 -0.08522213 0.056260478 0.07129525 0.00474985 0.01997529 -0.09146996
0.09634107 -0.059017558 -0.032638036 0.093641534 0.096137196 0.046754 -0.045448817 -0.056249674
0.07318304 -0.0036861633 -0.06925757 0.037653368 0.055398766 0.08045091 -0.034458395 -0.08556438
-0.04182227 0.09505403 0.11923613 0.04349511 -0.07237946 -0.05110615 0.061796706 -0.086601324
0.088422984 0.07879658 -0.007636157 0.0030618783 0.079473555 -0.06471398 0.10086235 -0.0157223
0.041150697 0.017406452 0.08483746 -0.08389436 -0.027867436 0.0009202542 0.018140143 -0.06782494
0.100966476 0.08914471 0.01598766 0.043115363 0.0023621249 0.09984434 -0.013194549 -0.07017494
00000000: c119 9a3c d2f8 b73d fdee 943d b9ab bfbb
00000010: b85b 803d 80c6 153d b193 c63d 7ba4 083d
00000020: 80ce a4bc 86ab d73d 315a d13d 3dcc d83d
00000030: 1f55 b0bc 0cff b8bb 22db 23bc 1af4 70bc
00000040: 7517 21bd 3152 0d3d d031 be3c a969 0e3d
00000050: 6c58 d0bc fb0e 163d 5cc9 53bd 2d71 abbc
00000060: bae3 ea3d 15ab a33c 2af7 09bd 24b8 c0bc
00000070: e601 0ebc b7da 4a3c 3596 88bd 87a2 4fbd
00000080: 8e5e 7c3d 398d 46bd 305a 2abd 930d 373d
00000090: 4c5e 6f3d 8bbe 7dbc 24bc f3bc d98a fc3d
000000a0: 2f7b a63d 9ace a5bd 3cc8 91bc b91e a23c
000000b0: bd10 3f3d db94 c73d a698 81bd 1837 823d
000000c0: 01f7 863a 88c9 9f3c 9620 1e3c 4045 dbbc
000000d0: 715b 843d 9841 9b3d 4ec2 9ebd b0e2 cb3d
000000e0: 73b0 683d 944e 543c 6874 123d 5345 363b
000000f0: b8ea 893d 283e 60bc 83c5 5a39 cf8a a8ba
00000100: 0cca 0d3d 0c27 d53d 9890 233d a8d7 4e3d
00000110: e0b1 afbb 6eec d63d f4c4 953d 622c 67bc
00000120: 1b2e 093d 3b8a ab3d d971 8cbd 168d e83c
00000130: 3863 c4bd 797c 84bc 7131 a03d fcc9 5ebd
00000140: d046 9cbc 5f31 07bc 0174 9abd 7940 ae3d
00000150: de57 6fbd 8a12 2d3b ae37 50bd 1f84 fa3c
00000160: 4e58 af3b 0d80 d1bc 1216 1fbc d8ef 3dbc
00000170: df74 5f3c c788 933d 8630 8f3c fbe9 843d
00000180: 6464 163d 6bb9 a6bd fe30 8abd 0994 c2bd
00000190: c1bc 4abd ff9e f23a 0759 883d df65 1c3c
000001a0: 8a0c c1bd 7145 30bd ccad 85bc e1f3 acbd
000001b0: c3d5 aebd b966 283d 0a7c 033d 071e 943d
000001c0: 468d c83d 7c02 a3bc ca40 e5bb 50ac 823d
000001d0: 7b2a 583d 3a5d 2e3d 9bbe 8cbd c1aa a13d
000001e0: edb0 1e3d 2ca8 8abd d0f4 373d 95a2 c9bd
000001f0: ae14 4fbd 2f55 203d a41d 373d d39f 7fbd
00000200: 94de c33d 0418 46bd f1fd c63d e738 ec3c
00000210: be3d 2e3c 424a 28bc 4091 a5bd 6b4a c3bd
00000220: 25d8 3c3d 2ca3 38bc 0bac ef3c 7fcb 943d
00000230: fc7a 68bd 517d ef3c 5b15 343d d948 b1bc
00000240: 89d3 603d af35 01bd be92 3a3d bf04 4cbc
00000250: dc8c 793d 6146 0dbd ba01 b0bd 97ce c03d
00000260: 3e4f 1ebc 9d1b c43d aeee b3bc 6cdd 473d
00000270: 4d8c 55bd 8feb 133d 475b 48bd ceea 4b3c
00000280: b2c2 61bd 0fa0 ac3d 252e b23d 3f47 2abc
00000290: 1f36 b43c 2c20 d5bc e726 f53c 79bd 81bd
000002a0: e04f 62bc de8a 96bd 03e6 bd3d b3f8 7f3d
000002b0: f838 98bd 0f76 f5bc 8518 c1bd e028 513d
000002c0: 7045 36bd 5e64 643d 4144 cbbc 5f36 85bd
000002d0: 1c34 f2bc 13e6 8d3d da45 af3d f23f 363d
000002e0: f4d5 5dbd baa0 b0bd d3c7 88bd 3c4a 9ebd
000002f0: 156f 9f3d c09a 8d3d 7e52 913d eb4c 2ebb
00000300: 13dc cbbd a81f 333d 4273 ad3d f11e 723d
00000310: 1b87 a03d 4905 81bd d7d3 203d fe2a 973c
00000320: 74cc a3bc 1f6b b93d f188 aebd 6371 663d
00000330: 3e03 923d a1a4 9b3b 38a3 a33c 9a54 bbbd
00000340: 784e c53d 65bc 71bd 76af 05bd 22c7 bf3d
00000350: 94e3 c43d 1f81 3f3d 8a28 3abd 0f66 66bd
00000360: fde0 953d 8f93 71bb ead6 8dbd 6b3a 1a3d
00000370: d1e9 623d 72c3 a43d 3f24 0dbd 613c afbd
00000380: d44d 2bbd b0ab c23d 1232 f43d ee27 323d
00000390: af3b 94bd af54 51bd 8b1e 7d3d 095c b1bd
000003a0: 1c17 b53d 1a60 a13d ba38 fabb cba9 483b
000003b0: 08c3 a23d c388 84bd eb90 ce3d 0ecc 80bc
000003c0: a28d 283d fa97 8e3c 43bf ad3d ced0 abbd
000003d0: 404a e4bc 373d 713a a39a 943c cde7 8abd
000003e0: 83c7 ce3d 8091 b63d 8ef8 823c bc99 303d
000003f0: e1cd 1a3b 307b cc3d f32d 58bc e1b7 8fbd

layers.3.bias f4 [100]
0.018227769 -0.060275346 0.016181529 0.08031057 0.04724222 -0.07913661 -0.08023361 0.09373236
0.10555457 0.028055301 0.08365821 0.16379353 0.090588145 0.0707243 -0.08810566 -0.05437571
0.11951296 -0.0006036959 0.053374533 0.086835064 -0.042135995 0.11832269 0.00038944435 -0.018326784
0.08847723 0.049825586 -0.027545305 -0.034152623 0.05446225 0.05799389 0.093661964 0.048816968
0.06699582 0.021855514 0.075896665 0.002857193 0.087240376 -0.031509664 0.053749893 0.10442066
0.013274752 -0.07284394 -0.0046216357 0.08734896 0.009505067 -0.034571033 0.07707394 0.11946836
-0.042270485 0.03065744 0.04356793 -0.018562682 -0.020230344 -0.04748568 0.062104777 -0.09499901
-0.06941073 0.103483036 0.09342227 0.042048495 -0.09026261 -0.016658174 -0.09939432 0.0007429964
0.012879881 0.008622888 -0.016809657 0.05896288 0.021043748 0.11723987 -0.008771208 -0.07467764
-0.026895357 -0.014650218 -0.07676124 0.096898854 0.13324355 -0.03395558 0.11173334 0.12800945
0.04801026 0.022748986 -0.017910125 0.07638936 0.06355264 -0.080618165 0.0033507072 -0.063822806
-0.008237047 -0.018642135 0.077591255 0.10362652 -0.08739089 0.04002144 0.14410701 -0.10241093
0.058558516 0.10259118 0.14235379 0.069644034
00000000: 6752 953c 48e3 76bd 208f 843c de79 a43d
00000010: 0f81 413d 6012 a2bd 8551 a4bd c0f6 bf3d
00000020: ff2c d83d 3bd4 e53c ff54 ab3d 7eb9 273e
00000030: 4786 b93d e7d7 903d be70 b4bd 11b9 5ebd
00000040: 36c3 f43d 5941 1eba 419f 5a3d 95d6 b13d
00000050: cb96 2cbd 2b53 f23d 562e cc39 0d22 96bc
00000060: 8d33 b53d ea15 4c3d b1a6 e1bc 9fe3 0bbd
00000070: cf13 5f3d 008b 6d3d d8d1 bf3d 4df4 473d
00000080: 1b35 893d 560a b33c b66f 9b3d be3f 3b3b
00000090: 15ab b23d 4710 01bd d928 5c3d 80da d53d
000000a0: 587e 593c 342f 95bd 1771 97bb 03e4 b23d
000000b0: 24bb 1b3c 5b9a 0dbd f1d8 9d3d d4ab f43d
000000c0: d123 2dbd 5025 fb3c 4974 323d c410 98bc
000000d0: 1bba a5bc 5880 42bd 9461 7e3d d78e c2bd
000000e0: 3627 8ebd eaee d33d 2d54 bf3d 0b3b 2c3d
000000f0: 9adb b8bd b976 88bc 408f cbbd a5c5 423a
00000100: 2306 533c 0347 0d3c 68b4 89bc 1083 713d
00000110: f063 ac3c 751b f03d 1db5 0fbc 97f0 98bd
00000120: a753 dcbc 7807 70bc ff34 9dbd e872 c63d
00000130: ff70 083e 0215 0bbd 73d4 e43d e914 033e
00000140: 68a6 443d 155c ba3c 41b8 92bc 0672 9c3d
00000150: e327 823d 231b a5bd 8a97 5b3b 88b5 82bd
00000160: aef4 06bc 64b7 98bc 2ae8 9e3d 243a d43d
00000170: fff9 b2bd 85ed 233d ca90 133e d2bc d1bd
00000180: 0edb 6f3d 531b d23d 31c5 113e 88a1 8e3d

layers.5.weight f4 [100, 100]
-0.044196863 -0.0047076647 -0.07464188 -0.022406375 0.03645344 0.10859595 -0.092622966 -0.029585348
-0.018608507 -0.02517664 0.1415934 0.07703461 -0.07035238 0.027793668 -0.063067615 0.06046706
-0.015308651 0.08390349 -0.061292768 0.04878905 -0.018133136 0.0740514 0.033911448 -0.03217719
0.025096137 0.09716904 -0.0038043535 -0.019883664 -0.011735021 0.08963366 0.021532131 0.025735144
-0.03239433 -0.0481226 -0.10458895 0.030793864 0.08825347 0.058942553 0.071325675 -0.03620472
0.08780819 0.028480204 -0.09562669 0.1280247 -0.043040328 -0.067625254 0.11079258 -0.04807208
0.024856644 -0.01371831 -0.095009506 0.05778902 0.06447652 -0.05878408 -0.058038235 0.070261896
0.08692277 0.02524494 0.09369325 -0.072966434 -0.008693426 0.024160206 -0.08015468 -0.083262615
0.08172438 -0.0024729238 0.05386061 0.049408447 0.0051041855 -0.117195286 0.0878539 -0.0958062
0.03502951 0.029668335 0.083780326 0.032015253 0.08612845 0.03316147 0.0020718826 0.076006524
0.0911401 0.034751207 -0.020776566 0.17372784 0.04502716 0.03924968 -0.08922592 0.0008844803
-0.048142187 0.0840403 0.04412806 -0.016435655 -0.0598485 0.03852465 -0.11110667 -0.044897974
0.10019193 -0.05357282 0.07863133 -0.00624781 0.088993624 0.039515108 -0.06625871 -0.08808126
-0.07868144 0.044267256 -0.045420162 -0.055898417 0.00022791482 0.09086942 0.04764357 0.08505281
0.08805981 0.071742095 -0.081937365 0.013267954 -0.041510355 0.037452422 -0.038965885 0.04192689
0.033874925 -0.08117017 0.008710747 -0.079940185 -0.0059768627 0.064040124 0.08578864 -0.00019733794
0.028889524 -0.05806733 0.049172744 0.04637058 -0.08051179 0.09795962 -0.079074666 -0.04183045
-0.08676365 -0.07620887 0.1013698 -0.06889582 -0.037395377 0.065645725 -0.07435617 0.023144463
0.006720065 -0.016331442 -0.01583846 0.020088019 -0.03655507 -0.022203716 0.07324286 0.028640725
0.013188659 -0.01195499 -0.015742958 -0.03729243 -0.06696311 0.11420286 0.03830968 -0.036474913
-0.05772496 0.033488464 0.080147766 -0.012357263 -0.07446302 0.0013379987 0.08328521 -0.055064745
0.037780695 0.07703476 -0.08058176 0.04089876 -0.050460182 0.09475935 0.026306016 -0.007820574
0.06497856 0.025188016 0.06047687 0.0022735433 0.07441615 0.07756388 0.03022341 -0.04348408
0.042197485 0.07740905 0.023550235 0.08237267 -0.08711711 0.08036438 0.0037135743 -0.0011698736
-0.06928482 0.01809607 0.03035761 0.09813746 -0.018277865 -0.075009786 -0.0718497 0.05772991
0.08646554 -0.0679295 -0.039733354 -0.060169812 -0.055875145 0.07436815 -0.11774311 0.077068776
0.06498 0.061154857 0.06850444 -0.0361571 0.06703975 0.05088434 -0.001044762 -0.016113747
-0.07671909 0.003562178 -0.0065208897 -0.051129777 0.07845502 0.03223312 -0.01673194 0.012460075
0.0027057694 0.060887847 -0.039516162 0.0811491 -0.02811913 0.028168749 0.09273538 0.07696072
0.10376502 -0.011908324 -0.063684024 0.08689774 -0.036217812 -0.01976517 -0.049624182 -0.08732813
0.081685066 0.08994022 -0.020680306 -0.0015918366 -0.08379472 0.043252688 0.07695483 -0.07258157
-0.023646139 -0.07693164 -0.07794995 -0.04632775 0.00724166 0.029990163 0.025440369 -0.008806378
00000000: c507 35bd c142 9abb d8dd 98bd 938d b7bc
00000010: 3450 153d 8e67 de3d 1cb1 bdbd f95c f2bc
00000020: de70 98bc 3e3f cebc dcfd 103e 52c4 9d3d
00000030: e914 90bd 8caf e33c 9829 81bd 4fac 773d
00000040: 23d1 7abc 98d5 ab3d 200e 7bbd 07d7 473d
00000050: f18b 94bc 43a8 973d bbe6 0a3d 3bcc 03bd
00000060: 6a96 cd3c 9000 c73d 7652 79bb 11e3 a2bc
00000070: 3f44 40bc da91 b73d 2764 b03c 82d2 d23c
00000080: ebaf 04bd 341c 45bd bb32 d6bd 6a43 fc3c
00000090: 3cbe b43d bf6d 713d 3213 923d 674b 14bd
000000a0: c8d4 b33d 514f e93c edd7 c3bd e818 033e
000000b0: 0e4b 30bd 1c7f 8abd 38e7 e23d 3be7 44bd
000000c0: 29a0 cb3c c3c2 60bc 5894 c2bd 2eb4 6c3d
000000d0: 440c 843d 93c7 70bd 80b9 6dbd 78e5 8f3d
000000e0: 9104 b23d 7ace ce3c 3fe2 bf3d 6d6f 95bd
000000f0: df6e 0ebc a0eb c53c 2328 a4bd 9785 aabd
00000100: 1d5f a73d c710 22bb f19c 5c3d 8360 4a3d
00000110: 0341 a73b 1504 f0bd bfec b33d 0a36 c4bd
00000120: 1a7b 0f3d 020b f33c 0595 ab3d 6d22 033d
00000130: 1d64 b03d 52d4 073d 6cc8 073b 4fa9 9b3d
00000140: a9a7 ba3d 4857 0e3d 9e33 aabc b6e5 313e
00000150: 666e 383d 46c4 203d 14bc b6bd 78dc 673a
00000160: be30 45bd 521d ac3d a0bf 343d 11a4 86bc
00000170: b323 75bd 06cc 1d3d e58b e3bd f0e6 37bd
00000180: 6d31 cd3d 2c6f 5bbd 7609 a13d 6eba ccbb
00000190: 4a42 b63d 98da 213d a6b2 87bd f363 b4bd
000001a0: bc23 a1bd 9551 353d 7e0a 3abd bdf5 64bd
000001b0: 6bfc 6e39 bf19 ba3d e725 433d 2b30 ae3d
000001c0: b458 b43d 85ed 923d c7ce a7bd d561 593c
000001d0: c306 2abd b667 193d b19a 1fbd 88bb 2b3d
000001e0: 6fc0 0a3d 8c3c a6bd 85b7 0e3c aeb7 a3bd
000001f0: 8fd9 c3bb 7827 833d f4b1 af3d 80ec 4eb9
00000200: b9a9 ec3c 02d8 6dbd 5c69 493d 14ef 3d3d
00000210: 5ee3 a4bd 0e9f c83d e6f1 a1bd 6856 2bbd
00000220: 24b1 b1bd 6513 9cbd f89a cf3d 4019 8dbd
00000230: e52b 19bd 4471 863d 0c48 98bd 7599 bd3c
00000240: fe33 dc3b 84c9 85bc a8bf 81bc a18f a43c
00000250: c5ba 15bd 91e4 b5bc 5a00 963d f49f ea3c
00000260: 3f15 583c ddde 43bc 60f7 80bc f2bf 18bd
00000270: f423 89bd 30e3 e93d 9cea 1c3d b866 15bd
00000280: 0271 6cbd 332b 093d 8324 a43d 1e76 4abc
00000290: 1180 98bd c95f af3a 7091 aa3d 928b 61bd
000002a0: eebf 1a3d 66c4 9d3d 0d08 a5bd 7585 273d
000002b0: 56af 4ebd 3111 c23d b77f d73c dd21 00bc
000002c0: 7b13 853d 1957 ce3c 98b6 773d baff 143b
000002d0: 7f67 983d d0d9 9e3d 1697 f73c 5d1c 32bd
000002e0: 45d7 2c3d a388 9e3d 6cec c03c 01b3 a83d
000002f0: 756a b2bd 1496 a43d 705f 733b 7256 99ba
00000300: 33e5 8dbd 363e 943c 86b0 f83c 4bfc c83d
00000310: 76bb 95bc bb9e 99bd ef25 93bd 3376 6c3d
00000320: d814 b13d 9f1e 8bbd 71bf 22bd 9f74 76bd
00000330: 56dd 64bd 544e 983d 4d23 f1bd 3cd6 9d3d
00000340: 3c14 853d 847d 7a3d 0e4c 8c3d 7819 14bd
00000350: 234c 893d 196c 503d 65f0 88ba fa00 84bc
00000360: e61e 9dbd 6e73 693b 30ad d5bb 756d 51bd
00000370: 07ad a03d e006 043d 6c11 89bc 5825 4c3c
00000380: 4753 313b 8965 793d b3db 21bd 8031 a63d
00000390: 175a e6bc 26c2 e63c 0cec bd3d 959d 9d3d
000003a0: c182 d43d 221b 43bc c56c 82bd 71f7 b13d
000003b0: 2159 14bd 91ea a1bc ba42 4bbd 17d9 b2bd
000003c0: 804a a73d 9432 b83d bf69 a9bc 2ca5 d0ba
000003d0: 919c abbd bb29 313d 7e9a 9d3d a5a5 94bd
000003e0: 8cb5 c1bc 568e 9dbd 39a4 9fbd 2bc2 3dbd
000003f0: 724b ed3b eead f53c 5268 d03c a048 10bc

layers.5.bias f4 [100]
-0.037374403 -0.07789699 0.097607106 0.11419383 0.0013645407 -0.10111742 0.113920964 0.04373123
-0.045630913 0.09821226 -0.057739224 -0.03174651 -0.116881706 0.057560023 0.11685381 -0.075100474
0.11520203 0.0992536 0.03941482 -0.06930386 0.13334326 0.04587682 0.04269598 0.108134866
-0.0032241002 0.019440249 -0.014334388 -0.08544683 -0.00922411 -0.038060524 0.010375292 0.119138025
-0.029194118 -0.06230634 0.20726223 -0.00815255 -0.009299489 0.07630676 0.0012792527 0.10824185
-0.013853823 -0.022037735 0.044331245 -0.051164355 -0.09512847 0.106258556 -0.06677366 -0.061017945
-0.0774059 0.029567229 0.1318838 0.12519385 0.003537077 0.004930846 0.08640817 0.18964413
0.025025936 0.099110365 0.071730554 0.1507511 0.03723924 -0.09530363 0.056616407 0.06878547
0.012714931 0.077921286 0.035236184 -0.02765726 0.053293437 0.07890751 -0.09314233 0.030336455
0.16072646 0.04627974 0.07002208 0.042414438 0.016961696 0.09386908 0.06974167 0.14387459
0.040997304 -0.06967629 0.0062685083 -0.06339452 -0.08221977 0.023660434 0.090735495 -0.038058158
-0.009037398 -0.017734881 -0.02887781 -0.06537085 -0.07199152 -0.015352109 0.09544611 -0.04477252
-0.09491698 0.095430285 0.1089199 -0.10362009
00000000: e715 19bd 7588 9fbd 3ce6 c73d 74de e93d
00000010: 63da b23a a616 cfbd 654f e93d 851f 333d
00000020: 7be7 3abd 8223 c93d f77f 6cbd a108 02bd
00000030: ad5f efbd 0fc4 6b3d 0d51 ef3d 47ce 99bd
00000040: 0bef eb3d 7945 cb3d 6f71 213d 2fef 8dbd
00000050: 238b 083e 55e9 3b3d fbe1 2e3d d075 dd3d
00000060: 6d4b 53bb 2841 9f3c c8da 6abc bffe aebd
00000070: b920 17bc 5ae5 1bbd 21fd 293c a3fe f33d
00000080: 8128 efbc ef34 7fbd 8d3c 543e 4692 05bc
00000090: e25c 18bc b846 9c3d 99ac a73a e7ad dd3d
000000a0: 25fb 62bc 7b88 b4bc ae94 353d b791 51bd
000000b0: b7d2 c2bd 169e d93d a1c0 88bd f4ed 79bd
000000c0: fc86 9ebd f936 f23c 8c0c 073e d132 003e
000000d0: 4ece 673b ef92 a13b c4f6 b03d 1232 423e
000000e0: 3103 cd3c 60fa ca3d 78e7 923d 7f5e 1a3e
000000f0: 2c88 183d 8d2e c3bd 9be6 673d 66df 8c3d
00000100: 4952 503c 3295 9f3d d153 103d 7a91 e2bc
00000110: 384a 5a3d 439a a13d 68c1 bebd 2884 f83c
00000120: 7a95 243e d38f 3d3d bc67 8f3d c3ba 2d3d
00000130: 41f3 8a3c 6f3e c03d b8d4 8e3d dc53 133e
00000140: caec 273d 71b2 8ebd 0f68 cd3b fcd4 81bd
00000150: d762 a8bd 87d3 c13c 88d3 b93d dfe2 1bbd
00000160: 9811 14bc be48 91bc 2891 ecbc 27e1 85bd
00000170: 4a70 93bd 6a87 7bbc 4079 c33d 6463 37bd
00000180: d563 c2bd f470 c33d 6611 df3d c536 d4bd

layers.7.weight f4 [10, 100]
-0.08864603 -0.09858869 -0.14845246 -0.14847621 0.21527418 -0.061279006 0.17243624 0.10877093
0.12970847 -0.046371628 0.1195827 0.14204447 0.00288247 -0.26232398 -0.067358 -0.05627194
-0.114669085 0.17678447 0.10539352 -0.084325835 0.08736842 0.130029 0.066070005 0.0043235095
-0.08456531 -0.13980985 -0.060630728 -0.042016715 -0.07610899 0.014910546 -0.04116113 0.16604982
0.018175017 -0.0963033 0.047555435 0.022281604 -0.044775557 0.08155171 0.22093657 -0.10636194
-0.06409145 0.0656901 0.08123063 0.08960166 -0.09936586 -0.018626042 -0.0005714168 0.02247774
0.006355862 0.02699366 -0.11888018 -0.19166484 -0.08464506 0.02176959 0.11708288 -0.13449831
0.09943342 -0.3349508 -0.19423267 -0.044945404 -0.17707476 -0.002656877 0.17817788 -0.05243188
0.106493734 -0.044820324 -0.17708871 0.107792266 0.043220475 -0.07585819 -0.01746018 -0.03417465
-0.12018467 -0.020776996 0.24998206 -0.22762363 -0.11166709 0.03278818 0.05781839 -0.1860063
-0.18506335 -0.112824015 -0.07900176 -0.07688612 0.08237981 0.17482948 -0.21631517 0.034411766
-0.010815397 0.034002423 0.047574654 0.07136973 0.010368571 -0.07097326 0.1866269 -0.07817332
0.05197584 0.0019465043 0.04132522 0.026620582 -0.19502464 0.016280433 -0.0019921726 0.16722043
-0.18503729 0.092514835 -0.015223433 -0.19575031 -0.031336643 -0.07241882 -0.06878192 -0.13098583
-0.024083741 0.037029654 0.02241279 0.04400079 -0.0864325 -0.19090547 0.08102909 -0.020965038
0.16863383 -0.10465486 -0.027483534 -0.26732486 -0.06902728 -0.13737865 0.0488177 0.086546354
0.0629242 0.029670876 -0.048904397 0.12578918 0.00062833965 -0.06454286 0.16778766 -0.059555616
0.03702993 0.08833826 -0.2916026 -0.17613883 0.09625136 -0.16046336 -0.07378156 -0.017783307
0.06886791 0.20798144 -0.099701226 0.04545571 0.087395914 0.17299473 0.16956931 0.06244071
0.04484129 -0.11525132 0.08675775 0.2848367 -0.17968838 0.30278337 0.09557815 0.17076792
-0.06078226 0.011047617 -0.16266893 -0.10722596 -0.080021635 -0.11102676 0.12824899 -0.095804945
0.2816862 -0.008715724 -0.09441775 -0.025390534 -0.005645019 -0.0034731028 -0.18267027 -0.07013525
-0.07821094 0.13540402 -0.2146439 0.16892618 0.1713922 -0.09333616 -0.013227652 0.040502436
0.08061917 -0.00804247 0.22293022 0.003871439 0.061098017 -0.031658273 0.04936828 0.020438137
-0.048358787 0.0464995 -0.036357824 -0.011433521 0.053291373 -0.078818895 -0.02100695 -0.053944413
-0.10779774 0.066685684 0.04047954 0.16747372 0.09884369 -0.045307662 -0.023766018 -0.08373879
0.06166396 -0.1573699 0.046569105 0.059526518 0.10150045 0.007587837 -0.10840587 0.08296699
-0.045316152 -0.05089005 0.121030234 -0.052625574 0.08076002 -0.029691933 0.09685576 -0.1734137
-0.0385746 -0.10793528 -0.026367594 -0.029882787 -0.009341775 0.071577564 0.049217764 0.013739553
0.10066803 0.07846017 0.029936077 -0.07749027 -0.11820173 0.045435105 -0.03628782 -0.029264646
0.03328199 -0.054328896 0.18315966 -0.082623675 -0.008968115 0.1512996 -0.056487 0.083930336
0.027365979 0.03272518 -0.13711925 0.043315142 -0.099063985 0.14118975 0.069534086 0.027420776
00000000: 0d8c b5bd dee8 c9bd ec03 18be 260a 18be
00000010: d670 5c3e b2ff 7abd 2093 303e 4bc3 de3d
00000020: 4cd2 043e 2df0 3dbd c6e7 f43d 1b74 113e
00000030: d2e7 3c3b 544f 86be fef2 89bd 687d 66bd
00000040: a0d7 eabd fd06 353e 8fd8 d73d 06b3 acbd
00000050: 37ee b23d 5226 053e b64f 873d 3aac 8d3b
00000060: 9430 adbd 502a 0fbe ed57 78bd b819 2cbd
00000070: 08df 9bbd 5d4b 743c 9398 28bd f708 2a3e
00000080: c6e3 943c aa3a c5bd 7dc9 423d e987 b63c
00000090: 9366 37bd 9504 a73d 323d 623e 4ad4 d9bd
000000a0: 6142 83bd 8888 863d 3f5c a63d 1381 b73d
000000b0: 5480 cbbd a495 98bc 22cb 15ba 3d23 b83c
000000c0: d644 d03b cf21 dd3c 7477 f3bd ca43 44be
000000d0: 645a adbd 2456 b23c 26c9 ef3d edb9 09be
000000e0: c0a3 cb3d ac7e abbe eee4 46be ac18 38bd
000000f0: 1653 35be 001f 2ebb 4374 363e d0c2 56bd
00000100: 6319 da3d 8495 37bd be56 35be 31c2 dc3d
00000110: f407 313d 8a5b 9bbd a708 8fbc b8fa 0bbd
00000120: 6123 f6bd 8534 aabc 4cfb 7f3e 2b16 69be
00000130: b7b1 e4bd e64c 063d fad2 6c3d 6f78 3ebe
00000140: 3f81 3dbe 4710 e7bd adcb a1bd 7876 9dbd
00000150: bfb6 a83d 8006 333e b981 5dbe 5af3 0c3d
00000160: 1033 31bc 2046 0b3d a4dd 423d 4b2a 923d
00000170: f0e0 293c 6e5a 91bd 1f1b 3f3e 5519 a0bd
00000180: 9ee4 543d d921 ff3a a244 293d 6813 da3c
00000190: 8ab4 47be 8b5e 853c 1c8f 02bb d53b 2b3e
000001a0: 6a7a 3dbe 6b78 bd3d b56b 79bc c572 48be
000001b0: da5a 00bd 5150 94bd 89dd 8cbd 2621 06be
000001c0: 444b c5bc 68ac 173d 079b b73c 2c3a 343d
000001d0: 8603 b1bd b97c 43be 94f2 a53d dfbe abbc
000001e0: 59ae 2c3e 4a55 d6bd 2625 e1bc cede 88be
000001f0: 2d5e 8dbd fdac 0cbe 12f5 473d 373f b13d
00000200: 67de 803d 5610 f33c fa4f 48bd e1ce 003e
00000210: 29b7 243a 0c2f 84bd 87d0 2b3e 97f0 73bd
00000220: b2ac 173d b1ea b43d f04c 95be bd5d 34be
00000230: 6f1f c53d 8250 24be c91a 97bd 4cae 91bc
00000240: 9e0a 8d3d 16f9 543e 2830 ccbd c42f 3a3d
00000250: a1fc b23d 8825 313e 94a3 2d3e d4c1 7f3d
00000260: 80ab 373d e208 ecbd 0cae b13d 1ed6 913e
00000270: 3b00 38be 6c06 9b3e 7abe c33d c9dd 2e3e
00000280: d2f6 78bd 1001 353c af92 26be 4999 dbbd
00000290: 62e2 a3bd ff61 e3bd b453 033e 6235 c4bd
000002a0: 2c39 903e 65cc 0ebc 185e c1bd cfff cfbc
000002b0: daf9 b8bb ff9c 63bb ea0d 3bbe 12a3 8fbd
000002c0: 0f2d a0bd 5aa7 0a3e 9ccb 5bbe fcfa 2c3e
000002d0: 7081 2f3e 0727 bfbd cbb8 58bc e2e5 253d
000002e0: aa1b a53d 90c4 03bc d247 643e f8b7 7d3b
000002f0: ea41 7a3d 1bac 01bd 6536 4a3d e16d a73c
00000300: dd13 46bd 4276 3e3d f1eb 14bd aa53 3bbc
00000310: 0e48 5a3d cd6b a1bd c416 acbc d1f4 5cbd
00000320: 10c5 dcbd 8192 883d e0cd 253d 3b7e 2b3e
00000330: 8f6e ca3d 8794 39bd f4b0 c2bc 3e7f abbd
00000340: 5993 7c3d 9325 21be 3fbf 3e3d 14d2 733d
00000350: 78df cf3d 64a3 f83b e603 debd 99ea a93d
00000360: 6e9d 39bd 1672 50bd b3de f73d ea8d 57bd
00000370: 8265 a53d 7f3c f3bc 505c c63d 5c93 31be
00000380: 6600 1ebd 2c0d ddbd da00 d8bc bfcc f4bc
00000390: 3f0e 19bc 4297 923d 9198 493d dd1b 613c
000003a0: 0a2b ce3d baaf a03d 813c f53c 38b3 9ebd
000003b0: c013 f2bd 291a 3a3d 8aa2 14bd 69bc efbc
000003c0: b252 083d fa87 5ebd 358e 3b3e 9a36 a9bd
000003d0: 00ef 12bc 48ee 1a3e ea5e 67bd abe3 ab3d
000003e0: 9e2e e03c d70a 063d fd68 0cbe 386b 313d
000003f0: 0fe2 cabd 0c94 103e e367 8e3d 89a1 e03c

layers.7.bias f4 [10]
-0.030268563 0.2612112 -0.08801798 -0.037263103 -0.03149078 0.031528845 -0.15613368 0.22198701
-0.06404936 0.07418203
00000000: c7f5 f7bc 79bd 853e c542 b4bd 32a1 18bd
00000010: 7afc 00bd 6424 013d 82e1 1fbe 9050 633e
00000020: 502c 83bd c0ec 973d
