Topics/Fully Connected Network/output/one_class_1.pth (torch, 181424 bytes, 8 tensors)

layers.1.weight f4 [50, 784]
0	0xbcdef31e	-0.027215537
1	0xbd05f680	-0.032705784
2	0x3bc46dc0	0.0059945285
3	0x3ce70e52	0.02820507
4	0x3cee8412	0.02911571
5	0xbc071db8	-0.008246832
6	0xbc987107	-0.018608583
7	0xbc15696a	-0.009119371
8	0x3cdb0720	0.026736796
9	0xbd047ace	-0.03234368
10	0xbb405450	-0.002934713
11	0x3cd9df92	0.026595864
12	0xbbbbe02d	-0.005733511
13	0x3bc783b3	0.006088698
14	0x3cdb3b78	0.026761755
15	0x3c900754	0.01758162
16	0xbc4dff0e	-0.012573017
17	0xbd0c1f8e	-0.03420978
18	0xbad65da0	-0.0016354807
19	0x3ccc2ee2	0.0249247
20	0xbcecac9e	-0.028890904
21	0xbcf7f623	-0.030268734
22	0x3c524104	0.012832884
23	0xbd040cbe	-0.032238714
24	0x3a7f0880	0.00097287446
25	0xbc582b00	-0.013193846
26	0x3c57faa4	0.013182316
27	0xbce9d0ba	-0.028541911
28	0x3cc253f8	0.02372168
29	0xbc862b53	-0.01637808
30	0xbcd8654e	-0.026415493
31	0xbc194992	-0.009355919
32	0x3d102931	0.035195533
33	0x3c890b07	0.016728891
34	0xbcd4aabd	-0.02596032
35	0xbc935a9f	-0.017987547
36	0xbc59f6db	-0.013303484
37	0xbc96a0c3	-0.018387204
38	0xbbd54bb2	-0.0065092677
39	0xbc4a8b84	-0.012362365
40	0x3ceaeda5	0.02867777
41	0xbbba34f2	-0.005682581
42	0x3c683c94	0.014174599
43	0xbc1845f0	-0.009294018
44	0xbb63b0a2	-0.0034742733
45	0x3cdf3a97	0.027249618
46	0xbcc3bc52	-0.023893509
47	0xbc7e4e98	-0.015521668
48	0xbcd71014	-0.026252784
49	0x3ca43d42	0.020048741
50	0x3cc73405	0.024316797
51	0x3d0bd28a	0.034136333
52	0x3c0c60d4	0.0085680075
53	0x3c824904	0.015903957
54	0xbc61fa52	-0.013792591
55	0x3cdb94b2	0.026804302
56	0xbd0a3872	-0.033745237
57	0x3ba052a8	0.004892666
58	0xbc4439cd	-0.011976671
59	0xbbeabb52	-0.0071634436
60	0xbcf34f48	-0.02970089
61	0xbac2095e	-0.0014803817
62	0x3cf8c963	0.030369466
63	0x3cf382f5	0.029725531
64	0x3bfd86e0	0.0077370256
65	0xbc844643	-0.016146785
66	0xbcd95919	-0.026531743
67	0x3c07811d	0.008270529
68	0xbced7c01	-0.028989794
69	0xbc4177b3	-0.011808324
70	0x3914b154	0.0001418044
71	0xbbb735ac	-0.005591115
72	0x3a3c3794	0.00071799126
73	0xbbe06981	-0.0068485145
74	0xbc63d36a	-0.0139053855
75	0x3c81fc11	0.015867265
76	0xbce19661	-0.027537527
77	0x3c497238	0.012295298
78	0xbc4b50e4	-0.012409423
79	0x3b5e78ba	0.003394647
80	0xbc84df04	-0.016219623
81	0xbc5a21ac	-0.013313692
82	0xbc59bece	-0.01329012
83	0x3d0716eb	0.03298084
84	0xbc91a2ca	-0.01777782
85	0xbcbc53e0	-0.022989213
86	0x3c341deb	0.010993461
87	0x3b3671e3	0.0027838878
88	0x3bc5e1f8	0.0060389005
89	0xbce58045	-0.028015265
90	0x3b9576ad	0.0045612664
91	0x3cdbc13b	0.026825538
92	0x3cd4cdec	0.025977097
93	0xbc2ce29e	-0.010552077
94	0x3d01967c	0.031637654
95	0xbb462fc0	-0.0030240864
96	0x3d03f744	0.032218233
97	0xbd0f067d	-0.034918297
98	0x3cfda306	0.030961525
99	0x3d06b365	0.032885928
100	0xbc582b70	-0.01319395
101	0xbcfc68ce	-0.030811694
102	0x3ce2ebad	0.02770027
103	0x3b89b43e	0.0042023947
104	0xbc360292	-0.011109011
105	0xbcfc874f	-0.030826239
106	0xbc8a9945	-0.016918788
107	0x3c85a081	0.016311886
108	0x3c838db5	0.016058782
109	0xbc71f718	-0.014768384
110	0x3c03b21f	0.008038073
111	0x3c99ba2e	0.018765535
112	0x3ce8d2fa	0.028420914
113	0xbc14aed0	-0.009074882
114	0xbc9978c0	-0.018734336
115	0x3cf9322b	0.03041943
116	0xba5477cd	-0.000810501
117	0xbc8f938c	-0.01752641
118	0xbc6a4334	-0.014298249
119	0x3c8e98b3	0.017406797
120	0xbcd307eb	-0.025760612
121	0xbcf8c4fd	-0.030367369
122	0xbd12043e	-0.035648577
123	0xba8ac366	-0.0010586798
124	0x3cd23b4f	0.025663046
125	0x398a0d5d	0.00026331368
126	0x3ce0ca94	0.027440347
127	0xbacbf4d7	-0.0015560639
128	0xbcea9761	-0.028636636
129	0xbc792190	-0.015205756
130	0xbcb4f981	-0.022091629
131	0xbbe0d99c	-0.0068618786
132	0xbbc3d9a0	-0.0059768707
133	0xbcc13bdf	-0.02358812
134	0xbb9f7f07	-0.0048674378
135	0x3d031396	0.0320011
136	0x3d0a53d2	0.033771344
137	0xbae1e734	-0.0017235042
138	0xbb4ea185	-0.0031529379
139	0xbd090f83	-0.03346206
140	0x3bfbd2f0	0.007685058
141	0x3c375f00	0.011192083
142	0xbd0662f8	-0.032809228
143	0x3c9dc8c2	0.019260768
144	0x3bf314df	0.0074182595
145	0xbc523f4a	-0.012832472
146	0x3cb67f9f	0.022277651
147	0x3ae783a5	0.0017663134
148	0x3cdecb09	0.027196424
149	0xbd026c6c	-0.03184168
150	0x3d07a294	0.03311403
151	0x3c391e5c	0.011298742
152	0xbb2c7fb2	-0.002632123
153	0xbc87a335	-0.016557315
154	0x3c717568	0.0147374645
155	0xbcb113c2	-0.021615867
156	0xbd06f130	-0.032944858
157	0xbc9db08b	-0.019249221
158	0x3c81db98	0.01585178
159	0xbb215e70	-0.002462294
160	0x3c87e187	0.016587032
161	0xbcb0de7d	-0.021590466
162	0xbbce0df6	-0.0062882854
163	0xbc0d35f0	-0.008618817
164	0xbca9fc44	-0.020750172
165	0x3a6a47d4	0.0008937095
166	0x3ce735a6	0.028223824
167	0x3c56b39c	0.013104346
168	0x3d0eedeb	0.034894865
169	0xbca8c17c	-0.020600073
170	0x3c556d86	0.013026601
171	0xbcd48bbf	-0.025945542
172	0x3caa1265	0.020760724
173	0xbba61f7f	-0.0050696726
174	0xbca371bc	-0.019951694
175	0xbcff0d1c	-0.03113418
176	0xbbd3cee3	-0.006463872
177	0xbcdb2824	-0.026752539
178	0xbc6a37a4	-0.014295492
179	0xbb442516	-0.0029929332
180	0x3c0c1819	0.008550667
181	0xbcfd890c	-0.030949138
182	0x3b3defb4	0.0028981986
183	0x3ce28a1e	0.02765375
184	0x3c9fbfed	0.019500697
185	0x3c503806	0.0127086695
186	0xbd070a57	-0.032968845
187	0x3c8bd743	0.017070418
188	0xbcf213e4	-0.0295505
189	0x3cac2935	0.021015743
190	0xbb7dae33	-0.0038708567
191	0xbc8a23f0	-0.01686284
192	0xbc61923d	-0.013767776
193	0x3c4feb8a	0.012690434
194	0xbd09a377	-0.033603158
195	0x3c3daeef	0.011577352
196	0x3c9c894a	0.019108433
197	0x3bdcdf43	0.006740482
198	0x3d1109a5	0.03540959
199	0x3c59de20	0.013297588
200	0xbc261f3a	-0.010139281
201	0xbc99971d	-0.018748814
202	0xbbf14bf0	-0.007363789
203	0xba2d766d	-0.0006617073
204	0xbc7830e2	-0.015148373
205	0x3d00ac4e	0.031414323
206	0x3c6840d3	0.014175612
207	0x3c9c57ca	0.01908483
208	0xbc3e9ba4	-0.011633787
209	0x3b863c52	0.004096546
210	0x3ca0b30e	0.01961663
211	0xbcaaa857	-0.020832224
212	0xbd0550de	-0.032547824
213	0xbc6f27b6	-0.01459687
214	0x3cf5ef30	0.03002128
215	0x3c5a4b5a	0.013323629
216	0xbc8b7fd5	-0.017028729
217	0xbce4db17	-0.027936501
218	0x3ca44350	0.020051628
219	0x3c095341	0.008381666
220	0xbb90ab58	-0.004414957
221	0xbb2d1df7	-0.0026415566
222	0x3d011989	0.031518493
223	0xbc91c633	-0.017794704
224	0x3c9a443a	0.018831361
225	0x3c41267c	0.011788961
226	0x3cd1d37e	0.025613543
227	0xbb7adcc9	-0.003827857
228	0x3be04242	0.006843836
229	0x3d036337	0.03207704
230	0xbc1f7865	-0.009733294
231	0x3c1cd589	0.009572395
232	0xbb5db2d6	-0.0033828518
233	0xbc7bae8e	-0.015361441
234	0x3c0eb084	0.008709077
235	0xbd13e605	-0.036108036
236	0xbcdfe789	-0.027332084
237	0xbd09be02	-0.03362847
238	0x3cbac52f	0.022799103
239	0x3c7ed468	0.015553571
240	0xbc3de1a0	-0.011589438
241	0xbc9fa241	-0.019486548
242	0x3c84e11e	0.016220625
243	0x3cfbd3d9	0.030740665
244	0x3cee190d	0.02906468
245	0xbd0d9183	-0.0345626
246	0xbc0974e9	-0.00838969
247	0x3c4a95d0	0.01236482
248	0xbc29f3d5	-0.0103730755
249	0x3c25af69	0.010112622
250	0x3d04d118	0.03242597
251	0x3cd0f093	0.02550534
252	0x3cbdb251	0.023156317
253	0x3ce31fe8	0.027725175
254	0x3ce8f847	0.0284387
255	0xbce5cc5b	-0.028051546

layers.1.bias f4 [50]
0	0x3b8e6dca	0.004346584
1	0xbbb4f636	-0.0055225147
2	0xbcef6996	-0.029225152
3	0xbcbf0cce	-0.023321535
4	0xbc95852c	-0.018251978
5	0x3d0ca4af	0.034336742
6	0xbd0ae685	-0.033911247
7	0xbc4ed978	-0.012625091
8	0x3ac9140f	0.0015341061
9	0x3ca3725b	0.01995199
10	0xbcc27295	-0.023736278
11	0xbc0addf6	-0.008475771
12	0xbcab4e41	-0.020911338
13	0xbd0d6dc4	-0.03452851
14	0xb9d93713	-0.000414305
15	0xbc954a16	-0.018223803
16	0x3cb7a0e6	0.02241559
17	0x3c83e520	0.016100466
18	0x3d0cba26	0.034357212
19	0xb94249b0	-0.00018528732
20	0x3c4234d0	0.011853412
21	0xbb4f4c23	-0.0031631074
22	0x3bdece43	0.0067994907
23	0x3c9ac288	0.018891588
24	0x3af13e84	0.0018405472
25	0x3c68fc00	0.014220238
26	0x3c8ba2e9	0.017045455
27	0xbc874d59	-0.016516374
28	0x3aabe48c	0.0013114377
29	0x3cb888bd	0.02252614
30	0xbc1affd8	-0.009460412
31	0x3d043abf	0.032282587
32	0xbcd25d92	-0.025679383
33	0x3d01ebb7	0.031718936
34	0xbab2faac	-0.0013655028
35	0x3cdb9395	0.026803771
36	0x3c8d9c52	0.017286453
37	0xbcdc8e7a	-0.026923407
38	0x3cd26d6d	0.025686944
39	0x3b15c586	0.002285333
40	0x3c867b7a	0.0164163
41	0xbc2b271e	-0.010446338
42	0x3b34cd03	0.0027588017
43	0xbcba0b4d	-0.022710467
44	0x3c5d5341	0.013508619
45	0x3cf110d8	0.029426977
46	0x3d027224	0.031847134
47	0xbc871b82	-0.016492609
48	0xbc753c36	-0.014967969
49	0xbcedb7d2	-0.029018316

layers.3.weight f4 [50, 50]
0	0x3da7c65e	0.081921324
1	0x3e035933	0.12826996
2	0x3d77ce1d	0.0604993
3	0x3e08ee1e	0.13372084
4	0x3d39bacd	0.045344163
5	0x3de5e90e	0.11226092
6	0x3e0d01c0	0.13770199
7	0xbdb94ce7	-0.09047871
8	0x3c5826d5	0.013192852
9	0xbc0baf81	-0.00852573
10	0xbdb56f0a	-0.0885907
11	0x3dbee867	0.09321671
12	0xbd151665	-0.03639831
13	0x3cdab395	0.02669696
14	0xbd316433	-0.043308448
15	0xbe084a84	-0.13309675
16	0x3d120805	0.03565218
17	0xbe0c825f	-0.13721608
18	0x3d61b734	0.055106357
19	0x3d9eeb5c	0.07759735
20	0xbda1a455	-0.07892672
21	0x3dbb4f20	0.09145951
22	0x3cf15baa	0.029462654
23	0x3c527569	0.012845376
24	0x3d4b355d	0.049611438
25	0x3dc58ac3	0.09645607
26	0xbdf7f58d	-0.12107382
27	0xbdcb80b1	-0.09936655
28	0xbd11918c	-0.035539195
29	0xbc9462ba	-0.018113483
30	0x3ce0bfa5	0.027435133
31	0xbc338115	-0.0109560685
32	0x3d0cbae2	0.034357913
33	0xbddbcf56	-0.107329056
34	0x3cb4fd7b	0.022093525
35	0x3d3efff9	0.046630833
36	0xbd187503	-0.037220966
37	0x3d194d9a	0.037427522
38	0x3dab6c4c	0.08370265
39	0x3e083198	0.13300169
40	0xbcb33645	-0.021876464
41	0xbd89299d	-0.0669739
42	0x3dc01cda	0.09380503
43	0xbe093db0	-0.13402438
44	0xbd24ba9f	-0.04021704
45	0xbda747ee	-0.081680164
46	0x3d1fe505	0.03903677
47	0xbd3f9ae6	-0.046778582
48	0x3d0764d0	0.033055127
49	0xbdc6beb6	-0.09704344
50	0x3d9f599d	0.07780764
51	0xbdc08aa8	-0.094014466
52	0xbc9d7f26	-0.019225668
53	0x3dd5a3b6	0.10431616
54	0xbd7f12d1	-0.062273804
55	0x3d226761	0.03964937
56	0xbe06cdaa	-0.13164392
57	0x3deb6304	0.11493495
58	0x3dc2801d	0.09497092
59	0xbd95ae03	-0.07308581
60	0xbd14cc55	-0.03632768
61	0xbe0efe1e	-0.13964126
62	0x3cbb6b19	0.022878217
63	0xbdcfa8ad	-0.10139594
64	0x3cff7396	0.031183045
65	0x3dd6774c	0.10471973
66	0xbc654e91	-0.0139957825
67	0xbd50815e	-0.050904624
68	0x3d3083de	0.04309451
69	0xbde620da	-0.11236735
70	0x3ddaabae	0.106772766
71	0xbd1879fb	-0.037225705
72	0xbd486600	-0.0489254
73	0x3db5e7a5	0.08882073
74	0xbda508bc	-0.080583066
75	0xbd0220a7	-0.03176942
76	0x3d67adab	0.056562107
77	0xbcecd032	-0.028907869
78	0xbd6a132d	-0.057147194
79	0x3d53d145	0.051713247
80	0xbdeb6621	-0.11494089
81	0xbe059bbf	-0.13047694
82	0xbdae6b1e	-0.08516525
83	0xbc35c129	-0.011093416
84	0xbd363722	-0.044486172
85	0x3e079682	0.13241008
86	0x3d1a5a03	0.037683498
87	0xbdfa821c	-0.12231848
88	0xbda1d05c	-0.079010695
89	0x3b63f8b1	0.0034785683
90	0x3d595aa4	0.053064957
91	0x3df9be2c	0.121944755
92	0x3d9ea9c1	0.07747222
93	0xbdae076d	-0.0849751
94	0xbdc53648	-0.09629494
95	0xbd96fcf4	-0.07372466
96	0x3def3af3	0.116811655
97	0xbd43fad9	-0.04784665
98	0x3dcdff95	0.10058514
99	0x3da40162	0.08008076
100	0x3d07b5b6	0.033132277
101	0xbdc37662	-0.09544064
102	0xbd25d7a5	-0.040488858
103	0x3b59a316	0.003320878
104	0xbc5b3542	-0.013379397
105	0x3c7660a8	0.015037693
106	0xbc38dbff	-0.01128292
107	0x3d0cbe52	0.03436119
108	0x3d905de0	0.07049155
109	0xbe06b23b	-0.13153927
110	0xbd2f9372	-0.042865224
111	0xbd832f8e	-0.06405555
112	0xbe0c88f9	-0.13724126
113	0x3dc69f16	0.09698312
114	0xbde5c7d4	-0.11219755
115	0x3d99c5d9	0.075084396
116	0x3e10e374	0.14149266
117	0x3d998931	0.0749687
118	0x3e0a92d9	0.1353258
119	0x3dde5c35	0.10857431
120	0xbba1d942	-0.004939229
121	0x3c056c17	0.008143446
122	0xbdcaad43	-0.09896328
123	0xbe067851	-0.13131835
124	0x3d908daa	0.0705827
125	0x3e0e1cc0	0.13878155
126	0xbdb6879f	-0.089125864
127	0xbd536554	-0.051610306
128	0x3dadd05b	0.08487006
129	0x3d15198f	0.036401328
130	0x3e0b0a2d	0.135781
131	0x3e0d2950	0.1378529
132	0x3d855ea1	0.0651219
133	0x3cbbb837	0.022914989
134	0xbdb734b8	-0.08945602
135	0xbc8b71fd	-0.017022127
136	0xbdde6b24	-0.10860279
137	0xbc4e55b1	-0.012593673
138	0xbda58f06	-0.0808392
139	0x3d8d0bab	0.06886991
140	0xbdb02fb0	-0.08602846
141	0x3d335f0f	0.043791827
142	0x3e07ad54	0.13249713
143	0x3dc4f837	0.09617656
144	0x3d2c3a83	0.04204799
145	0x3c84ee47	0.0162269
146	0x3d973df7	0.07384866
147	0xbdd2b2db	-0.1028802
148	0x3dc3b155	0.09555308
149	0xbc423f93	-0.011855978
150	0xbd24b067	-0.040207293
151	0x3ddfdec1	0.10931159
152	0x3da751fb	0.081699334
153	0xbd22f964	-0.03978862
154	0x3d5b8ca9	0.05360094
155	0x3de918eb	0.11381706
156	0xbdc1d99f	-0.09465336
157	0x3da26336	0.07929079
158	0x3bea7dc6	0.0071561066
159	0x3e0ec48a	0.13942161
160	0xbdd15129	-0.10220558
161	0x3d1c36db	0.03813825
162	0xbb8e109e	-0.004335477
163	0x3c48eb24	0.012263093
164	0x3cf7d048	0.030250683
165	0x3dc63394	0.096778065
166	0x3cae6332	0.021287534
167	0xbb42804b	-0.002967852
168	0x3e0fb478	0.14033687
169	0x3da4a16e	0.08038603
170	0xbdf7e887	-0.12104898
171	0xbe08e1be	-0.13367364
172	0xbcd8e50d	-0.026476407
173	0x3dd323f0	0.10309589
174	0xbc8a4713	-0.016879594
175	0x3de0b907	0.10972791
176	0x3c4ce9d1	0.012506918
177	0xbcfe03fd	-0.031007761
178	0xbda7047a	-0.08155151
179	0x3dc9404a	0.09826715
180	0x3d3fdcd4	0.046841457
181	0x3c90a4c1	0.017656686
182	0x3d9096bc	0.0706
183	0x3d9246f4	0.071424395
184	0xbe0b2d6b	-0.13591544
185	0xbe009f53	-0.12560777
186	0xbd87b549	-0.06626374
187	0x3d625f4b	0.05526666
188	0x3ca85f61	0.020553293
189	0xbbcd85f0	-0.00627207
190	0xbd710059	-0.058838222
191	0x3c9c8908	0.01910831
192	0x3db89cc7	0.09014278
193	0xbd94226f	-0.0723313
194	0xbdf6ee9f	-0.12057232
195	0x3d8f97e5	0.070113935
196	0xbdc9a6f3	-0.09846296
197	0x3d13856c	0.036015913
198	0xbd712562	-0.05887354
199	0x3db7ec1c	0.08980581
200	0xbd85e1ce	-0.065372095
201	0xbc2e8969	-0.010652878
202	0xbc9e31d8	-0.019310877
203	0xbd3536d8	-0.044241756
204	0xbe021fe1	-0.12707473
205	0x3db0dec6	0.08636241
206	0x3af9ee0c	0.0019068136
207	0xbde2e5da	-0.11078997
208	0xbd5a2fb0	-0.053268135
209	0x3de387e7	0.11109906
210	0x3db81bc7	0.08989673
211	0x3dce977c	0.10087487
212	0xbda90f00	-0.08254814
213	0x3d2d140d	0.04225545
214	0xbd9a48d7	-0.07533424
215	0x3d06ef63	0.03294314
216	0xbbf39d9f	-0.0074345614
217	0xbd97fa4d	-0.07420788
218	0x3d8704bc	0.065927
219	0x3dcc40c2	0.09973289
220	0x3d49e26d	0.049288202
221	0x3dae64ac	0.085152954
222	0x3d77d831	0.06050891
223	0xbd69bbf7	-0.057064023
224	0x3dbede41	0.09319735
225	0x3d9a86c1	0.075452335
226	0xbcb6f2b7	-0.022332532
227	0x3d1bb3d9	0.038013313
228	0xbd7934ae	-0.060841255
229	0x3dfb3c45	0.12267355
230	0xbddf72d3	-0.10910573
231	0xbdf391cb	-0.11893042
232	0xbd45b303	-0.048266422
233	0x3d538d48	0.05164841
234	0x3d39e0b4	0.04538031
235	0xbdb76db0	-0.08956468
236	0xbb8a0cb2	-0.004212939
237	0x3ba59610	0.0050532892
238	0x3dd2e00a	0.10296638
239	0xbc4cb71a	-0.012494827
240	0xbe051db7	-0.12999617
241	0x3dd4b63c	0.10386321
242	0x3cccef2c	0.02501639
243	0x3dd0a316	0.10187356
244	0xbd832430	-0.064033866
245	0xbde81659	-0.113323875
246	0x3bb4ce7d	0.0055177794
247	0xbd78fa60	-0.06078565
248	0x3de74813	0.11293044
249	0x3dfb5915	0.122728504
250	0xbdd6f3d8	-0.10495728
251	0x3d2b3f84	0.04180862
252	0xbe07adb9	-0.13249864
253	0xbdf1cce6	-0.118066594
254	0x3cfe347f	0.031030891
255	0x3d364ff5	0.044509847

layers.3.bias f4 [50]
0	0x3d965546	0.07340483
1	0xbdd073f5	-0.10178367
2	0x3dcde8fc	0.10054204
3	0xbcbbfea3	-0.022948569
4	0xbd5d6ef7	-0.054060902
5	0x3e065c0a	0.13121048
6	0xbe0d5bb0	-0.13804507
7	0x3e02b9d4	0.127662
8	0xbd9de446	-0.07709555
9	0x3d9a8f7b	0.07546898
10	0xbdde5268	-0.108555615
11	0xbce058b5	-0.027386049
12	0xbdc1aead	-0.09457145
13	0xbd71d592	-0.059041567
14	0x3dc52b7e	0.09627436
15	0x3cecbed7	0.028899593
16	0x3df5bf8f	0.119994275
17	0x3ca2d50b	0.019876977
18	0xbdf263eb	-0.11835464
19	0x3d36449c	0.044499025
20	0x3db93f08	0.090452254
21	0x3e01aa16	0.12662539
22	0x3d5a8cb1	0.05335683
23	0x3c95eabc	0.018300407
24	0x3d3ccc34	0.04609318
25	0xbc1793e6	-0.00925157
26	0x3dccff1d	0.100095965
27	0xbdc20f2c	-0.0947555
28	0x3cc6c05a	0.024261642
29	0x3c59aa49	0.013285228
30	0x3dfd6ebe	0.12374638
31	0x3e0993ae	0.13435242
32	0xbd889c31	-0.06670416
33	0x3d049eb5	0.032377917
34	0xbda9bedf	-0.08288359
35	0x3ca1bf93	0.01974467
36	0xbdd81dc2	-0.10552551
37	0xbdfdb9a4	-0.12388924
38	0x3d5e93cc	0.05434017
39	0xbcaa85d1	-0.020815762
40	0xbd855303	-0.06509974
41	0xbd081363	-0.033221614
42	0x3d14a21f	0.036287423
43	0xbe0811fa	-0.13288108
44	0xbdca7104	-0.09884837
45	0x3d683680	0.0566926
46	0xbdcfc225	-0.10144452
47	0x3d065208	0.032793075
48	0x3dc61e7f	0.096737854
49	0xbda64f84	-0.08120635

layers.5.weight f4 [50, 50]
0	0x3b450484	0.0030062506
1	0xbcbec48a	-0.023287077
2	0xbb2e2f5b	-0.002657852
3	0xbac1cdc9	-0.001478606
4	0x3d0bba3b	0.03411315
5	0xbd14f863	-0.036369693
6	0xbe079548	-0.1324054
7	0x3cfd7333	0.03093872
8	0x3ddc08e9	0.10743887
9	0xbdd92c09	-0.10604102
10	0xbd5e81c0	-0.054322958
11	0x3daa3ba5	0.083121575
12	0xbd8377fb	-0.06419369
13	0xbde76248	-0.112980425
14	0x3dbe789d	0.09300349
15	0x3d8f9534	0.0701088
16	0xbba5bacb	-0.005057668
17	0x3d93106b	0.07180866
18	0xbdc9f40a	-0.09861
19	0xbd03d4b1	-0.03218526
20	0x3e0abffc	0.13549799
21	0x3d5088dd	0.050911773
22	0x3db101ef	0.08642947
23	0xbe0c43ae	-0.13697693
24	0x3a2a80ae	0.000650416
25	0xbd8ac0fa	-0.067750886
26	0xbd1483d1	-0.036258522
27	0xbd042f93	-0.032271933
28	0x3db1ee4d	0.086880304
29	0x3d1dfe21	0.038572434
30	0x3c80a0ad	0.015701616
31	0x3da217bb	0.079146825
32	0x3d605ae5	0.054774184
33	0x3dd506f5	0.104017176
34	0xbdb3a181	-0.08771039
35	0xbdf5b5b0	-0.11997545
36	0x3db51b3d	0.08843086
37	0x3dc4e88d	0.09614668
38	0xbda5738c	-0.080786794
39	0xbe04afc5	-0.12957676
40	0xbd2e9731	-0.042624656
41	0xbdab0c9f	-0.08352017
42	0x3d3823c1	0.044955973
43	0x3de0f126	0.109834954
44	0xbe0d782d	-0.13815375
45	0xbdb47bbc	-0.08812663
46	0x3df3ea91	0.11909974
47	0x3dfd2178	0.12359899
48	0xbdd8503b	-0.10562178
49	0x3baed3e0	0.005335316
50	0xbc6503b7	-0.0139779365
51	0xbe011ee9	-0.12609448
52	0x3da47b6e	0.08031355
53	0xbe001001	-0.12506105
54	0xbe00e7f1	-0.12588479
55	0xbdb4de04	-0.088314086
56	0x3dfa4197	0.122195415
57	0x3cd08f27	0.025458885
58	0xbe09ced3	-0.13457803
59	0x3d0e1b03	0.03469373
60	0x3dc7498c	0.09730825
61	0xbd6012f6	-0.054705583
62	0x3db2a5b3	0.08723011
63	0xbd40f630	-0.047109783
64	0x3d5f87d7	0.054572906
65	0x3dc9ecac	0.09859595
66	0x3dd51a75	0.10405437
67	0x3e020a4d	0.12699242
68	0x3e0b6629	0.1361319
69	0x3e0851cc	0.13312453
70	0xbdc924d7	-0.0982148
71	0xbdbb21f1	-0.09137333
72	0xbe03cfb7	-0.12872206
73	0xbdec7d99	-0.11547393
74	0xbdc7e478	-0.09760374
75	0x3d89260d	0.06696711
76	0x3dd920b6	0.10601942
77	0xbd7e2464	-0.062046424
78	0xbc159ddb	-0.009131874
79	0x3dad58b6	0.08464186
80	0x3cc34b3b	0.023839584
81	0xbd466520	-0.048436284
82	0x3c110021	0.008850128
83	0xbddf69ab	-0.109088264
84	0x3d1581f4	0.036500886
85	0xbcf230a1	-0.029564204
86	0xbcea5366	-0.02860422
87	0x3d1189c8	0.03553179
88	0x3cb39d7e	0.021925684
89	0x3c1ed28a	0.009693751
90	0x3d8f2b3c	0.06990668
91	0xbdcd768a	-0.10032375
92	0xbd9e2a8c	-0.07722959
93	0x3d7ba86a	0.06143991
94	0xbdbbd2a5	-0.09171037
95	0x3d0a5661	0.033773784
96	0x3cefd6d7	0.029277248
97	0x3c5bf610	0.013425365
98	0xbde1ab23	-0.1101897
99	0xbd343981	-0.044000152
100	0xbdf2f7df	-0.11863684
101	0xbd9b7f01	-0.075925834
102	0xbe00384f	-0.1252148
103	0x3d808267	0.06274872
104	0xbd2d8ae3	-0.04236878
105	0x3debde96	0.11517064
106	0xbe04c2ab	-0.12964885
107	0x3e0ebbd0	0.13938832
108	0x3e0a7796	0.13522181
109	0xbce05eed	-0.027389014
110	0xbd8e1bc3	-0.06938889
111	0xbd2e1017	-0.042495813
112	0xbd31b33c	-0.04338382
113	0x3db9a9f4	0.09065619
114	0xbdfa1ad5	-0.12212149
115	0xbbe2913a	-0.006914285
116	0xbd4cbe9a	-0.04998646
117	0xbc098f61	-0.008396001
118	0x3de20c9d	0.11037562
119	0x3cc66fc5	0.024223218
120	0xbd2a84cf	-0.041630562
121	0x3c9cb36e	0.019128527
122	0x3de62787	0.11238008
123	0xbd7bfc6b	-0.06152002
124	0x3a15ca24	0.000571402
125	0xbdc6d0a5	-0.097077645
126	0x3c586cb0	0.013209507
127	0xbd93258a	-0.071848944
128	0xbddcbdee	-0.10778414
129	0xbde8d4c1	-0.113687046
130	0x3d059bef	0.032619413
131	0xbdda08bc	-0.10646197
132	0x3cb26183	0.021775013
133	0x3dba5b09	0.09099395
134	0x3deef554	0.116678864
135	0x3d8d9c18	0.06914538
136	0x3d681990	0.056665003
137	0xbdf9e872	-0.122025385
138	0x3e000eda	0.12505665
139	0xbd86e581	-0.06586743
140	0x3b21edba	0.0024708346
141	0x3cc9952f	0.02460727
142	0xbe0cdc11	-0.13755824
143	0xbd9c358f	-0.07627403
144	0x3dbd07e1	0.092300184
145	0xbcefb1f4	-0.02925966
146	0x3cd48e45	0.025946746
147	0x3d0fbf4e	0.03509455
148	0xbd97a210	-0.07403958
149	0xbd1626b8	-0.03665802
150	0xbcc7f093	-0.024406707
151	0x3db6ce7e	0.08926104
152	0x3db3d8cd	0.08781586
153	0xbdd0c67c	-0.10194108
154	0x3df95fa5	0.12176446
155	0xba4b4f34	-0.00077556376
156	0x3ca3cc59	0.019994901
157	0x3d147c8c	0.03625159
158	0xbb9e58c0	-0.004832357
159	0x3c7a0368	0.015259601
160	0xbd8bae81	-0.06820393
161	0xbd0389a1	-0.032113675
162	0x3db3fee5	0.08788852
163	0x3b5056fc	0.0031790128
164	0xbc71fa86	-0.014769202
165	0x3d2f899d	0.042855848
166	0xbd98c2ae	-0.07459007
167	0x3dc3b444	0.09555867
168	0xbdc9b0ec	-0.09848198
169	0xbd9cc85c	-0.07655403
170	0xbd758894	-0.059944704
171	0x3d2ac073	0.04168744
172	0x3df1ea69	0.11812288
173	0xbd4d259b	-0.05008469
174	0xbda9df0a	-0.082944945
175	0x3d93d1a9	0.07217724
176	0x3e0f2949	0.13980593
177	0x3db799d4	0.08964887
178	0x3cda3a1a	0.026639033
179	0xbe0b59c4	-0.13608462
180	0xbd9ea249	-0.07745797
181	0x3de10896	0.10987966
182	0xb9040c1d	-0.00012593014
183	0x3d27fbd7	0.041011658
184	0xbdfb2ddd	-0.12264607
185	0xbdb0fdde	-0.08642171
186	0x3da03a3d	0.07823608
187	0xbdd700d6	-0.10498206
188	0xbb2b6230	-0.0026151054
189	0xbc1b03ef	-0.009461387
190	0x3ac432ef	0.0014968793
191	0xbd7b8b62	-0.061412223
192	0xbcc731de	-0.02431577
193	0xbce5ac0c	-0.02803614
194	0x3de478d1	0.111558564
195	0x3def2357	0.116766624
196	0x3a1fc344	0.00060944655
197	0x3dd222f0	0.1026057
198	0xbd3cecbc	-0.046124205
199	0x3d9a6fa3	0.07540824
200	0xbe036d80	-0.1283474
201	0xbd4a3133	-0.049363326
202	0xbd7fea32	-0.062479205
203	0xbda489ba	-0.08034082
204	0x3dbe3027	0.09286528
205	0x3dfaf075	0.12252895
206	0xbd2b54e4	-0.041829005
207	0xbd20963a	-0.039205767
208	0xbd94047c	-0.07227418
209	0xbccb0748	-0.024783745
210	0x3d0e8350	0.034793198
211	0xbdb55bdc	-0.088554114
212	0xbba90a30	-0.005158685
213	0x3c58bf9e	0.013229279
214	0x3ce59340	0.028024316
215	0xbdad5c93	-0.08464923
216	0x3e10982b	0.14120547
217	0x3cb047f8	0.021518692
218	0xbe0d8826	-0.13821468
219	0xbca31197	-0.019905848
220	0xbcbb6ed9	-0.022880005
221	0x3e10d220	0.14142656
222	0x3cb7e14c	0.022446297
223	0x3bf6c7da	0.0075311484
224	0x3cd170e4	0.025566526
225	0x3d55b4bb	0.05217431
226	0xbc1ecc12	-0.009692209
227	0xbe0c3e75	-0.136957
228	0x3c8b66c4	0.017016776
229	0x3a012037	0.000492576
230	0x391162b3	0.00013865046
231	0xbe0edd53	-0.13951616
232	0x3b9396be	0.004504054
233	0xbdb32f70	-0.08749282
234	0xbd97c307	-0.074102454
235	0x3e0f0dad	0.1397006
236	0xbde9bf9c	-0.114135
237	0x3ce4bac5	0.02792109
238	0xbdc06414	-0.093940884
239	0xbdb60fef	-0.08889758
240	0x3d29678e	0.041358523
241	0x3d9753e8	0.07389051
242	0x3d2c6560	0.042088866
243	0xbbc25594	-0.005930612
244	0x3d7a7adf	0.061152335
245	0xbd843611	-0.06455625
246	0xbd7bd909	-0.061486278
247	0x3e07cf7d	0.13262744
248	0xbd163596	-0.036672197
249	0x3c13614d	0.008995366
250	0xbc2e9ec4	-0.01065797
251	0xbda6ceaa	-0.08144887
252	0x3d18936a	0.03724996
253	0x3cbf62f7	0.02336262
254	0x3becff3a	0.007232574
255	0xbd820360	-0.063483

layers.5.bias f4 [50]
0	0xbc5b9a98	-0.013403557
1	0x3daa08fe	0.083024964
2	0xbd6e4124	-0.05816759
3	0xbd2d03a1	-0.04223979
4	0x3be8dc8f	0.0071063708
5	0xbdd59b83	-0.10430052
6	0x3dd8b4cd	0.1058136
7	0xbde7d19b	-0.11319276
8	0x3d9a6172	0.075381175
9	0xbdbc3f7b	-0.091917954
10	0x3c388011	0.011261002
11	0xbddf5e4d	-0.10906658
12	0xbd4fe6ae	-0.050757103
13	0x3e0b22e9	0.13587536
14	0xbe07cdcd	-0.132621
15	0x3e0e3487	0.13887225
16	0x3dc061ae	0.09393631
17	0xbdf6ed5d	-0.12056992
18	0x3d90f8b5	0.07078687
19	0xbdecb348	-0.11557633
20	0x3d79e331	0.061007682
21	0xbd0f2269	-0.034944925
22	0xbe082897	-0.13296734
23	0x3cd88a0a	0.02643301
24	0xbdaed8f9	-0.08537478
25	0x3d15098f	0.03638607
26	0x3e0747ec	0.1321103
27	0xbe078160	-0.13232946
28	0x3df56ba6	0.11983423
29	0x3da593f4	0.080848604
30	0xbc04c7e3	-0.008104297
31	0xbb836a28	-0.0040104575
32	0x3debb041	0.11508227
33	0x3dd310e3	0.10305955
34	0xbc3e9eab	-0.011634509
35	0x3d7d4529	0.061833534
36	0xbcd63c2c	-0.026151739
37	0xbbca0e31	-0.0061662425
38	0xba8b222d	-0.0010615044
39	0x3e09df98	0.134642
40	0x3d9da8d0	0.07698214
41	0xbe0fb4ac	-0.14033765
42	0xbc949f93	-0.018142497
43	0xbb8ce418	-0.004299652
44	0x3dd79b57	0.105276756
45	0x3cd44a87	0.025914444
46	0xbbc0d4e7	-0.005884755
47	0x3d6668e5	0.05625238
48	0xbd92bb7c	-0.07164666
49	0xbd6bb5b0	-0.057546318

layers.7.weight f4 [2, 50]
0	0x3d3ead79	0.046552155
1	0x3d4243f0	0.04742807
2	0x3dc6aff0	0.09701526
3	0xbd8e504d	-0.0694891
4	0x3d4e8f69	0.050429735
5	0xbda0654c	-0.07831821
6	0x3d12c31d	0.035830606
7	0xbdb5308d	-0.08847151
8	0x3d4108a1	0.04712737
9	0xbd83923f	-0.064243786
10	0x3dddae83	0.10824301
11	0x3d6c59c4	0.057702795
12	0xbdefe381	-0.11713315
13	0xbd6a4502	-0.057194717
14	0x3d0d2392	0.03445775
15	0xbcd2fe2a	-0.02575596
16	0xbdc6c7ec	-0.09706101
17	0x3d95a115	0.073061146
18	0xbdf21be3	-0.11821725
19	0xbe166d83	-0.14690213
20	0xbc833f3c	-0.016021363
21	0x3d13e1fe	0.036104195
22	0x3ced46e7	0.028964473
23	0x3dbbde47	0.091732554
24	0xbd01edd4	-0.03172095
25	0xbdfcbba9	-0.12340481
26	0x3daad0d0	0.08340609
27	0xbdc5d13d	-0.0965905
28	0x3dfbf0aa	0.123017624
29	0x3db14217	0.08655184
30	0xbdb24d1c	-0.08706114
31	0xbdf9c586	-0.12195878
32	0xbcacdab1	-0.021100374
33	0xbcbc1835	-0.022960762
34	0xbdcf97db	-0.10136386
35	0x3d74b4ed	0.059742857
36	0xbdae99fb	-0.08525463
37	0x3de81575	0.113322176
38	0x3de4bc37	0.11168712
39	0x3d9fc64f	0.07801496
40	0x3d55d3a9	0.052203808
41	0x3da58163	0.08081319
42	0xbd60c069	-0.054870997
43	0x3c124120	0.00892666
44	0x3ded2b3a	0.115805104
45	0x3d8d854f	0.06910192
46	0x3e015826	0.12631282
47	0xba608a1d	-0.00085655024
48	0x3ddd013f	0.10791253
49	0x3d919a7c	0.07109544
50	0xbd935a8c	-0.07195005
51	0x3dc13496	0.09433858
52	0xbdc19306	-0.094518706
53	0xbd5f8585	-0.054570694
54	0x3da11677	0.07865613
55	0xbd9cb2ec	-0.07651314
56	0x3dc7f0a5	0.09762696
57	0x3d043d3f	0.03228497
58	0x3d65e2c8	0.05612448
59	0xbc7be35f	-0.015374034
60	0x3da19354	0.07889429
61	0x3d27ab9a	0.040935136
62	0x3dfe26f7	0.12409776
63	0xbdc5bd54	-0.09655252
64	0x3cbdc72c	0.023166262
65	0xbde789e2	-0.11305596
66	0x3c132501	0.00898099
67	0xbda6ee1a	-0.08150883
68	0x3d8f6dd9	0.07003374
69	0x3cfcd58d	0.030863548
70	0xbdce7ad9	-0.10082025
71	0x3d7cc6bc	0.061712965
72	0xbd5814cf	-0.05275422
73	0xbdbb048c	-0.091317266
74	0xbde41c79	-0.11138243
75	0xbdd10799	-0.10206527
76	0x3c2df76e	0.010618074
77	0x3de84279	0.11340804
78	0x3c004d27	0.007830895
79	0x3dbf568b	0.09342679
80	0x3dfc1e0d	0.12310419
81	0xbd3f5dc3	-0.046720278
82	0x3c8ae24a	0.016953606
83	0x3e050d1c	0.12993282
84	0x3dc3f351	0.09567893
85	0xbcbdaee8	-0.02315469
86	0x3bd69235	0.006548191
87	0xbd8372e4	-0.06418398
88	0xbc92cf7f	-0.017921207
89	0x3d6a7d0b	0.057248157
90	0x3d67f1b3	0.056626987
91	0x3ddfe83b	0.10932966
92	0xbd5dddf8	-0.054166764
93	0xbdec3cff	-0.115350716
94	0x3d4106a5	0.047125477
95	0xbde93065	-0.11386184
96	0xbdd3eb18	-0.10347575
97	0x3e0e0a55	0.13871129
98	0x3d211c2e	0.039333515
99	0x3db5f7ce	0.088851556

layers.7.bias f4 [2]
0	0xbd650aa8	-0.055918366
1	0xbdb032d4	-0.08603445
