Topics/Convolutional Network/output/cnn_demo_100Perc.pth (torch, 226998 bytes, 10 tensors)

0.layer.0.weight f4 [4, 1, 3, 3]
00000000: 1042 133e 972f 2f3e 0e97 9b3e 12e3 cf3e
00000010: 34d8 1fbd 59be 44be 3cf5 1cbd c4fd e73d
00000020: 02a6 963e 7034 d93e 461a 6a3e 138a 63bd
00000030: 538d a63e 7879 19be 8c82 eabd 058d f03b
00000040: 8ccb 0fbe 9286 b0bc 63bb 9dbe f72c 123c
00000050: 32a1 263e 60a2 94be 8619 92bd 4dbb ec3e
00000060: bdcc ccbd 6cac 1f3e a66d 873e cfaf 253f
00000070: 5109 723f 4172 973e d2e0 773f e61e 783f
00000080: e7ce 3c3f 5fb5 573e cc4d 353f afd7 513f
0.1438067 0.17107998 0.30388683 0.40602928 -0.039024547 -0.19213237 -0.03831981 0.11327699
0.2942353 0.4242282 0.22861585 -0.0555516 0.32529697 -0.14987743 -0.11450681 0.0073410296
-0.1404249 -0.021548543 -0.30807027 0.008921853 0.16272429 -0.29030132 -0.071337745 0.4623665
-0.09999988 0.15593117 0.26450843 0.6472139 0.94545466 0.29579356 0.96827424 0.9692215
0.7375321 0.21065281 0.70821834 0.8196973

0.layer.0.bias f4 [4]
00000000: 14a5 dd3c 024d 2b3d d93a 00b9 ca66 843e
0.027056254 0.041821487 -0.00012228954 0.25859672

1.layer.0.weight f4 [9, 4, 3, 3]
00000000: b33d 033e c03d 4b3d 16be bcbd baba 98bd
00000010: 188b 28bd 7086 60bd ef7e fdbd eae6 473d
00000020: 2dde a4bd beec 99bd 5a43 623d bad5 0cbe
00000030: a590 d1bd 9cab 723d fe65 9fba 62a0 8b3d
00000040: 8026 1d3e e68e 383d 59aa 1ebe 0c00 a5bd
00000050: 94a4 67bd 55bb 0cbe a61d 1a3e 11f3 e03c
00000060: c25a 36bd 3604 a7bd 89a1 8d3d 83d3 c5bd
00000070: c30b c03d 7ee1 fcba d43f 76bc 535b 393d
00000080: f81c 5d3e b532 bd3d 9995 e7bd 4d28 1ebe
00000090: 42b6 bfbd 73f8 7e3d e5be 983d 41b5 ca3c
000000a0: eeb0 dcbd 20c2 a4bd 64ce c93d d8a3 f13d
000000b0: 7bb2 1cbd ee58 8a3d dec0 333e 0440 953d
000000c0: 31c8 e23d 5fe6 073e 0d7a 013e 669b 31be
000000d0: 48fb 11be 17d4 abbc a9a3 eb3d d4cf 303e
000000e0: a57f 293d 314d 183e b716 77bd dfc1 97bc
000000f0: 0674 8c3d 7d34 dc3d 70dd 143e bfaa 893e
00000100: c907 f33e 49ae ac3e 3876 e1bd 7e37 4a3e
00000110: ae48 873e ec91 a9bd 8f8f a23e cb33 b53e
00000120: 1551 1f3e 2802 6cbd 2312 1cbe 0609 7cbd
00000130: f72f 663e 5662 d33d 6c79 06bd 0fc5 f5bc
00000140: dcb6 d83d df03 1bbe a3b9 4e3e fde9 cf3d
00000150: 595e a03d 7fc1 2fbc 708e 383e c899 7bbc
00000160: b786 643d e672 393e 0d57 a63d 9e0c 4bbb
00000170: 9cd7 b13d b363 1bbb efa8 143e d71e 6f3d
00000180: c345 d93d cb8b a6bd ec12 0ebe a9d4 0c3f
00000190: 318d c53e 6592 cfbd 3d02 ef3e 5714 cf3e
000001a0: 4c4d 923e 5136 b33e 1e0b 4c3e 550a 4f3e
000001b0: 9b69 053e 8e11 d23d 6377 e13d 669a 08be
000001c0: 40fa e9bd ec4f 5f3d 649f e83d 34c0 b3bd
000001d0: 382e 753d 6345 023c 434a 8a3d d2b9 c9bc
000001e0: cf55 f13d b09f 2c3e d9b6 d2bd 4bd5 8abd
000001f0: e021 fc3d f075 ddbc c980 3a3d b4be 2b3e
00000200: fc1f 813d a2d9 303e e4cf eebd cc5b 06be
00000210: 5031 273d 3114 d23c 508a b73b b9a0 883d
00000220: 5937 113e d882 22be 8a81 aabd 74c7 023e
00000230: 37c9 e03b 8f00 b83d 23f1 3fbb e85b 183e
00000240: b1ad 253e bff0 673d 80f9 0d3e 766d cfbd
00000250: b98a 233e 4744 823e 782c 673e f11d a33d
00000260: 73df 9d3b a9b2 8dbd 7c6f 7f3d 2dcc 3cbc
00000270: 6e4b 17be 88c1 443e ec7e 383e f183 333c
00000280: f121 0cbd dd6b 383e 5694 a7bd 6aee 17bd
00000290: d199 c93d 38a0 5a3b 3812 3f3e 55db cb3d
000002a0: 69af 823c a53a 2c3c 4810 e1bb e828 e63d
000002b0: e1fb bd3e ba63 bb3e d2b6 c53e a3d1 173f
000002c0: 3f1a d63e ae40 843e ccec 053f b397 d93e
000002d0: 6994 32bd 5273 11be b54a 0fbe 03f2 91bd
000002e0: 7a1e af3b 35df d1bc 2976 153e 585d 7abd
000002f0: 337a 743c 60ef 9bbc 3fd4 043e 3c6b 2bbd
00000300: 14d1 e73d 672d 80bc cda4 c93d 9f36 793d
00000310: b33a d73c ba1f d4bc 0725 05bd 303e 94bd
00000320: 253a 9a3b a2c2 29be f5a1 febd ea88 f7bd
00000330: 0876 54bd 8b45 793d 1599 103d 4521 c9bd
00000340: 03fe 85bd 6409 4f3e 47f0 663d 3978 2abe
00000350: 8a0a e63d 07cd 7e3d b19a 89bc 7e95 18be
00000360: a720 17be 559e 303d a0b3 d23d 2344 d83d
00000370: 5d11 d2bd 6c4b 993c bc1f 4a3d 4048 e5bd
00000380: 8390 f2bd 6514 0b3d b51f 133d a077 ad3d
00000390: 8416 12bd 2fd3 49bd 0fc6 26be 9cfb c33d
000003a0: 3fb1 893d 3c88 633d 440f 33be 7659 05bd
000003b0: 5d81 b83d 6331 c23d 077d a2bd e2c0 083e
000003c0: c993 d0bd 0c00 e2bc 0c36 c6bd 009c 2e3e
000003d0: be71 07be 3ff2 c73d 0415 7e3e 7aca 4cbd
000003e0: 4947 f1bb bf2d a33e 8b99 ce3d 81eb 55bd
000003f0: 73c2 403d 34c0 8f3d 2006 89bd 031b e83d
0.12816505 0.049619436 -0.092159435 -0.0745749 -0.041148275 -0.05481571 -0.12377726 0.0488042
-0.08050189 -0.07515858 0.055240013 -0.13753405 -0.10232667 0.05924569 -0.0012161133 0.068177
0.15346718 0.045058154 -0.1549467 -0.080566496 -0.05655344 -0.13743336 0.15050372 0.027459653
-0.044520147 -0.081551 0.06915576 -0.09659483 0.09377243 -0.0019293276 -0.015029866 0.04525311
0.21593082 0.09238187 -0.1130783 -0.15445061 -0.09360935 0.06224866 0.07458285 0.024744632
-0.10775934 -0.08044839 0.09853819 0.11798829 -0.03825615 0.06755243 0.17554042 0.07287601
0.1107334 0.13271473 0.12644215 -0.17344436 -0.14256012 -0.020975156 0.11505825 0.1726678
0.041381497 0.14873196 -0.060324397 -0.018525062 0.06858067 0.10752199 0.14537597 0.2688808
0.47466877 0.3372672 -0.110088766 0.19747731 0.26422638 -0.082797855 0.31750152 0.35391077
0.15558274 -0.057619244 -0.15241294 -0.061532043 0.22479235 0.103214905 -0.03283064 -0.030001191
0.10581753 -0.15138195 0.20188002 0.101520516 0.078304954 -0.010727285 0.18023086 -0.0153564885
0.055792537 0.18110237 0.08122072 -0.0030982862 0.08683702 -0.0023710548 0.14517568 0.05837902
0.10609009 -0.08132132 -0.13874406 0.55011994 0.38584283 -0.101353444 0.46681395 0.40445206
0.28574598 0.35002378 0.19926116 0.20218785 0.13028567 0.102572545 0.11009099 -0.13340148
-0.114246845 0.05451958 0.11358526 -0.08776894 0.05985853 0.007951113 0.067524455 -0.024624739
0.11783945 0.16857791 -0.10288782 -0.06778964 0.12311149 -0.027033776 0.045532975 0.16771966
0.06304929 0.1727052 -0.11660746 -0.13120955 0.040818512 0.025644394 0.005601205 0.066712804
0.1418127 -0.15870225 -0.08325489 0.12771398 0.006859924 0.089844815 -0.0029288016 0.1487881
0.1617954 0.056626078 0.13864708 -0.101283 0.15970887 0.25442716 0.22575557 0.07964695
0.004817897 -0.06918842 0.06236218 -0.011523289 -0.14774868 0.19214451 0.18017167 0.01095675
-0.034212057 0.18009897 -0.0818259 -0.037092604 0.09843791 0.0033359658 0.18659294 0.09953944
0.015952783 0.010512029 -0.006868396 0.11238271 0.3710623 0.36599523 0.38616043 0.59304255
0.418169 0.25830597 0.5231445 0.4249855 -0.043598566 -0.14204147 -0.13993342 -0.07126238
0.0053442093 -0.025619129 0.14595856 -0.061124176 0.014921713 -0.019035041 0.1297159 -0.041850314
0.11319175 -0.01564665 0.098458864 0.060843106 0.026273107 -0.025894035 -0.032506015 -0.07238424
0.0047066384 -0.16578153 -0.124332346 -0.12086661 -0.051870376 0.060857337 0.03530224 -0.09820799
-0.065425895 0.20218426 0.05638149 -0.16647424 0.11232479 0.062207248 -0.016797395 -0.14900777
-0.1475855 0.043119747 0.10288167 0.10559871 -0.10257218 0.018712722 0.04934667 -0.11195421
-0.1184397 0.033954997 0.03591891 0.08470082 -0.035666004 -0.049273666 -0.16286491 0.09569475
0.0672326 0.055549845 -0.17486292 -0.03255602 0.09009049 0.09482076 -0.07934003 0.13354829
-0.10184438 -0.027587913 -0.096782774 0.17051697 -0.13226983 0.09763002 0.24812704 -0.049997784
-0.007363234 0.3187084 0.1008788 -0.052226547 0.04706044 0.07019082 -0.066906214 0.11333277

1.layer.0.bias f4 [9]
00000000: a498 bcbd 1562 d73d 2f2e 053e 8d7f 313e
00000010: 2dfc 12be 8694 223e 776e f53d fcc9 053e
00000020: 5933 d7bd
-0.092088014 0.105167545 0.13005899 0.17333813 -0.1435401 0.1587697 0.1198396 0.13065332
-0.10507841

3.weight f4 [100, 441]
00000000: ab2b abb8 d202 3bbd 8154 2dbd 42e4 8cbc
00000010: fe2e cfbc 4eec 51bc 7026 cdbc 5fe9 c03c
00000020: bc33 acbb ec9d d13c f394 443c fc60 3f3d
00000030: 8f8a debc 154b 32bd 2d49 8cbc 40cf e43c
00000040: 59c3 c4bc 7ac5 4abc 3e06 35bc a024 243d
00000050: 224d ef3c 4d42 dfbc 7e30 0a3d 26d3 563c
00000060: df4e 63bc 65dd 963c 407d e73c 2dfe f43c
00000070: 30ee e7bc d985 c13b e989 3ebb 5b83 983c
00000080: 517c a23b 241c 27bc 6591 103d 7880 89bc
00000090: 92a7 2bbd bfe8 38bd 64d8 b73c 3e66 8d39
000000a0: faf4 333c 36c2 00bd 8739 053d edd1 f23c
000000b0: 297e 123d a885 2d3d a60c 11bc f47c 71bb
000000c0: f017 e23c f353 29bc 220e 1bbc ee0d ddbb
000000d0: ea2f 64bc ee7e 023c 969b 583b 4850 2ebd
000000e0: 5aa5 53bd 5d21 023d 82fa 9dbb b44a ea3c
000000f0: 8ff7 363d b92a ae3c 7a0c a8bc 8a15 06bd
00000100: fbd7 44bd 0a24 21bd bf0e 643d 8dc1 993d
00000110: 97bb 18bd 5a46 86bd b839 04bd 23f1 8b3c
00000120: e5c0 243a 975a dcbc 9f7a f53c 9eca e5bc
00000130: 2d5d 3c3c fa56 34bd 7ce7 42bd 11ea 2e3d
00000140: d986 be3b a42b 4bbd f1f9 453c b099 2f3d
00000150: 1365 d53c 5a1e 923b 95d6 e13c c86f 1b3d
00000160: e762 fdbc aab0 8d3b fd0b 993c c3a8 143d
00000170: b7e1 ee3c 3dd4 00bb c8fc 5bbc be8e c539
00000180: c7e9 4a3d 11a6 393d c0d1 a73b cbfe 91bc
00000190: 44e2 2f3b 144f 453d 90e9 b7bb 4b60 0a3d
000001a0: 533c 113d e9f0 74bc a661 1bbd 076d 04bd
000001b0: ee58 843d a590 8a3c a6b7 4a3d 58ac 243c
000001c0: 6e16 48bd 2020 eb3c cb85 5dbd a33c 7abc
000001d0: 18cf f43c 9f9d 3c3c 3843 24bd d406 98bc
000001e0: 9f74 f3bc 0dac 46bc d880 a8bd 11e9 57bb
000001f0: a712 b63c f4e2 6cbc 8f93 903c 22d3 8cbd
00000200: b9a6 303d 561c b03b d8d6 143d e472 5ebd
00000210: 5bf7 fd3b a528 fb39 509f 8abc ca4a c5bc
00000220: 6570 083d c150 18bd 9c18 2a3c 9a49 233d
00000230: e43e 3bbd 2c31 c7bc 2e54 ab3c 696b 433c
00000240: 1269 273d 0252 97bc a16b cabb 72d7 0b3d
00000250: 0f04 c6bc 037d 90bc b05a 053d ecb6 16bd
00000260: 4518 e03c 2104 093d 0368 293d a354 65bc
00000270: 7205 473b f758 a63c 3964 103c ba94 c0bb
00000280: 5fbb 773c 89f5 87ba 5ab3 543b 9d76 3b3c
00000290: 0595 eebc 46e7 5f3d fc5a e1bb 348c 2fbd
000002a0: 5e61 743c e610 663c f390 8b3c a175 943c
000002b0: 765c 703c 0937 ec3b fd67 09bd 5688 2bbc
000002c0: 90ab 973c 756a f0bc 9340 6d3c 5e96 ccbc
000002d0: c338 28bd 3338 e1bc f9ad 223d 47ec 123d
000002e0: 9a82 96bc ecf0 dd3a 20c8 40bd a6ed bd3c
000002f0: 896b d43a 2805 94bc 79e0 393d 5846 473d
00000300: 53a2 373d 23d6 473c bd59 513b 6324 ecbb
00000310: 2855 bd3c de93 77bc fccd 243c 0f3d 2dbd
00000320: bba7 db3c 405a 7c3c 7b42 34bb 0f3a 173d
00000330: 476f 87bb 4c0f 64bb f4d0 a03d 44d4 903c
00000340: 53ba e3bc 7407 49bc bee0 c73c 6d90 3abd
00000350: 22f8 9cbc 2ba1 7abd 363b 1e3d bb9a 7e3c
00000360: 5278 6dbd 536f 273c 4114 c93c e157 d5ba
00000370: 7e3d 9bbb 2507 8e3b cf9a 11bd b761 c5bc
00000380: 9f3c 31bd 0ec4 c73b a9d2 5c3c 1ef4 983d
00000390: 84ec 13bd b409 b13c 7fff 11bd 9742 103d
000003a0: 2dcf 223d d2ef 43bb 2f36 b83b 4460 99bd
000003b0: 1482 71bc 0eec 00bd 7d0a 93bb e9ae 873c
000003c0: b168 183d 35ad 08bd 99de d13c bd9e 0e3c
000003d0: eb55 acbb a30c a0bc 6911 3c3d 97b2 9c3c
000003e0: 3a05 c2bc 50a0 023d 4984 ca3c d0ad d1bc
000003f0: c5ae 3d3d 7db1 33bd e486 6ebc 792d 1c3c
-8.162049e-05 -0.045656987 -0.042316917 -0.017198686 -0.025290962 -0.012812687 -0.025042742 0.02354878
-0.0052551907 0.025587998 0.011998403 0.04672335 -0.02716568 -0.043528635 -0.017124737 0.027930856
-0.02401893 -0.012376184 -0.011048852 0.04007399 0.029211584 -0.027253294 0.033737652 0.013111865
-0.013873785 0.018416116 0.028257966 0.029906357 -0.028311819 0.0059058485 -0.00290739 0.018617323
0.0049586673 -0.01019958 0.03529491 -0.016784891 -0.041907854 -0.04514384 0.02244205 0.00026969792
0.0109837 -0.031435214 0.032525565 0.029641116 0.035764847 0.042363793 -0.008853113 -0.003684816
0.027599305 -0.010334956 -0.009463819 -0.0067460453 -0.013927439 0.007964833 0.003305172 -0.04255703
-0.051671363 0.0317701 -0.0048211226 0.028600074 0.044669684 0.021260606 -0.020513762 -0.032735385
-0.048057538 -0.03934101 0.055678125 0.0750762 -0.037288275 -0.06556387 -0.032281607 0.017082756
0.0006284847 -0.026898665 0.029965697 -0.028050717 0.011496824 -0.04402826 -0.047584042 0.042703692
0.005814415 -0.049602166 0.012083516 0.042871177 0.026049173 0.0044591846 0.027568141 0.0379484
-0.03093095 0.0043240385 0.018682474 0.036293756 0.029160364 -0.0019657754 -0.013426967 0.0003768112
0.049539354 0.04532439 0.0051214397 -0.01782169 0.0026837746 0.048171118 -0.0056125596 0.03378324
0.03545792 -0.014950016 -0.03793492 -0.03233054 0.064622745 0.016914675 0.049491547 0.010050856
-0.048849516 0.028701842 -0.054082673 -0.015273246 0.029883906 0.011512189 -0.040103167 -0.018557943
-0.029718695 -0.012125981 -0.082277 -0.0032945315 0.022225691 -0.014458407 0.017648486 -0.06876208
0.04312775 0.0053744717 0.036337703 -0.054308787 0.0077504343 0.00047904733 -0.01692167 -0.024083514
0.033310313 -0.037186388 0.010381844 0.039865114 -0.045714274 -0.02431544 0.020914163 0.011927464
0.040871687 -0.018471722 -0.006177381 0.03414101 -0.024171857 -0.017637735 0.03255719 -0.03679554
0.027355323 0.033451203 0.04135896 -0.01399723 0.0030368236 0.020306094 0.008812957 -0.0058771046
0.015120356 -0.0010372858 0.0032455535 0.011441854 -0.029123792 0.05466392 -0.0068773013 -0.042858317
0.014915792 0.014042115 0.01703689 0.018122496 0.014670482 0.007208709 -0.033546437 -0.010469517
0.018514425 -0.029347638 0.014480728 -0.024974044 -0.041069757 -0.027492618 0.039716695 0.035869863
-0.018372823 0.0016932762 -0.047065854 0.023184609 0.0016206364 -0.018068865 0.04538009 0.04865107
0.04483254 0.01219705 0.0031944357 -0.007206486 0.023111895 -0.015110938 0.010058876 -0.04229456
0.026813379 0.015402377 -0.0027505446 0.036920603 -0.0041331383 -0.0034799157 0.07852355 0.017679341
-0.027798807 -0.012269843 0.024399158 -0.04554789 -0.019161288 -0.061188858 0.038630687 0.01553982
-0.057976075 0.010219413 0.02454579 -0.00162768 -0.004737555 0.004334348 -0.035548028 -0.024094446
-0.043270703 0.0060963696 0.01347796 0.07468437 -0.03611423 0.021611072 -0.03564405 0.035219755
0.03974836 -0.0029897583 0.0056216936 -0.07489064 -0.014740486 -0.03147512 -0.0044873343 0.016562896
0.037209217 -0.033368308 0.025618838 0.008704838 -0.0052592657 -0.019537276 0.04591504 0.019128127
-0.023684133 0.031891167 0.024721282 -0.025595576 0.04630925 -0.043870438 -0.014558528 0.009532326

3.bias f4 [100]
00000000: fee7 04bd 89eb 1ebd 5355 1d3c 190a 3d3c
00000010: 307b 7b3c b6a0 1ebd b1c4 013d 0625 493d
00000020: 9719 133d 3bdd 23bc f48a 0ebd 0816 213c
00000030: 09f5 d43a e548 863c 5bf0 22bd b769 393d
00000040: 6448 dc3c bec3 8d3c 90e3 2ebc 320b ddba
00000050: e32d ea3c 0b43 143d 45b1 2a3c c243 9ebc
00000060: ce1b 9bbb d285 adbc c306 6dbc 8817 0fbd
00000070: 0eb3 2bbd 4da4 b53c 16ee 963c 2baa 0e3d
00000080: e5c4 b63c 26e4 6f3d 4a25 983b ee03 f5bc
00000090: 5be7 5bbc d398 2d3d 31e3 54bb d7df 4f3d
000000a0: 8698 373c 158d 04bd 3636 0c3b f9b0 8e3c
000000b0: 4c4a aa3c e689 efbc 54b2 dbbb a198 fbba
000000c0: 8dc8 963c 6911 79bb 0fd7 1d3d c64d 32bd
000000d0: 2d15 4ebd c5b3 ff3c 24bf fbbc b82e 8bbb
000000e0: 32c0 043c 9d7e 423c 4bd6 f5bc 7752 07bd
000000f0: 096d 70bb 88ca f9bc bd9c c43c cf7e 8c3c
00000100: ae2d 02bd eb31 bcbc a51b 2dbd 4a81 e73c
00000110: 8377 793b 366d 983c 0b66 d9bc 60c9 df3c
00000120: c000 13bd c07b 073c d514 be3c 9e16 4abd
00000130: 8ee3 dd3c b920 2fbd e8b9 93bc 981a 563c
00000140: 95c6 153d b6c1 47bb aac9 0cbd d265 aabc
00000150: 36f1 febb 7ba5 86bc d023 3f3d 7a39 0e3d
00000160: 93f1 93bb 65bc 263d b5b3 efbb 8cf0 ab3c
00000170: 1882 973c 9060 b63c a2d7 fd3c 7d8d 09bd
00000180: 585c 2cbd dc2e 183d f25b 0e3c 126e c83c
-0.032447807 -0.038798843 0.009602862 0.011538052 0.015349194 -0.038727485 0.03168172 0.049107574
0.035913076 -0.010001476 -0.034800485 0.009831913 0.0016247343 0.01639218 -0.039780002 0.045266833
0.026889987 0.017305251 -0.010674372 -0.0016864298 0.028586334 0.03619675 0.010418241 -0.019319419
-0.004733539 -0.021181975 -0.014466944 -0.03493455 -0.041918807 0.022173071 0.018424075 0.034830254
0.022310684 0.05856719 0.004643117 -0.0299091 -0.013421859 0.042382073 -0.003248405 0.05075058
0.011205798 -0.03236111 0.0021394617 0.017418372 0.02078738 -0.02924056 -0.006704608 -0.0019195267
0.018406177 -0.0038004762 0.038535174 -0.0435312 -0.050313164 0.03121365 -0.030730791 -0.0042475127
0.008102464 0.011871007 -0.03000941 -0.03303763 -0.0036686084 -0.030492082 0.02400052 0.01715031
-0.031781845 -0.022973021 -0.042262692 0.028259892 0.003806562 0.018606763 -0.026537916 0.027317703
-0.035889387 0.00826925 0.023203293 -0.049337976 0.027086046 -0.042755816 -0.018032983 0.013067864
0.036566336 -0.003048045 -0.03437201 -0.020800505 -0.0077802194 -0.01643633 0.046665013 0.034722783
-0.004514882 0.04070701 -0.007315124 0.020988725 0.01849465 0.022262841 0.03098661 -0.0335822
-0.042080253 0.037154064 0.008688914 0.024466548

5.weight f4 [100, 100]
00000000: 6564 99bd 8e6c ef3c 40c5 883d 7489 0abd
00000010: 1fde 51b8 2e1d 1bbd abf9 3dbd 59f7 b7bc
00000020: 8006 88bd 1f49 d1bc 8e98 cfbd 9e72 663c
00000030: 8ec9 873d 3022 633d 6f99 873d 5f3c 75bd
00000040: b839 87bd 24e1 cfbd 37aa ab3b a4d2 113d
00000050: 9a9a 74bd ee4c 92bd ce96 da3d 0213 763d
00000060: 41af aa3d 2e6c 183d e5e6 33bd 3a7f 83bd
00000070: 2c14 dabd 1933 4bbc 3fdb b63c 5a6b efbd
00000080: 4b0d 963d 58b2 173c 9a45 21ba 9e69 f03c
00000090: 92e2 64bd 55c6 1bba ebb5 f33d 3168 fd3c
000000a0: 18cc 963d bfaf 0e3d 1e99 123d a508 94bd
000000b0: 0625 c63d c928 863d f447 523d c523 22bd
000000c0: 9ab7 adbd b48c 3dbd 3c77 9e3d b573 b7bd
000000d0: 36d0 85bd 478b 023d ab6e ca3d 6a65 923d
000000e0: 730f cd3d 0cc4 c53d c6e4 cfbd dadf 1dbd
000000f0: 7c4b 25bd 11c8 f83d 4d6e 96bd 792c 8d3d
00000100: 3fd7 a63d ead2 043c b323 a83d 1409 973d
00000110: f8e2 6c3d cca5 f5bd 60ea 6a3d 4264 b13c
00000120: d7d1 3f3c 663d de3c 4712 68bd 5e97 b4bc
00000130: c803 3abb d382 24bd 47f4 b6ba 03bd a3bd
00000140: 30f6 113d f77a a5bd 30ed 54bc 49b7 823d
00000150: a6b4 e0bd c57b 03bd 874e 8b3d 45d3 eb3c
00000160: 3436 3b3d 6ee2 503d 50e6 0ebd 7b89 09bd
00000170: 9f1d 9ebc 8e6a 11bd da21 e03d 6a08 4abd
00000180: a7a6 53bd db7b 853d 85d6 f13d 9036 213b
00000190: f6c8 f2bd da35 36bc e979 813d e140 ecbc
000001a0: 20a4 413d 0dcd ed3c 9418 953d 2781 b13d
000001b0: 207b a8bb 5b87 70bc 66f7 c1bd 9d32 bebd
000001c0: 7d4c 4fbd b234 a7bd aef3 0a3d 2c2e 563d
000001d0: cba7 043d 2a8f bd3d 7142 0abc e411 c1bd
000001e0: 2f0a 963d a8bc a23c a625 9cbd f512 adbc
000001f0: a15f 49bd 9807 4abc e503 21bd 7006 c8bd
00000200: 41ee 873d 191c 12bd 0acf 1fbd 9f41 8cbb
00000210: af92 c0bd 28ff c63d 506f b4bd 41ae b1bc
00000220: 85af a23d cde0 82bd 04bb 30bc e6c8 4c3d
00000230: 5051 42bd a5e1 86bc 4d51 ebbc 81a3 d63c
00000240: f45e 873d d004 1abd 5b5d 04bd e6e9 023e
00000250: bdd1 b9bd d71b 103c 5fb2 80bd 8f13 b9bc
00000260: 4487 6d3d f06a 9fbd b744 9e3d 32ce 953d
00000270: 786c 733d f87f eb3d 49d5 b63d 9bc1 2bbd
00000280: ec9d 723d 22b2 9abc 995d 693d a34c a3bc
00000290: eda9 b93c e62d 15bd ea9f 8b3d 06ad 8f3d
000002a0: bf8e bd3d 49a8 a13d f68f 1cbb c009 603c
000002b0: 98d4 a83d f5b9 053d f91b 6c3a 885d 943d
000002c0: fcb5 88bd 1e3c a43c 7892 943b 3c0e ea3c
000002d0: c314 ab3d a4ce 04bd 2285 a33c 055f 853d
000002e0: 5bba 663b dcbc 453d 68e1 1cbd 9257 9fbc
000002f0: e16e c33c 9965 9a3d cc3b 413d 829b bdbd
00000300: 58d9 8fbd 31ce 24bd e850 4f3d 82fd 0b3d
00000310: 6afa cabd 7aa3 323d c9e5 8cbd 0fe1 b6bd
00000320: c079 90bd d65f 4abd b626 c13d df94 553d
00000330: 299a e7bc cfce 9c3d b95c c6ba 3d78 41bd
00000340: 1a97 333c 060f c6bd 85fc ccbd f327 243b
00000350: 5a77 81bd 8968 c93d fc76 623b 8ac0 18bd
00000360: a50d 8fbd 1d50 943d 315b 043e f2e3 b03d
00000370: 02c2 3fbd 0eae 1a3d cb70 80bd 9f9d 8abc
00000380: 3212 283d 839a bcbd e0f5 c23d 778f 733d
00000390: cfa7 c43d 1f9b 9c3c 25eb 21bc e9ce 4d3d
000003a0: b6ae ebbd dd90 07bd 1b6a 853d d3b3 ab3d
000003b0: 055f 2c3d 991b b13d 5af6 49bd 0870 983d
000003c0: 8fbc f0bc 51d3 77bd 7ceb 1dbd 5567 4e3d
000003d0: ab74 023e 05ed 9f3d 5f89 403d 4396 0dbd
000003e0: 0551 a6bd 1443 b1bd b2ec e43d 3c59 bfbd
000003f0: 8524 a13d 3a94 adbc 7ee3 c33d b478 0a3c
-0.07489852 0.029226568 0.066782475 -0.03382249 -5.003635e-05 -0.037869625 -0.04638068 -0.022456812
-0.06641865 -0.025547562 -0.10136519 0.014065413 0.066302404 0.055452526 0.06621062 -0.059872027
-0.06602806 -0.10150364 0.005238797 0.035601273 -0.059717752 -0.071435794 0.10673295 0.06007672
0.08334208 0.037212543 -0.04392137 -0.06420751 -0.10648379 -0.012402319 0.022321342 -0.116903976
0.07326754 0.009258829 -0.0006152034 0.029347237 -0.055880137 -0.00059423345 0.118999325 0.030933471
0.073631465 0.034835573 0.035790555 -0.07228211 0.096750304 0.06550748 0.05133815 -0.039584894
-0.08482285 -0.046276763 0.07737586 -0.08957616 -0.06533854 0.031871106 0.098843895 0.071482494
0.10012712 0.096565336 -0.10151057 -0.03854356 -0.04035519 0.12147535 -0.07345257 0.06893248
0.08146524 0.008106926 0.08209934 0.073747784 0.05783364 -0.11994514 0.057352424 0.021654252
0.011707745 0.027128886 -0.056658056 -0.022044834 -0.0028383601 -0.040163826 -0.0013958298 -0.079950355
0.035635173 -0.08080094 -0.012996003 0.06382615 -0.10971956 -0.032100458 0.06802087 0.028787265
0.04570599 0.05099719 -0.034887612 -0.033578377 -0.019301234 -0.03550201 0.10943957 -0.04932443
-0.051672604 0.06517764 0.118084945 0.0024599172 -0.118547365 -0.011121238 0.06322081 -0.02883953
0.047275662 0.02902844 0.072800785 0.08667212 -0.005141631 -0.014680709 -0.09471016 -0.092869975
-0.050610054 -0.08164348 0.033923797 0.052290127 0.032386582 0.09255822 -0.008438692 -0.094272405
0.07326161 0.019865349 -0.07624368 -0.021127203 -0.049163464 -0.012330912 -0.039310355 -0.09766853
0.0663724 -0.035671327 -0.039015807 -0.0042802836 -0.09402978 0.09716636 -0.08810294 -0.021689536
0.07943634 -0.063905336 -0.0107867755 0.04999628 -0.047440827 -0.016465018 -0.02872529 0.026201012
0.06609908 -0.037602246 -0.032315593 0.12784538 -0.090732075 0.0087957 -0.062840216 -0.022592334
0.057990327 -0.077840686 0.0772795 0.07314719 0.059429616 0.114990175 0.089274 -0.041932683
0.059232637 -0.018883768 0.056974027 -0.019934004 0.022664035 -0.036420725 0.068176106 0.070154235
0.09255742 0.07893426 -0.0023889518 0.0136742 0.08243674 0.032648046 0.0009006854 0.07244402
-0.06675336 0.020048197 0.004534062 0.02857124 0.08353569 -0.03242363 0.019960944 0.06512264
0.0035206291 0.048275813 -0.0383009 -0.019450936 0.023856582 0.075389095 0.047176167 -0.092581764
-0.07023877 -0.040235702 0.050614268 0.03417731 -0.09911044 0.043612935 -0.068797655 -0.08929645
-0.07054472 -0.049407803 0.09431212 0.052143928 -0.028271751 0.07656633 -0.0015133835 -0.04723381
0.010961318 -0.09670834 -0.10009102 0.0025048226 -0.06321593 0.098343916 0.0034555783 -0.037292995
-0.06985024 0.07241843 0.12925412 0.08637227 -0.04681588 0.037763648 -0.062715136 -0.016920863
0.041032977 -0.09209158 0.09519553 0.05946299 0.096023194 0.019116936 -0.009882723 0.050246153
-0.11507933 -0.033097137 0.06514379 0.08383908 0.042082805 0.08647842 -0.049307205 0.07443243
-0.029386787 -0.06050426 -0.038554654 0.050391514 0.12739818 0.0780888 0.047006007 -0.03456713
-0.08120922 -0.08655372 0.111779585 -0.09343192 0.07868294 -0.021188844 0.09564875 0.008451629

5.bias f4 [100]
00000000: 302b 3c3d 8911 f73c 45c1 163d ef97 d73a
00000010: 1b6e 50bd 7fc7 c63c a753 813d d519 343b
00000020: 8025 a63a 7126 1bbd 719c 2a3a d428 b4bc
00000030: 7da7 b9bc 609d 8f3d 6718 29bd 987b ec3d
00000040: 584d 473d 657e 9a3d 5cfc 83bb 3017 ce3c
00000050: 1111 00bd e721 923d 3de8 43bd 3925 77bd
00000060: 2488 983d 3978 40bd ad99 a43c ee1b 233d
00000070: ad6e a93d 4a0e b93d 7ffc 5bbd 36bf afbd
00000080: 9010 e5bb a975 c2bd a245 603d 31a0 5cbd
00000090: 3afc 963b 5926 813d 6df3 8a3c 2198 95bc
000000a0: e799 1abd 913c b43d 841a f4bc d3b5 bf3c
000000b0: cf29 8cbd ba36 d33d 3518 b7bc 59ec b13d
000000c0: e552 893d d82b 90bd a7ac 85bd 3b68 b73d
000000d0: dcf9 b6bd 9fe0 adbd efa4 023e 1754 003e
000000e0: 600f d4bd 5b59 5c3c 078c 98b9 6e25 6abd
000000f0: ee15 a93d 58b3 c93d d91f cf3b a27a 57bc
00000100: 8a1f 61bd a77f 4b3c 37fa 37b9 a673 29bd
00000110: 277a 07bd cd36 f03d 40d9 19bb d5dd 5d3c
00000120: 27b9 273d 5df8 083d ef54 0ebd b4f2 503c
00000130: 184f c6bd 23c2 b9bd 2bef 2d3d ea6f 05bb
00000140: 321c 193d 8ecf 22bd dca6 c2bd 381d 633d
00000150: 3706 f43d ea58 953d 6ad2 7bbd 4c41 90bd
00000160: e055 233d c5e6 bd3d c03d 8fbd 868a cc3d
00000170: 3ec9 fa3c 551e 24bd be1c 75bd f3aa 7dbd
00000180: 7f73 a0bd cafa adbd 1a6f 2cbd 3ef8 14bd
0.045939624 0.030159729 0.03680541 0.0016448478 -0.050886255 0.024265049 0.063147835 0.0027481217
0.0012675971 -0.037878457 0.0006508297 -0.021992125 -0.022662872 0.07012439 -0.041283038 0.11547011
0.048657745 0.07543639 -0.0040278863 0.025157541 -0.031266276 0.071353726 -0.0478289 -0.060338233
0.07447842 -0.046989653 0.02009281 0.039821558 0.08273063 0.090359285 -0.053707596 -0.085813925
-0.0069905 -0.09495098 0.054753907 -0.053863708 0.0046077045 0.06306142 0.016961778 -0.018261017
-0.03774443 0.088006146 -0.0297978 0.02340213 -0.06843912 0.10313173 -0.02235041 0.08687658
0.06705264 -0.070396125 -0.065270714 0.08955427 -0.08934376 -0.08490109 0.1275823 0.12532078
-0.10354495 0.013449038 -0.00029096028 -0.057164602 0.08256136 0.0984866 0.006320935 -0.013151797
-0.05496172 0.012420571 -0.00017545452 -0.041370057 -0.033075478 0.117292024 -0.0023475438 0.013541658
0.04094806 0.033439983 -0.034748968 0.012753177 -0.09683055 -0.09070232 0.042464416 -0.0020360895
0.037380405 -0.03974872 -0.09504482 0.055447787 0.11915248 0.0729235 -0.061479963 -0.070437044
0.03987682 0.092725314 -0.069942 0.09987359 0.030613538 -0.04006799 -0.059841864 -0.061930608
-0.07834529 -0.084951 -0.042098142 -0.036369555

7.weight f4 [10, 100]
00000000: d317 92bd e1ae 15be 20c4 bbbd 0d8d a7bb
00000010: 6f80 9a3d d39b 05bc 93b7 683e 2252 babd
00000020: e869 6d3c 9554 cb3d 1a4c 0fbd 164b 773d
00000030: 01f5 c13d 4659 26be 8d52 71bd ee6a eb3d
00000040: 5910 82bd 6894 323c e602 95bd 27d2 973d
00000050: 5ba2 783d fadc 3a3e 5ba1 883d 8307 e33b
00000060: f330 f4bd 382b 2c3d e753 2bbe 9df5 20be
00000070: ea26 8dbd b831 a1bc f235 ad3d 7aae 3a3d
00000080: 8d35 86bd eb3e cabd 4581 173e aa1c 7ebd
00000090: ae3e 1b3e a6f1 10be 2fa2 803d 0ff0 103d
000000a0: 74c0 eabc 0ae3 cbbd a0a4 2c3e 8a50 353d
000000b0: 42fc eebd 672b 493b 3067 b53c f8bd 0bbe
000000c0: 9302 06be 55a3 053e d1ae 77bd 40ab 183e
000000d0: c4c9 e73b f090 05bd 542c 69ba 4960 9fbd
000000e0: 720c b3bd b94d 0d3d d006 693d 5c70 0c3e
000000f0: 8a3a 023e 3f34 1abe 9dbd 7ebd 64fd 333d
00000100: 28a1 d43d 902c 173d cf12 bd3d 6529 653d
00000110: 67bd 633d 15c2 cebc 467e 733d b2ee 6d3d
00000120: 10b9 ccbd 8ab1 9cbd 427d 99bd 9210 49bd
00000130: b98e 6a3d d268 0ebc bf1b 01be d7cb 87bd
00000140: 2c38 c1bd 723f b9bd 3915 0abe 7784 0a3e
00000150: 5356 583d 697e d4bd 8a7b d9bd 3818 b6bb
00000160: 2377 c73d 5f21 acbd 95f6 1d3d b3bf 3ebc
00000170: 88fa 9cbc 61a8 963d 3ea1 b13d 13c2 023e
00000180: 71b1 94bd 30f4 4dbc 0820 953c 5cfa ce3d
00000190: 277b b43d 473f 45bd afc1 25be cf12 6cbb
000001a0: 01f7 04be aad2 33be 57b1 ebbd 9aa1 c1bd
000001b0: 76b4 a2bd 1054 883d 8366 333e 2252 413d
000001c0: 910f 6bbd c85c 483e dc82 07bd 5a22 ae3c
000001d0: f03e bb3d 1fd8 1f3e 7fa2 b539 41db 43bc
000001e0: 7451 ab3b e504 12be 02c2 a63d a62c 273d
000001f0: 2f07 373e adf4 c93b 86b5 cd3d e0fd 1a3e
00000200: c1b3 05bb fdd1 6e3e 986e c13d 1bf4 34bd
00000210: 5991 3ebb 8bb5 e33d 604c fbbd 3bf0 63be
00000220: ac89 28bd 5809 143e 0e5b 83bc f3bb 86bd
00000230: 70f5 f93d 1e0e bb3d dc6e 36bd 4501 93bd
00000240: 5ab2 6dbd f8fd 1cbe 398b 8e3d c479 a63c
00000250: 34c7 083c 3911 55be 9f37 0fbe c56f d7bc
00000260: ae98 eabc 8437 933a dfd8 7fbe 25a5 0e3e
00000270: 1161 613d 6e8c 23be 3d3a 143b f737 c53d
00000280: 053c 2b3d fe03 bc3d 130e 9b3d 411b 87bd
00000290: e0a4 d2bd 57af aa3d 6fcd 0a3c 02d5 193d
000002a0: 68ba b83c 0006 d93d 30dc 793c 93df 60bd
000002b0: f0b8 6e3d c7c5 be3d 2903 b23c 40fa 403d
000002c0: 5425 bfbd a480 6e3c 12ec 96bd ef26 063e
000002d0: 501c aabc 9e91 ce3d 2b2a 3cbc dbbf 02be
000002e0: 3ce2 373e 755c d63d caf1 16ba 1d5d 2c3d
000002f0: 7f28 98bc a6b1 eebd d548 ad3d 90cb 05be
00000300: 9705 04bc d550 c3bc d655 e03d 9da3 c8bc
00000310: 635e a0bd 2d8f b1bd 3c49 1abb 0eb5 783b
00000320: b59e a6bd 7684 143d 06a5 a7bd 62f6 cb3d
00000330: 2fd7 243d 96d8 bfbd c00c 9d3d adc8 47bd
00000340: c49e ce3c c133 81bd 293d 1d3e ed77 40bd
00000350: c4e6 413e 8baa 4c3d adc5 10bd 3f57 09be
00000360: f65b 223d c4f3 773c f958 b63d faa3 183e
00000370: 8861 273c b3ed 9ebd c2f8 b3bd 8896 e0bb
00000380: 7a0b 45bd 6b9e a83d e544 413e c598 46be
00000390: d226 fb3d 88c1 0a3d bd6a 873d d56e 11bd
000003a0: 0946 15bd 09b6 8cbd 5578 773d 7da0 dabb
000003b0: a4c7 cb3c 4c8a 173e aa30 84bd b830 023e
000003c0: 3155 f7bd a8fc 3ebe acf6 07be 37c3 c6bc
000003d0: c2f4 35bd 3491 86bd a02f 82bd dc89 2f3e
000003e0: 85d9 433d c0a2 043e afce 363e c460 1cbe
000003f0: 3979 83bc 21b0 0bbe e58e 0bbe 47f8 2c3e
-0.0713345 -0.14617492 -0.09168267 -0.00511325 0.07544028 -0.008154827 0.22726278 -0.09097697
0.014490582 0.09928242 -0.034984685 0.060374342 0.09470559 -0.16244993 -0.058916617 0.114950046
-0.06350774 0.010899641 -0.072759435 0.0741313 0.06070171 0.18248358 0.06671401 0.0069283857
-0.11923399 0.042033404 -0.16731225 -0.15718694 -0.06892188 -0.019677028 0.08457555 0.04557655
-0.06553183 -0.09875282 0.14795406 -0.062039055 0.15160629 -0.14154682 0.06280934 0.035385188
-0.028656222 -0.09955414 0.16859674 0.04426626 -0.11669208 0.0030696036 0.02214393 -0.13646686
-0.1308692 0.13050587 -0.060469452 0.14909077 0.007073613 -0.032608926 -0.000889485 -0.07782037
-0.08742608 0.03449795 0.056891263 0.13714737 0.12717643 -0.15058993 -0.062192548 0.043942824
0.103823006 0.036907732 0.09232103 0.05594768 0.05560055 -0.02523903 0.059446596 0.058088966
-0.09996235 -0.076510504 -0.07494594 -0.04908807 0.057265017 -0.008691983 -0.1260824 -0.06630676
-0.09434542 -0.09045304 -0.13484658 0.13527094 0.0528167 -0.10375673 -0.10619266 -0.0055570863
0.097395204 -0.084048025 0.038565237 -0.011642384 -0.019162431 0.073563345 0.08673333 0.12769346
-0.07260407 -0.012570426 0.01820375 0.10106346 0.08812552 -0.04815605 -0.16187166 -0.0036021953
-0.1298485 -0.1756083 -0.11508434 -0.09454651 -0.079445764 0.06656659 0.17519574 0.04719747
-0.057387892 0.19566643 -0.03308378 0.021256614 0.09142864 0.15609787 0.0003464408 -0.01195413
0.005228216 -0.1425968 0.08142473 0.040814064 0.17873834 0.006163201 0.100443885 0.15135908
-0.002040133 0.23322292 0.09444922 -0.04417811 -0.0029078333 0.11118611 -0.12270427 -0.2225961
-0.04114692 0.1445669 -0.01603463 -0.06578817 0.122050166 0.09133552 -0.044539317 -0.071779765
-0.058031417 -0.15331256 0.06960148 0.020321734 0.008348275 -0.20807351 -0.13986062 -0.026298413
-0.028637256 0.0011231755 -0.24985074 0.13930185 0.05502421 -0.15971538 0.002261772 0.09629815
0.041805286 0.09180449 0.07571044 -0.06596995 -0.10285354 0.08334225 0.008471831 0.037556656
0.022549823 0.105968475 0.015250251 -0.054900717 0.05828184 0.09315067 0.021730023 0.047113657
-0.09333292 0.0145570375 -0.073692456 0.1310079 -0.020765454 0.10086368 -0.011484663 -0.127685
0.17957395 0.104668535 -0.0005758075 0.042080987 -0.018573998 -0.116549775 0.08461157 -0.13065934
-0.008057973 -0.023842255 0.10953872 -0.02449208 -0.07830503 -0.08669887 -0.0023542186 0.0037949714
-0.0813574 0.036259137 -0.081857726 0.09959103 0.040244278 -0.09367482 0.076684475 -0.048775364
0.02522219 -0.063086994 0.15355362 -0.04698937 0.18935686 0.04996733 -0.03534477 -0.13412188
0.039638482 0.015133802 0.08903689 0.14906302 0.010216124 -0.07760181 -0.08787681 -0.006853882
-0.048106648 0.08233341 0.18873937 -0.19394214 0.12263264 0.033875972 0.066121556 -0.03550609
-0.036443744 -0.06870658 0.060417492 -0.0066719637 0.02487547 0.1479885 -0.064545944 0.12713897
-0.12076796 -0.18651068 -0.13277692 -0.024263008 -0.044422872 -0.06570664 -0.0635674 0.17142433
0.047814865 0.12952709 0.17852281 -0.15271288 -0.016049014 -0.13641407 -0.13628729 0.16891585

7.bias f4 [10]
00000000: d696 71bb ae1a 113e 4cab 99bd d73c 963d
00000010: 21e5 3abd 47e8 ec3c ad56 ffbc 3046 0e3d
00000020: 7dd2 45bd af59 0d3d
-0.0036863587 0.14170334 -0.075033754 0.07335823 -0.04562867 0.028919352 -0.03116926 0.034734905
-0.04829644 0.034509357
