Topics/Convolutional Network/output/cnn_demo_3Layer_100Perc.pth (torch, 133656 bytes, 10 tensors)

0.layer.0.weight f4 [32, 1, 3, 3]
000000 0b 0e 10 3e db 69 f4 bd d0 4a a6 bd fc 29 b2 3e
       0.14067857 -0.11934253 -0.08119738 0.34797657
000010 65 a3 b0 bd 38 53 4a 3e a4 e4 22 3e ca 13 da bd
       -0.08624915 0.19758308 0.15907532 -0.10648306
000020 c5 1d a4 bd 87 ff 9c 3e ba 28 87 bc cb b4 9a 3e
       -0.080134906 0.30663702 -0.016498912 0.3021606
000030 05 a5 9a bd 9d 4b dc 3e 4d b0 7c 3e 54 ed dd 3e
       -0.07551006 0.43026438 0.24676628 0.4334513
000040 1e 8c 3c bc 5b 10 cb 3e 27 2f 2c 3e 02 9c 5e be
       -0.011508016 0.39660916 0.16814862 -0.217392
000050 6b ff 42 bd 3c 70 fa 3d de f9 b4 3e 0e 73 2f 3e
       -0.047606867 0.12228438 0.35346884 0.17133734
000060 f7 20 79 3e c0 14 8d 3e 84 ea 1c 3e a6 2e ba bd
       0.24328981 0.27554893 0.15323836 -0.09090929
000070 30 cb b8 3e 07 5c 90 3e 14 2f 15 be 9f 53 43 3e
       0.3609252 0.2819521 -0.1456874 0.19074868
000080 3d 5f 34 bd 96 ac 4a be 09 c9 d7 bd 39 2f 97 be
       -0.04403614 -0.19792399 -0.10536391 -0.29528216
000090 43 68 23 be 01 77 9e be 59 d7 71 3e 12 b3 9b bd
       -0.15957741 -0.30950168 0.23617305 -0.07602514
0000a0 f8 32 9d be ff 78 84 3d a1 92 91 be bb eb e8 bd
       -0.3070295 0.06468391 -0.2843218 -0.11373087
0000b0 27 7a 22 be 2c 1a 17 be 9f c6 a6 3e be 24 3c be
       -0.1586691 -0.14756078 0.3257341 -0.18373391
0000c0 8a 2a 2a be d8 d5 7d 3e aa 50 5c 3e 0a f9 8f be
       -0.1661779 0.24788606 0.21515146 -0.2811969
0000d0 56 0b a9 be cd e9 ca 3d 2d 3a 19 3e 1f 53 74 3e
       -0.3301646 0.09907875 0.14963599 0.23859833
0000e0 68 2b 89 3e f4 07 66 3c 0f da c5 3e df de 21 3d
       0.2679093 0.014039982 0.38642928 0.039519187
0000f0 84 6f 91 be f7 98 4c be 25 d2 20 3d 17 51 40 3e
       -0.28405392 -0.19980226 0.03926291 0.18780933
000100 b7 71 98 3e 18 20 5e 3e 17 1c 09 be fd 6a ab 3e
       0.29774258 0.2169193 -0.13389622 0.33480063
000110 68 4f 8e 3d e6 1f 5c bd d8 5c c4 3d 23 8d b5 3e
       0.06948739 -0.05374136 0.09588021 0.3545924
000120 8a c1 ba 3e d5 bf 13 be 82 f9 43 3e b0 35 ab 3e
       0.36475784 -0.14428647 0.19138148 0.33439398
000130 a1 30 6a bd 69 da 73 be 71 06 15 3e 20 e1 3b 3c
       -0.057175282 -0.23813786 0.14553238 0.011467248
000140 ea 0a 89 3e 77 7d 9b be 79 96 a6 be 92 23 8a be
       0.2676614 -0.3036916 -0.32536677 -0.26980263
000150 05 4a 8f 3e 25 7a 88 be 54 16 9a be a1 fe 36 3e
       0.2798616 -0.2665569 -0.3009516 0.1787057
000160 64 b2 9c be 08 62 b2 bd 61 a3 c4 3e ef fa 84 3e
       -0.3060485 -0.08710104 0.38405898 0.25972697
000170 e2 63 10 bd 39 86 19 be 7b 5a 4e be 50 af 3c bd
       -0.035251506 -0.14992608 -0.20151703 -0.04606563
000180 d0 d0 ac 3e 62 36 aa 3e 06 fd 87 3e e6 9d 7d bd
       0.3375306 0.33244616 0.2656023 -0.06191816
000190 ec 2c fe 3e 98 14 ba 3d d7 5b f4 3e e5 e2 f7 3e
       0.49643648 0.09085959 0.47726318 0.48415294
0001a0 fe cc d3 3e 09 64 6e 3e b7 49 ec 3d e1 25 c6 3e
       0.41367334 0.23280348 0.115374975 0.38700774
0001b0 7f 7c 00 3f 72 f6 cb 3e cc c6 f4 3e f6 d1 08 3f
       0.50189966 0.3983646 0.4780792 0.53445375
0001c0 2a f0 ea 3d 28 19 80 3d 74 7b 5f 3e 76 dd a6 bd
       0.11471589 0.06254798 0.21824437 -0.08147709
0001d0 59 7c cc 3e a6 5e 9e be 80 0a d1 bc b0 4e ec bc
       0.3993862 -0.30931586 -0.025517702 -0.028846115
0001e0 c8 ed 2e bd 03 f8 32 be 38 c6 7f be 10 a5 8f bd
       -0.042707235 -0.17477421 -0.24977958 -0.07013905
0001f0 f3 2e aa be 10 97 c9 3c c4 1d 57 3e e1 45 76 be
       -0.33238944 0.024608165 0.21007448 -0.24050094
000200 a2 81 4f 3d 09 06 09 3e 95 f1 12 be a2 25 c2 3e
       0.050660737 0.13381208 -0.14349969 0.37919337
000210 ec fd 50 3e f9 d0 9f 3e a7 3d 97 3e ad d1 5d be
       0.20409364 0.3121412 0.29539225 -0.21662016
000220 cc ed 94 3d cb 66 a0 3c 2e a3 b1 3e d1 fd 35 be
       0.07271919 0.019580266 0.3469481 -0.17772605
000230 97 f0 81 3e 33 0e 63 3e dc d5 d2 3e 5a fe 02 be
       0.25378868 0.22173385 0.41178787 -0.1279234
000240 b5 ac eb 3d c5 93 75 be c0 41 36 3e 04 02 f0 bc
       0.115075506 -0.23982151 0.17798519 -0.029297836
000250 9a df a5 be d2 c6 8d be b0 8e 5e 3e a9 f4 58 3e
       -0.32397157 -0.2769075 0.21734118 0.2118708
000260 82 57 d2 3d 70 45 6c bd c2 05 16 3e e6 33 7c be
       0.10270597 -0.05768341 0.14650634 -0.24629173
000270 43 30 aa be 29 36 53 3e 30 7a 06 3e 12 a8 be 3a
       -0.33239946 0.20626129 0.13132548 0.0014545938
000280 cd 32 ab be 73 4e 31 3e 5f fb 1c be e7 5b d6 bc
       -0.33437195 0.17315082 -0.15330265 -0.02616687
000290 02 21 0a be de 99 3a be 03 cd 23 3e a3 38 a4 3e
       -0.13489154 -0.18222758 0.15996175 0.3207446
0002a0 64 68 74 be a8 75 48 3e 7f 12 ff 3d c4 a0 e8 bd
       -0.23867947 0.19576132 0.124547 -0.113587886
0002b0 bb b1 a7 3e 38 4a 65 3e d1 82 d3 3e d0 62 32 3e
       0.32752785 0.22391593 0.41310742 0.17420506
0002c0 b1 66 f6 3e 6a 89 21 be 8a a6 72 3d 6a cc 85 3e
       0.48125222 -0.15775076 0.059240855 0.26132518
0002d0 94 80 a8 3e 8b 8d 32 3e a6 4f 4c be 91 f7 5c be
       0.32910597 0.17436807 -0.19952258 -0.21578814
0002e0 eb 42 25 be fe 6a 04 3e 5b de e0 bd 78 00 90 3e
       -0.16138808 0.1293144 -0.10979911 0.28125358
0002f0 64 de 45 3e 2e b5 f2 bd 3b 1b 0a 3e df 5d a7 3e
       0.19323117 -0.118509635 0.1348695 0.32688805
000300 c2 0c af 3d bf bb 82 be 44 51 94 be f9 f4 52 be
       0.08547355 -0.25533864 -0.2896825 -0.20601262
000310 97 d0 46 3d eb 80 66 3d b2 fb 05 bc a8 18 42 be
       0.04853877 0.05627529 -0.008177685 -0.18954718
000320 f1 08 05 3e 5b a3 c4 3e 6d 4f 95 3e ce f9 d6 3d
       0.12991692 0.3840588 0.2916216 0.10496865
000330 39 e3 a2 bc 15 8d b2 3e bc eb aa bc 5e ef e7 bd
       -0.019883739 0.34873262 -0.02086436 -0.113249525
000340 aa b8 0a bd 66 62 d4 bd 76 8e 57 3d ff 69 4a be
       -0.033867516 -0.103703305 0.052626096 -0.19766997
000350 0e c5 47 be e3 73 32 be e9 bd 43 3e 4d 49 e2 bd
       -0.19508764 -0.1742702 0.19115414 -0.11049137
000360 4b 72 38 3e 8d 47 88 be 57 83 c8 bd 93 63 aa be
       0.1801235 -0.2661709 -0.09790676 -0.33279094
000370 76 3e 7e bd 25 f1 79 3e 66 b7 5f 3e 92 cf 92 3d
       -0.062071286 0.24408396 0.21847305 0.07168497
000380 58 24 2c bd 46 b5 8d 3e a2 6d 79 bd c1 d7 52 3e
       -0.042026848 0.27677363 -0.06089557 0.20590116
000390 39 4c 6b 3e 46 a9 d3 bd 68 f1 42 3e 54 ce a7 3e
       0.22978295 -0.10335021 0.19037402 0.32774603
0003a0 18 88 e6 bd ac 9d 69 be d2 e7 3f be 36 93 a0 3e
       -0.112564266 -0.22814053 -0.18740776 0.31362313
0003b0 6f 90 93 be e1 bd 2d be e2 68 38 3e b2 b2 47 be
       -0.28821132 -0.16966964 0.1800876 -0.1950176
0003c0 05 85 1e 3e e9 e6 5b 3e 24 31 17 3e 4d 4f 2c be
       0.1548043 0.21474804 0.1476484 -0.16827126
0003d0 9a 59 29 3e 66 3e c0 bd 3b 93 24 3e d0 c1 9a 3e
       0.16538087 -0.093869016 0.16071789 0.30225992
0003e0 68 84 bb 3e 6c 20 72 3e 8b b8 67 be 59 6a 82 3e
       0.36624455 0.2364518 -0.22628991 0.25471762
0003f0 bb 43 3f bd 21 b4 69 3d e6 da 38 bd 64 5c 94 3d
       -0.046695452 0.05705655 -0.045130633 0.072441846

0.layer.0.bias f4 [32]
000000 33 59 f8 39 40 e7 df 37 b8 8a ea 3c 1b 9d 94 3b
       0.00047368705 2.6691356e-05 0.0286306 0.00453533
000010 95 64 a3 3e 8e 79 4d 3e 4e 6b 25 3e c3 f7 60 3e
       0.31912675 0.200659 0.16154215 0.21969514
000020 de 5e 31 3e e1 dd ed bd bb 3c 91 3e bf 7e 86 3e
       0.17321345 -0.11614586 0.28366646 0.26268575
000030 ea dc 12 3b d0 cc 7e be 9a 0a 71 be 92 86 57 3c
       0.0022409507 -0.24882817 -0.235392 0.013154643
000040 88 47 a4 3e 66 48 f1 bd f0 78 1b bd d6 30 ad 3d
       0.32085824 -0.11781387 -0.03795713 0.0845658
000050 c6 b7 7e bc 5e c6 35 3c 25 70 bc bd 38 3f af 3e
       -0.015546745 0.011094658 -0.09201077 0.3422792
000060 40 b1 67 be 5d b3 ed bd ca b1 ec bd 3c 7f 85 bd
       -0.2262621 -0.116064765 -0.11557348 -0.06518409
000070 6f 8b 91 3d 57 7a 68 bb a7 2c 98 3e 4f c0 08 bd
       0.07106673 -0.003547331 0.29721567 -0.033386525

1.layer.0.weight f4 [4, 32, 3, 3]
000000 f2 c9 fe bc 82 92 aa 3d c0 3f 8e 3c 44 14 df 3c
       -0.031102154 0.083287254 0.017364383 0.027231343
000010 9c 0c 29 3d 7b aa 9b 3d e0 e4 50 3d 29 af 07 bd
       0.04127179 0.07600876 0.050999522 -0.03312603
000020 cb 19 9e 3d 77 b9 72 3d cb d8 47 3d bf 77 10 3c
       0.07719763 0.059258904 0.048790734 0.008817612
000030 d3 0f ca 3d 82 ef ed 3d 01 45 f7 3c 53 44 8c 3d
       0.098662995 0.11617948 0.03018427 0.06848969
000040 70 e5 9c 3d 17 ef 08 3e 71 e5 a7 3d 18 c0 f5 3d
       0.07660949 0.13372456 0.08198059 0.119995296
000050 24 35 9c 3b c3 74 09 3d 9c bd 80 3d c9 2d a7 3d
       0.004767077 0.03355862 0.06286165 0.0816303
000060 c9 44 c0 3d 83 7a 25 3d 84 d0 18 3e df 9b f8 3c
       0.0938812 0.04040004 0.14923292 0.030347763
000070 ae be 06 3c 7a 25 a5 bc 67 8e 84 bc a6 e1 35 bd
       0.0082241725 -0.020159472 -0.016181184 -0.04440465
000080 1b d2 84 bd 1b 8e 5c 3d 4e 3b a0 3c e4 5f 47 3d
       -0.06485387 0.05384646 0.019559529 0.048675433
000090 a4 7b 39 bd 5e 34 26 3a c6 c4 ac 3c 9e 79 82 bb
       -0.04528393 0.0006340201 0.021089923 -0.003981783
0000a0 4c 3f 0a bd 51 b2 a8 bb 15 50 05 bd 45 76 d7 3c
       -0.03375177 -0.00514821 -0.032547075 0.026301512
0000b0 99 64 72 bd 50 43 89 3d c9 26 2d 3d 3c 2d 5a bd
       -0.05917797 0.06702292 0.042273317 -0.053265795
0000c0 84 84 fa bb 70 94 ad 3c 86 2a a2 bb 34 87 2a 3d
       -0.0076451916 0.021188945 -0.004948917 0.041632846
0000d0 99 94 e8 3c 78 ff 73 3c ac 03 50 3c f7 fe aa 3d
       0.02839117 0.014892451 0.012696188 0.08349412
0000e0 be c6 04 bc b0 a4 09 3d c2 38 9f bc 09 06 9a 3c
       -0.008104024 0.033604324 -0.019436244 0.018801706
0000f0 da 70 c1 3d 5e b3 ea 3d 7f 14 a9 3b 07 9d 02 3e
       0.09445353 0.11459993 0.005159914 0.12755214
000100 2a 1a 82 3d a1 00 40 3d fa 47 e6 3d 68 f8 59 3d
       0.06352647 0.0468756 0.11244197 0.053215414
000110 c7 c8 d1 ba ab d3 b0 3d 6d 7c 17 3e 58 cc a8 3d
       -0.0016005271 0.086341225 0.14793558 0.082421005
000120 8b df dd 3a 12 2a 9f 3d 96 16 52 3d 75 2d 93 3d
       0.0016927583 0.07771696 0.05129107 0.071864046
000130 72 02 c5 3d 7a f4 8c 3d 6a 97 7e 3c 7e fb e3 3c
       0.09619607 0.06882568 0.01553903 0.027829882
000140 04 5d db 3d 25 54 ba 3b a0 d6 a9 bc a9 af f8 3c
       0.10711101 0.0056863003 -0.020732224 0.030357199
000150 4a ed de 3c 80 4e 4f 3d dd f2 9c 3c 43 0d 36 3d
       0.027212758 0.050611973 0.019158775 0.04444624
000160 8f 10 a1 bc 8b f8 a0 3c 0c 71 ad 3c 20 78 a6 3d
       -0.019661216 0.019649765 0.021172069 0.08128381
000170 f6 c7 45 3d 31 7c 2d 3d 2e 3e 86 3d 24 f5 e4 3d
       0.0482864 0.042354766 0.065548286 0.11179569
000180 c8 f6 89 3d bf fb 19 3e 22 c4 e0 3d 06 f5 3d 3e
       0.06736523 0.1503744 0.10974909 0.185505
000190 d8 d5 46 3e 13 03 fe bc d8 66 20 3e 6e ba de 3d
       0.19417512 -0.031007325 0.15664232 0.108754024
0001a0 2a cd 9e 3c 3a 5c c1 3d a2 80 74 3e 9f e6 36 3e
       0.01938494 0.09441419 0.23877195 0.17861412
0001b0 89 67 aa 3d 0b c3 c2 3d 9f c5 51 3a c5 64 b3 3d
       0.08320529 0.09509858 0.0008002165 0.08759455
0001c0 fd 78 39 3e ad e6 b2 3d 90 6a 17 3e 14 41 60 3e
       0.1811256 0.08735404 0.14786744 0.21899825
0001d0 85 d5 dc 3d 20 04 e4 bb fc 28 ad bc 7c db 3c 3c
       0.10782913 -0.0069584996 -0.021137707 0.0115269385
0001e0 19 09 5b bd 03 2b 6e 3d f8 a7 33 bc ee cd 66 bd
       -0.053475473 0.058146488 -0.01096534 -0.056348734
0001f0 8e 60 2c bd 5e 8b a9 bc 10 2a c0 3d 6d f3 89 3c
       -0.04208427 -0.020696338 0.09383023 0.016839707
000200 c4 2f 9a 3b ca 32 8e 3d 29 33 ed 3c a8 b2 fb 3c
       0.004705401 0.06943281 0.02895506 0.030724838
000210 91 45 3f bc 9e 7b 22 3d 5c 6a fe 3c 50 95 39 3c
       -0.011674301 0.03966867 0.031056575 0.011327103
000220 fc 9b 97 3d 8b 6e 61 3c 98 df 75 3d f7 aa d5 3d
       0.074027985 0.013759266 0.06002769 0.104329996
000230 f7 bf cb 3d 38 d3 d5 3c 72 73 c5 3c 0d bf 96 3d
       0.09948724 0.026101694 0.0241029 0.07360659
000240 1d cb cb 3b a9 92 a9 3c 6e cb 76 bc 2f ba 03 3d
       0.0062192813 0.020699816 -0.01506315 0.03215998
000250 3b 83 10 3d 28 1a c6 3b 56 8b fe 3b 42 02 a3 bc
       0.0352814 0.0060455985 0.007768075 -0.019898538
000260 9a bf a9 3d 23 55 4d 3d f1 47 0c bd 98 54 66 3d
       0.08288498 0.05013002 -0.034248296 0.05623302
000270 27 09 04 bd 27 7c 27 bd 4c 88 b8 3c ca 23 02 bd
       -0.03223529 -0.040889885 0.022525929 -0.031772412
000280 df 62 23 bc 17 6b 03 3d c4 7b b3 3d 11 b5 d3 3c
       -0.009972303 0.03208455 0.08763841 0.025843175
000290 33 45 8b bd 27 22 67 3d 8a 59 05 3d 05 b7 24 3c
       -0.06800308 0.056429055 0.032556094 0.010053401
0002a0 a3 b5 b6 bc 94 4b d6 bc 8e cc 45 3c 15 5b 26 3e
       -0.022303408 -0.026159085 0.012072695 0.16245683
0002b0 23 50 3f 3d bf a7 e3 3c a2 0e 0c 3e f2 90 6b 3d
       0.046707284 0.027789949 0.13677457 0.057511277
0002c0 ae 9f d8 3c 03 dd 24 3e 68 64 d3 3d b4 16 d1 3d
       0.026443329 0.16099934 0.10321885 0.102094084
0002d0 c1 4b 44 3c 75 24 de bb 2c 56 09 bc 2a d7 ed bb
       0.011980952 -0.0067792484 -0.008382361 -0.0072583156
0002e0 bf e9 a0 3d f2 d5 5c 3c 33 d9 a6 3d 64 78 59 3d
       0.078570835 0.013478743 0.08146896 0.05309333
0002f0 ba 47 7e bc d5 f7 91 bc 24 3c 94 bb 1f 00 7b bb
       -0.015520031 -0.01781837 -0.004523771 -0.0038299633
000300 35 69 68 3b 0a c7 dd 3c b3 12 19 3c a9 c4 97 3c
       0.00354631 0.027072448 0.009342837 0.018526392
000310 75 3f 48 bb 42 01 30 3d 18 90 d7 3d 48 47 24 3c
       -0.0030555401 0.04296995 0.105255306 0.01002676
000320 90 71 30 3d 8e 3b f5 3c 25 a0 ec bb a5 21 99 bb
       0.04307705 0.029935624 -0.007221239 -0.0046732
000330 f7 e8 cc bc 27 9d c3 3c ff fe ae 3d 19 41 60 bd
       -0.02501343 0.023878647 0.085447304 -0.054749582
000340 22 9a 09 bc ca 4c ff bc bd 41 83 bd b8 5b 79 bd
       -0.0083985645 -0.031164546 -0.06409023 -0.060878485
000350 dc 58 24 bd 57 76 31 3d b0 dc e0 bc b9 35 8f 3b
       -0.040123805 0.04332575 -0.027448982 0.004370418
000360 ad c8 a6 3c fa 61 b0 3b 9e d7 6e bb fc ea 99 bc
       0.020359362 0.0053827735 -0.0036444436 -0.018788807
000370 99 e1 1d 3d 89 17 37 bc 2e 35 03 3d d2 00 14 bc
       0.038545225 -0.011175045 0.032033138 -0.009033399
000380 30 9d 22 39 53 2b b2 bc d3 b2 a3 bb e8 d9 b6 3c
       0.00015508081 -0.021749174 -0.0049956827 0.022320703
000390 8a 7a 25 bd e1 e1 cf bc d0 f1 47 3d 68 47 1a bc
       -0.040400065 -0.025376262 0.048814595 -0.009416439
0003a0 94 e8 9f bc e7 f3 4c 3d 8b 8f fa 3c 64 58 3f 3d
       -0.019520082 0.05003729 0.030586025 0.046715155
0003b0 1e cb 48 3c cb aa dd 3c 94 e5 97 3d 8e 6a 92 3d
       0.012255458 0.02705898 0.074168354 0.0714923
0003c0 8b 7a 3a 3d 48 4d 99 3d 0d ed 0c 3c e1 a3 c5 3d
       0.045527022 0.07485443 0.008601439 0.09650398
0003d0 c1 2e a6 3d 26 9f 36 bc 9d 45 94 3d a8 c7 4e 3d
       0.08114386 -0.011146342 0.0723984 0.050483376
0003e0 c7 05 06 bd 88 9b 9d bb ac b8 23 3d 92 58 91 3c
       -0.032720353 -0.0048098005 0.03997104 0.017742429
0003f0 7a 7e 64 3d 24 e9 ae 3d e1 07 0d bd a9 16 ab bc
       0.05578468 0.08540562 -0.034431342 -0.020884829

1.layer.0.bias f4 [4]
000000 40 58 c6 3d 8a 41 a0 3d 56 9c b3 bc 0d 7f de bc
       0.09684801 0.078250006 -0.021925133 -0.027160192

3.weight f4 [100, 196]
000000 54 3e 36 3c 49 92 0c bd 05 08 1e 3d 00 b8 4a bc
       0.011123259 -0.034319196 0.038581867 -0.012372971
000010 1c c7 93 bc c0 dc 4b 3c f2 74 35 bd 72 8f 97 bc
       -0.018039279 0.012442768 -0.04430098 -0.018501017
000020 1e 67 58 bd 5a ff 3a bd 90 8e 99 3d 76 21 0f bd
       -0.052832715 -0.04565368 0.07497895 -0.03494402
000030 b4 39 21 3d 1b 8f 8a 3d 16 fc 35 bd f7 91 64 3c
       0.03936167 0.067655765 -0.04442986 0.013950816
000040 e6 af 7a 3c 19 56 62 bb ee 47 6a 3d 6f d4 49 3d
       0.0153007265 -0.0034536181 0.057197504 0.049274858
000050 92 fd 83 bd 2e 9f a3 3c ae f3 1a 3d aa 75 8c 3d
       -0.06444849 0.019973364 0.037830047 0.0685838
000060 b8 72 d1 3d 53 42 d5 3c fc 1e 78 bc 0d 25 86 bd
       0.10226959 0.026032602 -0.015144106 -0.065500356
000070 b4 c6 38 bd 09 ee 26 bd 14 fb 26 bd 57 1a c6 bc
       -0.045111373 -0.04075435 -0.04076679 -0.024182482
000080 91 66 83 bc ea 38 0c bd 90 08 2a 3a 4e 96 03 bd
       -0.016040118 -0.034233965 0.0006486261 -0.032125764
000090 44 84 9d 3c 3e 0a 98 3b bb f9 56 bd 82 24 9c 3d
       0.019228108 0.004639893 -0.052484255 0.07624151
0000a0 c6 cd e1 bc 03 c6 ca 3c be ad 69 bc ae f6 0f 3c
       -0.02756394 0.024752622 -0.014262615 0.00878684
0000b0 f9 73 97 3d 1d 3b 62 3c 08 4e 37 3d f4 8b 0a 3d
       0.07395167 0.013808039 0.04475215 0.033824876
0000c0 15 d9 4f bc 39 74 7f 3d c9 0e b8 bc ea 3d 00 bd
       -0.012686034 0.062366698 -0.022467988 -0.031309046
0000d0 3e c6 b5 3c 5a fc b1 3c a9 22 03 3d bb be 54 bb
       0.022189256 0.021726776 0.032015476 -0.0032462317
0000e0 f7 f2 e0 3c 8a 91 16 3d ce f8 f5 bc 83 38 bb 3b
       0.027459605 0.03675989 -0.030025866 0.005713524
0000f0 c9 77 66 3b 2d fb 1c bd 46 9b 1d 3d 42 2b 4b bd
       0.0035166612 -0.038325477 0.03847816 -0.0496018
000100 d8 01 86 bd cc ac 8e bd 58 94 6e bd a8 eb 02 3c
       -0.065433204 -0.06966552 -0.05824694 0.007990755
000110 dc d8 92 3d 4d 4e 73 3d be d8 17 bd 88 0c 98 bd
       0.07170269 0.059400845 -0.037071936 -0.07424265
000120 7c 34 85 3d 19 38 80 bd de 10 63 bd 10 f7 5b bc
       0.06504151 -0.062607 -0.055436008 -0.0134256035
000130 cf 14 5d bd ed 39 2f 3d 7c 02 7b 3d 6e 62 33 3d
       -0.053974923 0.04277985 0.061281666 0.04379504
000140 f2 2e 92 3d 35 a5 85 3c 1f c7 a0 bc 28 13 36 bb
       0.0713786 0.016314128 -0.019626198 -0.0027782414
000150 96 96 7d 3d 0a 30 7c 3d d3 8a e3 3c 38 74 df 3c
       0.061911188 0.06156925 0.027776157 0.027277097
000160 b8 00 14 3d d6 57 8b bc 11 1a 23 bc f8 b8 c1 bc
       0.036133498 -0.017009657 -0.009954945 -0.02364777
000170 ee 9b 7c 3d d8 47 87 bd e2 13 17 3d 6c 21 33 bc
       0.061672144 -0.066055 0.036884196 -0.010933261
000180 7c 89 0e 3c 13 ac 13 3d a2 d6 8d 3d a0 5f 35 bd
       0.008699771 0.036052775 0.069257036 -0.04428065
000190 65 1f 53 3c 00 b6 19 bd 16 f5 35 3d 9d 46 17 bd
       0.012885903 -0.037527084 0.044423185 -0.036932576
0001a0 28 51 84 bd fb f6 53 3d 14 08 35 3d b0 bc 98 3d
       -0.06460792 0.05174921 0.044197157 0.07457864
0001b0 0e 56 24 3d a8 57 d6 ba 4c 9b a0 3c ea 75 f0 3c
       0.04012113 -0.0016353028 0.019605301 0.0293531
0001c0 cd 4a 23 bd 10 73 32 3c 58 e6 d3 3c 1d 7e dd 3c
       -0.039866257 0.010891691 0.025866672 0.027037675
0001d0 0d cd 4e 3a 91 b4 52 3d 83 0c 62 3d 79 43 63 3d
       0.00078888313 0.051441733 0.055187713 0.05548427
0001e0 5e c5 12 3d 2b 28 f7 3b 45 eb ab 3d 26 2a c6 3c
       0.035832755 0.00754263 0.083944835 0.02419002
0001f0 97 6a 34 bc ac 4f 8a 3b 6d fe 9c bb 6e b6 cf 3d
       -0.011011741 0.0042209234 -0.004791072 0.101422176
000200 5f 47 3e 3d 66 1c fb bb 95 04 9f ba e5 5a 8a 3d
       0.046454784 -0.0076632975 -0.0012132103 0.06755618
000210 37 b4 83 3c 4b bc 7f 3d 4c 97 e1 3c 97 c6 9e 3d
       0.016077144 0.06243543 0.027537964 0.07752722
000220 76 c0 d2 bb 3a 94 33 bc 38 e6 cd 3c 7d ea 05 3d
       -0.0064316345 -0.010960633 0.02513419 0.03269433
000230 e0 43 85 3d dd bf 57 bd 49 6a 8b 3d b1 df 8b bd
       0.06507087 -0.05267321 0.06807382 -0.06829775
000240 d0 8a 95 3c c1 bd 77 3d 2b fa cb 3c 6e 4a fe 3b
       0.018254668 0.060483698 0.024899563 0.0077603376
000250 b7 3a 2b 3d 06 f0 07 3b c3 63 1e 3d 24 41 e1 bb
       0.04180404 0.002074243 0.03866936 -0.0068742204
000260 aa 2c a5 3b c4 a7 b8 bc f1 2d 0c 3d 56 b6 6d 3d
       0.0050407248 -0.022540934 0.0342235 0.058035217
000270 60 8c 2f 3c 1c 7a 2d bd ca 42 1f bc e7 02 14 3d
       0.01071462 -0.04235278 -0.009720514 0.03613558
000280 3b 87 8d 3d af 4d 5d bd d0 b4 bf 3b f2 2e ef bc
       0.06910559 -0.054029163 0.005850412 -0.02919719
000290 88 c8 b5 3b 8d e2 7a bd 1d 04 64 3d c3 1a 10 bb
       0.005547587 -0.061251212 0.055667985 -0.0021988607
0002a0 26 db 82 3d 28 44 88 3d bf ed ef 3b a2 56 2c bd
       0.063894555 0.06653625 0.0073220427 -0.042074807
0002b0 8f d1 02 bd f7 b2 ec 3c 41 60 81 3d 6d f7 00 bd
       -0.031938132 0.02889393 0.06317187 -0.031485964
0002c0 ca a0 76 3d 33 fe 32 3c bc 30 1c bd 96 4f 32 3c
       0.060211934 0.010924864 -0.038132414 0.010883233
0002d0 fb 1d b4 bc 98 d4 e1 3c a8 0e 81 3d 25 98 7c bd
       -0.021986952 0.027567193 0.063016236 -0.061668534
0002e0 ad 53 4b 3c 1e e1 c0 bc 5b 61 90 bd 4a e6 22 3c
       0.012410087 -0.023544844 -0.07049819 0.0099426005
0002f0 17 96 5a bc 1b b7 33 3d 2e 3e e9 bb 25 f5 f8 bc
       -0.013341448 0.043875795 -0.007118008 -0.030390332
000300 22 a2 d9 3c 88 2b 7c 3c 90 aa 78 bd 80 19 3c bd
       0.026566569 0.015391238 -0.060709536 -0.045922756
000310 5d 13 d0 bc bb 9a 51 bd ad b7 7e b8 5d 36 37 bd
       -0.025399858 -0.051172953 -6.072938e-05 -0.04472958
000320 35 60 85 3d 79 a6 71 bd c7 fa 63 3d 52 6f 9a bc
       0.06512491 -0.05899665 0.05565908 -0.01885191
000330 37 8b 8c bd 20 e7 dd bc 1d ed e7 3c cb 9f c6 ba
       -0.068624906 -0.027087748 0.028311307 -0.0015153823
000340 57 93 54 3b 30 8f 52 3c 5a 48 0e 3d ed 97 72 3d
       0.0032436454 0.012851521 0.03473697 0.05922692
000350 2b c8 42 3d 07 e1 3e 3d 88 d2 1a bd 16 76 3d 3d
       0.047554176 0.04660132 -0.037798434 0.046255194
000360 e6 10 f1 bc 0d 1e 25 bd 94 ce a9 bc ae dd c3 3c
       -0.029427003 -0.04031186 -0.020728387 0.023909416
000370 de 7a 35 bd 15 55 78 bc c9 c2 d9 bc 8a 22 db b9
       -0.04430663 -0.015157004 -0.026582139 -0.0004179667
000380 fa f6 81 bd ce 45 8b 3b e9 10 84 3d 82 f8 36 bc
       -0.06345935 0.0042502647 0.06448538 -0.011167647
000390 7e b9 64 3c ff 3a 49 bd e8 47 07 bc 69 c1 6d bd
       0.01396024 -0.04912853 -0.00825689 -0.05804578
0003a0 02 66 e3 3b 16 fa 42 3d 51 e5 80 bd 98 d5 8a 3d
       0.0069396505 0.04760178 -0.06293739 0.06779021
0003b0 eb 50 b5 3c 4e 96 91 bd 11 b4 8a 3c 78 c0 39 bd
       0.022133311 -0.071087465 0.016931565 -0.045349568
0003c0 a1 9e 22 bd 0b db 2b bd 05 59 50 bb af 62 58 3d
       -0.03970206 -0.041956943 -0.003179134 0.052828487
0003d0 c6 31 37 bb 0e ba 21 bd 59 dc b4 bb 1b d4 37 3b
       -0.0027953251 -0.039484076 -0.0055194316 0.0028050009
0003e0 17 71 3c 3d c3 d9 f1 bc c4 ea 7a 3d 3b bd 6d 3d
       0.04600629 -0.029522782 0.061259046 0.058041792
0003f0 64 87 3f bd 81 87 2a 3d 01 f0 64 3d bf 32 54 bd
       -0.046759978 0.041633133 0.055892948 -0.051806208

3.bias f4 [100]
000000 cd e8 25 3d fa b6 14 bd c4 ba 38 bd 3b 2c 92 bd
       0.04050522 -0.036307313 -0.04509999 -0.071373425
000010 c3 03 9a bd d9 42 0e 3d 6e 70 fb 3a 54 03 cf 3c
       -0.07520249 0.03473172 0.0019183287 0.025270142
000020 89 01 7a 3d 50 ad d8 3c c4 45 72 bd c0 52 04 3d
       0.06103662 0.02644983 -0.059148565 0.03230548
000030 98 8a 39 3d 48 79 32 3d bd 8a 25 bd 29 03 13 bc
       0.04529819 0.043572694 -0.040415514 -0.008972921
000040 7a 6c 07 3d 3c a8 8e 3d ee 79 72 3d d2 39 f5 3c
       0.033062436 0.06965682 0.059198312 0.029934797
000050 21 11 f0 3c 6f b1 80 3d 93 17 0b 3c d8 f7 80 3d
       0.029305043 0.06283843 0.008489507 0.062972724
000060 75 33 cb bc 39 63 ff 3c af 21 a1 bc 9c ec 16 3d
       -0.02480481 0.031175243 -0.019669382 0.036846742
000070 46 3a 5d 3d 7a 1d 42 3c 0c 0f a3 3b df e2 85 3b
       0.054010652 0.011847848 0.004976159 0.004085883
000080 9f 3e 88 bd 41 be 8c 3d c4 7c 62 bc 8f e7 09 3c
       -0.06652569 0.068722256 -0.013823692 0.008417024
000090 b9 19 9a 3d 15 51 37 3c 90 cb 8f bd 73 83 8c 3c
       0.075244375 0.011188765 -0.07021248 0.017152524
0000a0 9c 74 3d bd 9a b3 07 3d 3b c8 b5 3c 01 8b 62 bd
       -0.046253785 0.033130266 0.022190204 -0.055308346
0000b0 34 de 34 bd 98 18 55 3d 88 58 3a 3d b7 10 63 3c
       -0.044157222 0.052025408 0.045494586 0.013858966
0000c0 e9 e4 0a bd 1b 59 79 bd b2 c0 a5 bb f5 61 38 bd
       -0.033909712 -0.060875993 -0.0050583715 -0.045015294
0000d0 02 35 8e 3d d7 a4 c6 ba 89 5b 2a 3d 78 33 8e bd
       0.06943704 -0.0015155327 0.0415912 -0.06943411
0000e0 7b 36 0f bb e5 b5 53 bd 32 de 7a 3d a7 71 31 3d
       -0.0021852541 -0.05168714 0.06124706 0.043321278
0000f0 84 d9 93 3c 46 8a 32 bd 51 ff 9b 3d 6d 6d c6 bc
       0.018048055 -0.0435889 0.07617057 -0.0242221
000100 4a 52 91 3d ec de c9 bc 14 75 40 3d 8c 58 31 bd
       0.070957735 -0.02464243 0.046986654 -0.043297336
000110 79 8f 63 3d 3c 20 47 bd c5 9a 86 3d 9c 9c d2 bc
       0.055556748 -0.048614725 0.06572489 -0.025709443
000120 3f 5f 5b 3d 9d 79 90 bd e2 d4 ef 3c b7 76 d6 3c
       0.05355763 -0.07054446 0.029276315 0.026179655
000130 97 6d 8f bd 2a 7d a3 3c fd c2 ca bc eb e1 70 3d
       -0.070033245 0.019957144 -0.02475118 0.058809202
000140 bc a7 bb bb c2 53 dd bc 0d e4 b4 3d be 08 7d 3c
       -0.0057267826 -0.027017478 0.0883256 0.015443979
000150 d1 81 6b 3d 22 ea 8b bc f5 62 3d 3d 39 13 8b 3d
       0.05749685 -0.017079417 0.04623695 0.06790776
000160 e4 c5 2b 3c 2a aa 4a bd 35 56 0c bd 3a 5b 16 3d
       0.0104841925 -0.049478687 -0.0342619 0.036708094
000170 95 13 f5 3c 80 14 26 3c 0e c4 6e bd bf 3e c1 3c
       0.029916564 0.0101367235 -0.05829244 0.02358949
000180 7b b0 28 bd c1 91 6d bd 32 8f 6f 3b 11 08 3b bd
       -0.04118393 -0.05800033 0.0036553857 -0.04566199

5.weight f4 [100, 100]
000000 98 1e ed 3c b1 59 85 bd c2 7f 9c 3d 30 b1 13 3d
       0.028945252 -0.06511248 0.07641555 0.03605765
000010 24 1e b9 3d c9 d5 f6 bc a4 2b 3a 3d f4 0c c2 bd
       0.09038952 -0.030131238 0.045451775 -0.09475127
000020 9b b6 4b bb da 79 d6 3c 72 f8 a7 bd 15 5c e2 3c
       -0.0031084183 0.02618115 -0.08201684 0.027631799
000030 0e a1 77 bd e6 d5 b9 bb ea d3 c3 3c 82 23 44 3d
       -0.060456328 -0.0056712506 0.02390476 0.047885425
000040 67 1e 98 3c f4 db 7d bd de 1a ae bd 0a d5 16 bc
       0.018569184 -0.06197734 -0.08501218 -0.009206066
000050 68 f6 74 bd ea 55 81 3d be 5b 61 bc 08 4f c2 bd
       -0.059805304 0.06315215 -0.013754783 -0.0948773
000060 98 90 3d 3d cc 69 19 bd f2 1c 94 3d 2e d6 d7 3d
       0.046280473 -0.03745441 0.072320834 0.105388984
000070 90 a8 b7 3d 67 2c dc bb c0 27 82 3d aa 86 27 bd
       0.089676976 -0.0067191604 0.06355238 -0.04089991
000080 b3 be 19 bd 36 27 80 bd 4d 9f a1 3d ed 5b 7b bd
       -0.03753538 -0.06257479 0.07891712 -0.061366964
000090 93 e4 aa bc 11 e7 b2 3b b3 9e 94 bd 5d 67 5e bd
       -0.020860946 0.005459674 -0.07256832 -0.054297794
0000a0 86 03 0e bc 19 5d 14 bd d4 58 d5 bb c0 42 c0 3c
       -0.008667832 -0.036221597 -0.0065108333 0.023469329
0000b0 87 eb ee bc de a3 8a 3d e2 b7 6a 3d d0 77 12 bd
       -0.029165043 0.067695364 0.05730427 -0.035758793
0000c0 f7 3e 99 bd 5f a6 b3 3d 59 71 bc bd 32 f6 34 bd
       -0.07482713 0.08771967 -0.09201307 -0.044180103
0000d0 5f 1f 05 bd 89 82 b0 3d 7e a2 99 bd 8d e3 1e 3d
       -0.03250062 0.086186476 -0.07501696 0.038791228
0000e0 cc 7e ec bd 66 7f 99 3d 98 38 5b 3c 4e 2c ba 3d
       -0.11547622 0.074950024 0.013380192 0.09090482
0000f0 5e 7f 48 bd b5 ed ed 3c ee 1b d0 3d a3 86 8a 3d
       -0.04894959 0.029044012 0.10161577 0.06763961
000100 dc 10 4c 3d d6 e5 9a 3d bb 05 81 3c 02 a0 20 3c
       0.049820766 0.07563369 0.015749803 0.009803774
000110 2c 90 a1 bc 1c da 8c bc 7e a3 92 3d a4 56 e3 bb
       -0.019722067 -0.017193846 0.0716009 -0.0069378186
000120 48 84 a3 bd 98 9d bd 3c b3 98 76 3c 3d 83 a4 3c
       -0.07984215 0.023146436 0.015051055 0.02008211
000130 2a ea 5b bd b7 2f 10 bc 88 fe 36 bc 7d 50 61 3b
       -0.053690113 -0.008800439 -0.011169083 0.003438025
000140 48 9f 64 3d 26 6c b5 bd 2a d9 7b bd 84 cf 93 3d
       0.055815965 -0.08858518 -0.0614864 0.07217315
000150 39 62 22 bd 30 de ab 3d 5e 53 b1 bd 3b 1a 4d bd
       -0.039644454 0.08391988 -0.08658479 -0.050073843
000160 34 be b3 3d c2 eb 54 bd 83 d3 b2 3d 12 55 45 3d
       0.08776513 -0.05198265 0.08731749 0.048176832
000170 ae 28 30 bd b1 58 b2 bc 2a dc 8a 3d af 26 dd 3c
       -0.043007545 -0.021770807 0.06780274 0.026995985
000180 41 69 1a 3d a4 23 8d 3c f3 e6 cb 3d 54 0f b2 3d
       0.037698034 0.017228909 0.099561594 0.0869433
000190 da 98 51 bc 79 55 9a bd 8b 55 b8 3d 01 8c 0f bd
       -0.01279279 -0.07535834 0.09000691 -0.035045628
0001a0 03 2a 6f bd 83 7c 1a bd 4b 4c 68 3d 31 5f 3a bd
       -0.058389675 -0.0377164 0.056713384 -0.045500938
0001b0 aa 29 02 3d 53 75 e7 bb c8 2a a6 3d 2c 3c 8d 3d
       0.031778015 -0.0070635467 0.081136286 0.068962425
0001c0 7b 27 dc 3c 41 cc fa bd 28 be e4 bc 56 54 39 3d
       0.026874295 -0.122459896 -0.027922705 0.045246445
0001d0 9d 21 9f 3d 9d 28 8a bd cf a6 87 bd 96 15 3e 3d
       0.07770083 -0.067460276 -0.06623613 0.046407305
0001e0 52 7f 9d 3d 69 22 6c 3d df 43 6a bd 83 03 29 bd
       0.076903 0.057650004 -0.057193633 -0.041263115
0001f0 58 d7 36 bd e5 d9 bf 3d e5 26 d4 3d 5a 68 7d 3d
       -0.04463896 0.09367732 0.10358981 0.061867096
000200 66 c7 8a bd 09 c7 ae 3d d2 1e 48 bd 7f 46 bf 3d
       -0.067763135 0.08534057 -0.048857518 0.09339618
000210 72 56 6d 3d 5e 77 97 3d f4 b1 8c bc c7 b3 a7 bd
       0.05794377 0.07395814 -0.017174698 -0.08188587
000220 04 20 d1 bc 35 a5 48 3d 21 8b c9 bc 53 14 ac bd
       -0.025527962 0.04898568 -0.024602475 -0.08402314
000230 36 57 2e 3d 2c 5b 83 bd 9a af 59 bd ea ae 4c bd
       0.04256364 -0.06413874 -0.053145982 -0.0499715
000240 b2 33 69 bc d7 4a 83 3d cd 55 3e bd fc 1b 97 3d
       -0.0142335165 0.06410759 -0.046468545 0.073783845
000250 ee 5e 72 bc 8a 4b 89 3d 25 cc a3 3d 8b f9 b6 bd
       -0.014793141 0.06703861 0.07997922 -0.08934315
000260 1e 7e cd 3d 1b 32 90 3c 02 10 91 bc ad 46 88 3d
       0.100338206 0.017602017 -0.017707828 0.06654105
000270 91 08 9c 3d b6 48 a6 3c b9 41 87 bc 8d 94 d6 3c
       0.076188214 0.020298343 -0.016510831 0.026193881
000280 8a 8e f1 3d ef c1 74 bc 90 4a 8f 3d 92 8e 93 bd
       0.11794765 -0.0149388155 0.069966435 -0.072049275
000290 76 ff 8d bd 83 ea 2c bc 99 a1 f5 bd 92 a9 ac 3c
       -0.06933491 -0.010553959 -0.11993713 0.021076951
0002a0 24 be bf 3c 70 2a 88 3d 74 6f e5 bb 05 47 da ba
       0.023406096 0.06648719 -0.0070018116 -0.0016653246
0002b0 96 0f 18 be a3 b3 26 3b f0 9e 07 bd f9 97 1c bd
       -0.14849696 0.0025436662 -0.03311056 -0.03823087
0002c0 8d 52 48 bd 02 6d 74 3c 16 30 86 3d 24 97 1e bd
       -0.04890685 0.014918568 0.065521404 -0.038718358
0002d0 62 49 9f 3d e4 6a ca bd 05 b5 c0 bc 60 d9 72 bd
       0.077776685 -0.09883669 -0.023523817 -0.059289336
0002e0 d4 58 6d 3d 9f 1f 27 bc 96 8b 7e 3d 77 d7 c6 3b
       0.05794604 -0.01020041 0.06214484 0.006068166
0002f0 e2 ac ad 3d b3 f1 8a bd 28 c7 00 bc 92 c0 ca 3c
       0.084802404 -0.06784382 -0.007859983 0.024750028
000300 1d f8 56 3d b6 ea fc bc 56 22 f7 bc dc db cb 3d
       0.052482713 -0.030873638 -0.03016774 0.09954044
000310 af 72 52 bc e2 8b 8e bd 8f 5a b3 bc 29 18 b7 3d
       -0.0128447255 -0.06960274 -0.021893768 0.08940155
000320 ed 6e b9 bd 08 a1 9f 3c 91 c4 ac 3d bd f6 29 3d
       -0.090543605 0.019485965 0.084359296 0.041495074
000330 83 4b 0d 3b 27 86 fa 3c e4 c2 d7 3c 6c 6a fb bc
       0.00215599 0.030581547 0.026338048 -0.030690394
000340 0f d2 66 bd 88 a2 4b 3d 57 dc 6c bd 4b 47 3a bd
       -0.05635267 0.04971555 -0.05782732 -0.045478147
000350 98 b3 9e bb d1 eb 72 bb ba 42 93 bd f4 7f f0 3c
       -0.0048431866 -0.0037066827 -0.071904615 0.029357888
000360 3f 79 b4 3c 4c 0a 8e bd 00 7e 50 bd 3e 19 2d bd
       0.02203047 -0.06935558 -0.050901413 -0.0422604
000370 3a 0e 10 3d 85 a8 b0 3d 40 61 36 3b 50 d4 41 bd
       0.035169818 0.086258925 0.0027828962 -0.047321618
000380 e8 27 20 3d 24 7c 09 bd 05 51 97 bd 5e 7f 1e bd
       0.039100558 -0.033565655 -0.073885 -0.038695686
000390 f8 26 2c 3d d3 00 28 3d c7 48 61 bd 84 9e 74 3d
       0.04202935 0.04101641 -0.055001047 0.059721485
0003a0 b3 72 87 3d 05 3f bf bd ba 94 73 3d 3a 3c 8b bd
       0.06613674 -0.09338192 0.05946801 -0.06798597
0003b0 60 d5 ed bb 58 9b 87 bc 33 6c 1a bd 94 8f ee bc
       -0.0072581023 -0.016553566 -0.037700843 -0.029121198
0003c0 62 25 b8 3b 20 79 cb bc c0 58 c8 3c d0 71 af bd
       0.0056196908 -0.02483803 0.024456382 -0.0856663
0003d0 76 e2 aa bd 00 8a ba bb a0 e6 cb 3c af 7c 41 bc
       -0.08343975 -0.0056927204 0.024890244 -0.011809512
0003e0 01 96 ae 3d b8 85 95 bd f7 bb ca 3d 38 ff c8 bd
       0.08524705 -0.073008955 0.09899133 -0.09814304
0003f0 16 77 85 3d 91 42 fb 3b 0d 75 bc 3d 79 29 28 bd
       0.065168545 0.0076678474 0.09202013 -0.041055176

5.bias f4 [100]
000000 ef 08 77 bd b2 20 24 3d 11 05 bc bc 53 02 2b 3d
       -0.060311254 0.040070243 -0.022951635 0.041750263
000010 50 a1 0d 3c 7c 85 2b 3d 1d 77 02 bd 9f 47 84 bd
       0.008644417 0.041875347 -0.031851877 -0.06458973
000020 89 f6 ee 3c 40 9b ab 3d f1 1b 16 bc a9 2e 97 bd
       0.029170291 0.08379221 -0.009161935 -0.073819466
000030 f0 3e bd 3d ea 0b f5 bc c9 20 a4 bd ce 53 92 3d
       0.0924052 -0.029912908 -0.08014066 0.07144891
000040 2b 37 12 3d 8a 27 5a bd f4 30 cb 3d a1 8f 57 bc
       0.035697144 -0.053260364 0.099214464 -0.013156802
000050 6e 52 4c bd 3d eb 09 3d 56 56 61 3d 4a 4f 1c bc
       -0.0498833 0.033671606 0.055013977 -0.009540388
000060 a0 9a 47 3b 79 d5 93 bd 58 86 46 bd a2 44 bd 3d
       0.0030457154 -0.07218451 -0.048467964 0.09241606
000070 67 5b 4b bb aa 88 70 3d fd fc 68 3c 14 3d 34 3d
       -0.0031029822 0.058724083 0.014220473 0.04400356
000080 7a 8f d8 3c 9f 69 e6 bc fa 76 ba bd 75 aa 2a bd
       0.026435602 -0.028126536 -0.09104724 -0.041666467
000090 18 24 6b bc 3f 95 93 3d 82 45 c3 bd 3b 69 88 bd
       -0.014351867 0.07206201 -0.09534742 -0.06660696
0000a0 68 10 6c 3b 6b ee 49 bd 0d 46 c9 3d 54 07 cd bd
       0.003602052 -0.04929964 0.09827814 -0.10011163
0000b0 0d a0 6c 3d 6b 21 d1 bd 9b 8b f4 bc 93 2c 70 bd
       0.057769824 -0.10211452 -0.029851725 -0.05863626
0000c0 3c d4 a3 3d 2a 6d c1 bc b5 02 f1 bc 25 1f e3 3d
       0.07999465 -0.023611624 -0.029420236 0.11089925
0000d0 ed d9 71 bd 84 0c d4 bd f6 41 dc 3d d0 7e 25 3d
       -0.05904572 -0.1035395 0.107547686 0.04040414
0000e0 1b e7 44 bd cd c8 56 bd 8d 18 ad bd ad 08 f9 bc
       -0.04807196 -0.052437592 -0.08451948 -0.030399645
0000f0 40 8b 1e 3d c8 f1 89 3d 9e f9 1d bd b4 2a 7f bc
       0.038707018 0.06735569 -0.03856813 -0.015574146
000100 07 f0 ec bc a0 61 98 bd d5 74 19 bc bb 87 31 3d
       -0.028923048 -0.074404955 -0.009366234 0.043342333
000110 70 7e 51 bc d8 4c 88 3d 6d 0e 9d bd d0 b4 bf 3d
       -0.012786493 0.06655282 -0.07668767 0.09360659
000120 fd 65 c8 3d f8 d8 c5 bd 35 25 ac bd 11 a6 bf 3d
       0.09785078 -0.09660524 -0.08405534 0.093578465
000130 ff 95 6b bd ef de fe b9 b1 93 a0 3d df f6 c8 bb
       -0.057516094 -0.00048612754 0.0784067 -0.006132945
000140 2d ab ba 3d 7b f5 30 3c 91 75 20 bc 59 db af bd
       0.091146804 0.010800715 -0.009793655 -0.08586759
000150 02 52 48 3d 6f 28 d3 3d 76 1a c3 bc 35 27 7d bc
       0.048906334 0.103104465 -0.023816328 -0.015451242
000160 71 a1 b7 3d a9 12 64 3d 66 00 ab 3c dc aa e2 3b
       0.089663394 0.05568186 0.020874213 0.0069173407
000170 6d 3c 7a 3d 5b a2 81 3d 71 7b 0d bd 8e 3e 91 3d
       0.061092783 0.06329795 -0.03454155 0.070920095
000180 74 82 00 bd 5e aa 9d bd 38 5e a3 3d 08 07 97 3d
       -0.03137441 -0.076985106 0.07976955 0.07374388

7.weight f4 [10, 100]
000000 79 fd 7b bd 20 a0 00 3e bc 33 a2 3d 75 8e 05 be
       -0.061521027 0.12561083 0.07920024 -0.13042624
000010 4c 99 08 bd ea 3a fe 3c 78 2a 62 bd 7d 98 40 3d
       -0.03334932 0.031033952 -0.055216283 0.047020424
000020 c6 6b 65 bd b1 7d b7 3d 3b aa ff bd d3 b0 aa bb
       -0.056010984 0.089595206 -0.12483641 -0.0052090674
000030 33 36 b0 3c a3 a4 e6 bd bb 6d c3 bd d6 44 fb bc
       0.02151022 -0.11261871 -0.09542414 -0.030672472
000040 94 f9 cc 3d 83 d6 b7 bb 56 f6 ba bd 0f 23 90 3d
       0.10008541 -0.0056102886 -0.09129016 0.07037937
000050 25 74 07 bd 92 d3 da bd 1c 07 e4 3d e2 ae 40 be
       -0.03306975 -0.10684885 0.111341685 -0.18816712
000060 c4 01 e2 3c 6e 23 02 bd 77 e8 22 3d 65 19 af 3d
       0.027588733 -0.03177207 0.039772477 0.085497655
000070 ce e1 47 3d df 14 e7 bd 31 9b 1d be 1f 5a 12 3e
       0.04879933 -0.11283278 -0.15391232 0.14292191
000080 2b 6d 09 3e 7b 15 a1 3d 80 3e b9 bd 63 17 1e 3d
       0.1342055 0.07865425 -0.09045124 0.038596522
000090 d8 c5 b2 bd c2 8a 9f bd ea 35 92 bd 2d 07 72 3d
       -0.08729142 -0.07790138 -0.071391895 0.059088875
0000a0 6f f3 b1 bd 5d 11 4d 3d 2b 6e 0f be d1 8e 14 3d
       -0.086890094 0.050065387 -0.1400687 0.036269013
0000b0 9f 7b 5f be dd 9a ff 3d f1 55 da 3c e4 e0 11 3e
       -0.21824501 0.1248071 0.026652308 0.14245945
0000c0 3e 6e b5 3d 1f 42 0a bc 0f 7a be 3d 4d 00 2d be
       0.08858918 -0.008438616 0.093006246 -0.16894646
0000d0 b2 fc 4d 3d 9d 60 b5 bd f3 56 7d bd 7d d4 33 3e
       0.050289817 -0.08856318 -0.0618505 0.17561527
0000e0 4c 1a bd bc d5 c2 99 bd bb 5d 90 bd 2c cb 71 3d
       -0.023083828 -0.075078644 -0.07049128 0.05903165
0000f0 97 8a 88 bc 91 e6 02 3d 2b 24 18 3e e7 84 e0 3d
       -0.016667647 0.031958167 0.14857547 0.10962849
000100 80 72 9e bd 47 ce e9 3d a8 8e fd 3c fe 6f 5c 3c
       -0.07736683 0.114162974 0.030951813 0.013454435
000110 88 43 d7 bc 8a 23 c1 bd fa 9d c3 bb 18 8d eb 3d
       -0.026277319 -0.09430607 -0.00596976 0.11501521
000120 04 44 bd bd 1d 3f f0 bc 63 5d 56 bd a6 27 07 3e
       -0.092414886 -0.02932697 -0.052335154 0.13198718
000130 aa 11 26 3b 58 33 d6 bc 8e 64 1b be d9 3c 62 3d
       0.0025340118 -0.02614753 -0.15175077 0.05523381
000140 90 0f d3 3d c3 29 95 3d 7f 1f 8f 3b 7c 30 95 bd
       0.10305703 0.07283356 0.0043677683 -0.07284638
000150 84 96 44 3d 32 6c 0e 3d df d9 ee bd 64 93 e0 bc
       0.047995105 0.03477115 -0.11662649 -0.027414031
000160 18 9c e5 bc 64 64 2b be 8e 33 9d 3d 0f 39 9d 3d
       -0.028028533 -0.16737515 0.07675849 0.07676899
000170 e2 4e 84 bd eb ee d9 bd 4d 41 0a be 49 2b 8f 3c
       -0.06460358 -0.10641273 -0.13501473 0.017476695
000180 74 3f f8 bd 09 b4 b9 3d 0a 38 7d 3d cb 88 17 be
       -0.12121478 0.09067542 0.06182102 -0.14798276
000190 6d 05 b6 bc 10 2f 1a be 4e 4a ca 3d 80 4a 22 3e
       -0.022219384 -0.15057015 0.09877454 0.15848732
0001a0 ca 1b 2c bd c1 7d d1 3d fa 21 77 bc cc a0 2b be
       -0.04201869 0.10229064 -0.015083784 -0.16760558
0001b0 aa 78 e7 bd 74 2c 80 bb 06 42 ec 3d 7d 0d ab 3d
       -0.11302312 -0.003911549 0.115360305 0.08352182
0001c0 66 be 44 be 57 4d eb bd 88 c2 d9 3d 0b 05 99 bd
       -0.19213256 -0.11489361 0.10632807 -0.07471665
0001d0 bf 56 1d 3d 48 66 bf bc 5c 97 3c bd ba 3d c2 bd
       0.038412806 -0.023364201 -0.046042785 -0.0948443
0001e0 a3 c8 6a 3d c3 2f b2 bc 37 93 33 be 45 32 09 bd
       0.05732025 -0.02175129 -0.17536627 -0.033495206
0001f0 50 68 9f bd ee 33 eb bc 43 83 aa bc 27 94 c7 3d
       -0.07783568 -0.028711285 -0.020814544 0.09745055
000200 7d 09 db 3d b4 ae cd bd aa df 13 3c 9a 90 97 3d
       0.10695169 -0.100430876 0.009025494 0.074006274
000210 3c 25 07 bd ec 5d 90 bd e4 13 a5 bc 5d 10 d0 bd
       -0.032994494 -0.07049164 -0.020151086 -0.10159371
000220 fe 03 29 3d 20 00 56 bd 0c 55 e7 bc 87 92 0b 3c
       0.041263573 -0.052246213 -0.028238796 0.008518822
000230 81 eb 8f bc 3b f5 d7 3c af 6d 8a bd 92 0e c6 3c
       -0.017568352 0.026362052 -0.06759202 0.02417687
000240 84 e5 fe 3d 36 6d 29 be 60 8b 0f bd 63 63 ce bd
       0.124461204 -0.16545567 -0.035045028 -0.1007755
000250 75 a1 06 3e 0d 67 06 3e 1f 09 a3 bd 4a 92 80 3e
       0.13147528 0.13125248 -0.07960724 0.2511161
000260 80 66 a1 3c e3 0c a8 bd 83 14 cf 3d c9 c7 0c bd
       0.019702196 -0.08205583 0.10111334 -0.034370217
000270 5b ba ae bd 71 91 2a bd 86 2d 8b bd 1f a0 62 bd
       -0.08531638 -0.04164261 -0.06795792 -0.055328485
000280 2d e6 59 3d 71 1d a4 3d 01 53 33 3d a5 2b d1 bd
       0.05319803 0.08013428 0.04378033 -0.10213403
000290 f5 e6 e6 bc 04 4a 38 be 67 56 f3 3c 49 c4 87 bd
       -0.0281863 -0.17996985 0.029704286 -0.06629235
0002a0 32 b1 88 3d 9d 2c ff bb d1 ff e6 3b 7f bf a2 bd
       0.06674422 -0.0077873007 0.0070495387 -0.07946681
0002b0 5b d5 90 bc e3 92 b8 bd b8 14 98 bc 3d 95 82 bd
       -0.01767986 -0.090123914 -0.018564567 -0.06376121
0002c0 f9 57 b0 3c 82 99 31 bb 85 7f 44 3e 8d 66 d2 bd
       0.021526324 -0.0027099554 0.1918927 -0.10273466
0002d0 40 33 1a be 99 5e 1b be 40 06 e9 3c 30 36 be bd
       -0.15058613 -0.15172805 0.028445363 -0.09287679
0002e0 2e 37 47 3c e4 2c 25 3e aa 5c bf 3d 47 30 29 bd
       0.012159152 0.16130406 0.09343846 -0.041305806
0002f0 c7 31 cf bd a4 8e 55 3e 10 aa d6 3d f2 32 97 3d
       -0.10116916 0.20855194 0.104816556 0.07382764
000300 44 85 6e bd d2 cb c8 3d 04 d8 a3 3d fc 40 bf 3c
       -0.05823256 0.09804501 0.08000186 0.023346417
000310 43 91 e1 3c 1c 36 d7 3c 48 e6 ba 3b 82 83 64 3e
       0.027535086 0.026270919 0.005703721 0.22315791
000320 46 9d 13 3e 53 ca 9d 3d 18 05 62 bb 3e 9a 43 bd
       0.14415464 0.07704606 -0.00344879 -0.04775452
000330 c3 2a 87 3d 6b 7c 72 bd af a5 1c bd 05 da f9 3c
       0.06599953 -0.059200685 -0.038243946 0.030499468
000340 e2 9f 8a bd 13 c5 d7 3c 37 0b 8f 3d 56 4d 6c bb
       -0.067687765 0.02633909 0.06984561 -0.0036056838
000350 fb ae 34 be a5 0b 0a be 2d 34 bd bd 4d 30 df 3c
       -0.17644875 -0.13481005 -0.09238467 0.027244711
000360 8c a5 d6 bd 79 df 0b bd 7b 9f e6 bc ef 8b 9e bc
       -0.10480794 -0.034148667 -0.028152218 -0.019353835
000370 29 ad 8a 3d 05 77 58 bd 69 f2 f4 3c cb 63 21 3e
       0.06771309 -0.05284788 0.029900746 0.15760724
000380 90 a9 3e bd 38 a1 1a bd 02 50 2d 3d b2 ea 11 bd
       -0.046548426 -0.037751406 0.04231263 -0.035624214
000390 06 e9 52 3d 28 33 ae bd af 00 1f 3e bb a1 c6 bd
       0.05149176 -0.08505851 0.15527605 -0.096988164
0003a0 a7 72 05 3e 59 1e 80 3c d9 50 d1 bd 2f ef ba 3d
       0.13032018 0.01563947 -0.102204986 0.09127652
0003b0 7e ac 20 3d 33 df 3a bd 65 ca 9b 3d 19 cd cc 3d
       0.039227 -0.045623016 0.07606963 0.10000057
0003c0 c3 e3 65 3d ff bd db 3b 4c 3d 5d bd 8a 27 c9 bb
       0.056125414 0.006705999 -0.054013535 -0.0061387466
0003d0 76 4a f8 ba af da 65 bc fb fc 58 3d 02 c5 1a 3e
       -0.001894309 -0.014029189 0.052975636 0.15114215
0003e0 99 6c c0 bd 72 3c 9f bc d7 d9 63 bd 8e 36 16 3d
       -0.09395713 -0.019438002 -0.05562767 0.03667312
0003f0 00 cf a8 bc ea 20 9f bc 00 ad 0f be 98 7a 36 3e
       -0.020606518 -0.019424874 -0.14030838 0.17820203

7.bias f4 [10]
000000 97 a0 70 bd 9b 12 5d 3c 3b db cd bb 86 68 2c bd
       -0.0587469 0.013493205 -0.006282238 -0.04209187
000010 af 8d 2a 3d 31 1e 80 3c 1a df 37 bd be 33 02 3d
       0.041639026 0.015639396 -0.0448905 0.031787626
000020 7a 66 00 be 53 48 a7 3b
       -0.12539092 0.0051050573
