Topics/Convolutional Network/output/cnn_demo_50Perc.pth (torch, 106669 bytes, 10 tensors)

0.layer.0.weight f4 [4, 1, 3, 3]
0	0x3ee62d3d	0.4495639
1	0x3d514b0d	0.051096965
2	0xbe6bcb85	-0.23026855
3	0x3ea09b62	0.31368548
4	0xbe622432	-0.2208412
5	0xbe4c476e	-0.19949123
6	0xbb8b5f55	-0.004253308
7	0xbe98056f	-0.29691646
8	0xbe8cf747	-0.27532408
9	0xbda96fa4	-0.08273247
10	0x3f5affa1	0.8554631
11	0x3f47da06	0.7806705
12	0x3e321a79	0.17392911
13	0x3f1de052	0.6167041
14	0x3f6688b5	0.9005235
15	0x3f4fe967	0.8121552
16	0x3e9e79f6	0.30952424
17	0x3f48f46e	0.7849797
18	0xbe1f195a	-0.15537015
19	0x3eef2cb4	0.46713793
20	0xbdf294b0	-0.11844766
21	0xbd5b1f93	-0.05349691
22	0x3dfce4c3	0.1234832
23	0x3f17abf5	0.5924676
24	0x3ca447d0	0.020053774
25	0x3ed21c9a	0.41037446
26	0x3efcde28	0.49388242
27	0xbea41a12	-0.3205114
28	0x3dee8a45	0.116474666
29	0xbe15d906	-0.14633569
30	0xbe25f1b0	-0.16205478
31	0xbe6a7c76	-0.2289904
32	0x3d66c811	0.056343142
33	0x3d5012d5	0.05079921
34	0xbe380a99	-0.17972793
35	0xbe842e10	-0.25816393

0.layer.0.bias f4 [4]
0	0x3ed30103	0.4121171
1	0x3dfa582a	0.12223847
2	0x3da3c5fd	0.07996748
3	0x3e99cc66	0.30038756

1.layer.0.weight f4 [9, 4, 3, 3]
0	0xbe0238e9	-0.12717022
1	0xbdd28334	-0.10278931
2	0xbc313f5f	-0.0108183315
3	0x3d873660	0.06602168
4	0xbe273a1d	-0.16330762
5	0x3e52c788	0.20583928
6	0x3dfd21e2	0.12359978
7	0xbd168ab6	-0.03675338
8	0x3e3eb6ae	0.18624374
9	0x3ebce94e	0.36896747
10	0x3f0558f8	0.5208888
11	0x3ead8675	0.33891645
12	0x3ecca18a	0.39966995
13	0x3ec82d79	0.39097193
14	0x3e6f11b2	0.23346594
15	0x3e09bab4	0.13450128
16	0x3e510eca	0.20415798
17	0xbd38186d	-0.04494517
18	0x3e0eadd5	0.13933499
19	0x3d8cd59c	0.0687668
20	0xbd036d65	-0.03208675
21	0x3e18c16c	0.14917535
22	0x3e6bc5e8	0.23024714
23	0x3bd1c0e4	0.006401168
24	0x3c2c8f12	0.0105321575
25	0x3c79c266	0.015244102
26	0x3d45563c	0.048177943
27	0xbdd3b070	-0.10336387
28	0xbe281dee	-0.16417667
29	0xbe1d1d29	-0.15343155
30	0x3b10e80e	0.0022110972
31	0x3a40396c	0.0007332775
32	0x3d145ef1	0.036223356
33	0x3e1443b4	0.14478952
34	0xbe18f9bc	-0.14939016
35	0xbe11654d	-0.141988
36	0x3e3f7e7a	0.1870059
37	0xbd6081fd	-0.054811466
38	0x3dcaa1e0	0.098941565
39	0x3d980b12	0.074239865
40	0x3d80fc91	0.06298173
41	0x3ca954c8	0.02067031
42	0xba142c30	-0.00056523364
43	0x3e12d4e8	0.1433903
44	0x3e72b970	0.23703551
45	0x3d8e18d1	0.06938327
46	0x3ee3b64f	0.44475028
47	0x3efd7e6e	0.4951052
48	0x3e758fea	0.2398068
49	0x3f17ba24	0.59268403
50	0x3f0fce70	0.56174374
51	0x3e8e2230	0.27760458
52	0x3ec7e5d1	0.39042524
53	0x3e579c46	0.21055707
54	0x3d9288a1	0.07154966
55	0x3ea78346	0.3271734
56	0x3e79bcf4	0.24388486
57	0x3de1e4d5	0.11029974
58	0x3e8f3a3d	0.2797412
59	0x3e8eea62	0.27913195
60	0xbdbdd5ec	-0.09269318
61	0xbc6a950e	-0.014317764
62	0x3e2516a1	0.16121913
63	0x3d7c4dcf	0.06159764
64	0x3d64407b	0.055725556
65	0x3ce413e8	0.027841523
66	0x3c9b2220	0.01893717
67	0x3ce026b0	0.027362198
68	0xbce9be86	-0.028533231
69	0x3d0f8c45	0.03504588
70	0xbe4a1d28	-0.19737685
71	0xbda97f96	-0.08276288
72	0x3afb2171	0.0019159747
73	0x3c20cfff	0.009815215
74	0xbd612803	-0.0549698
75	0x3d85becd	0.06530533
76	0xbc06f9da	-0.00823828
77	0xbdc3cdc9	-0.09560735
78	0x3d9d6276	0.076847956
79	0xbe318bd1	-0.17338492
80	0x3e0d7d84	0.13817412
81	0xbc845796	-0.016155045
82	0xbe4ce54a	-0.20009342
83	0xbd6dcb95	-0.05805548
84	0x3de67d26	0.11254339
85	0x3e879977	0.26484272
86	0x3ea05a18	0.31318736
87	0x3cf8ba4f	0.030362276
88	0x3e9535e1	0.2914267
89	0x3ec25678	0.37956595
90	0xbd476b41	-0.04868627
91	0xbd966114	-0.07342735
92	0x3e52924e	0.20563623
93	0x3e3b9b45	0.1832095
94	0x3e4332f0	0.190624
95	0x3e841000	0.25793457
96	0x3e5310c9	0.20611872
97	0xbd47bf2e	-0.048766308
98	0x3e4401d9	0.1914133
99	0x3dd9108b	0.105988584
100	0x3e25e7c1	0.16201688
101	0xbe092062	-0.1339126
102	0xbddbc090	-0.10730088
103	0xbd30315d	-0.043015826
104	0x3d8a1e6e	0.06744085
105	0xbd5ebbdc	-0.054378375
106	0xbc330a1a	-0.010927701
107	0x3de92685	0.113843
108	0xbe139952	-0.14413956
109	0xbe1990a9	-0.1499659
110	0xbd634ba4	-0.05549206
111	0x3d2ac50c	0.041691825
112	0x3d7935f1	0.06084246
113	0x3e478b9b	0.19486849
114	0xbdb4dc06	-0.08831029
115	0x3e174b91	0.1477492
116	0x3e28f851	0.16500975
117	0xbd85583f	-0.06510972
118	0x3ea3b373	0.31972846
119	0x3c573795	0.01313581
120	0x3e37668d	0.17910214
121	0x3e1c1272	0.15241411
122	0x3e1f390a	0.15549102
123	0x3e41c3ca	0.18922344
124	0x3bc70f7d	0.0060748444
125	0xbd184e2a	-0.037183918
126	0x3e145636	0.14486012
127	0x3d86e56b	0.06586727
128	0xbdefb0fe	-0.117036805
129	0x3e4fdf1b	0.20299952
130	0x3d69b9b1	0.057061855
131	0xbe02aba6	-0.12760791
132	0xbc0030d7	-0.007824144
133	0x3d4212c3	0.047381174
134	0xbcfa5f6e	-0.030563083
135	0x3df1157d	0.11771677
136	0x3dd8c1f5	0.10583869
137	0xbdca0f84	-0.098662406
138	0x3e20a429	0.15687622
139	0xbda8a1aa	-0.0823396
140	0xbdf4ae76	-0.11947338
141	0xbd56e81f	-0.05246746
142	0x3dde8563	0.10865285
143	0xbb892c79	-0.0041862098
144	0x3e0e3d06	0.13890466
145	0xbdd55b0e	-0.10417758
146	0xbd56d021	-0.05244458
147	0xbd754021	-0.05987561
148	0x3cedf278	0.029046282
149	0x3c357986	0.011076337
150	0xbd8a0a41	-0.06740237
151	0xbd51cea6	-0.051222466
152	0x3e0860ec	0.13318223
153	0xbc70d5a9	-0.014699378
154	0xbddc34b8	-0.10752243
155	0x3e43db54	0.19126636
156	0x3e85d892	0.26141793
157	0x3e40ad08	0.18816006
158	0x3e8fa408	0.28054833
159	0x3ea58591	0.32328466
160	0x3e532b9d	0.20622106
161	0x3ea7298f	0.32648894
162	0xbdf7adbe	-0.120936856
163	0xbc95c806	-0.018283855
164	0xbca000a1	-0.01953155
165	0x3e06fb16	0.13181719
166	0x3dc0a774	0.09406939
167	0x3e0b5e9b	0.13610308
168	0xbd4d98e5	-0.05019464
169	0x3e88d9d0	0.26728678
170	0x3e181279	0.14850797
171	0xbd72d12b	-0.05928151
172	0xbde89fe5	-0.113586225
173	0xbc9190d0	-0.017769247
174	0xbcb10b4c	-0.021611832
175	0x3da67e19	0.0812952
176	0xbe2d024c	-0.16895407
177	0xbe1a1659	-0.15047587
178	0xbe2d25b9	-0.16908921
179	0x3d561e69	0.052275095
180	0xbd11b7e9	-0.03557578
181	0xbe2dc3b8	-0.16969192
182	0x3e58939d	0.2115006
183	0x3e359643	0.17733102
184	0x3daa1955	0.08305613
185	0x3e1172d8	0.14203966
186	0x3d79a870	0.06095165
187	0x3d9f93ee	0.07791887
188	0x3da4826e	0.0803269
189	0x3e8f79f8	0.28022742
190	0x3cc7f479	0.024408566
191	0x3e6c6838	0.23086631
192	0x3d5d783d	0.054069746
193	0x3d4a05aa	0.049321808
194	0x3d34d5f6	0.04414936
195	0x3daeffa7	0.085448556
196	0xbe1cece9	-0.15324749
197	0xbe43f575	-0.19136603
198	0x3c93d9a5	0.018048117
199	0xbced40cd	-0.028961563
200	0x3d8c42f9	0.068487115
201	0x3d7a79c9	0.0611513
202	0x3e042330	0.12904048
203	0xbe4279bd	-0.18991752
204	0xbe0eea6f	-0.13956617
205	0xbcd263da	-0.025682379
206	0x398b4d26	0.00026569626
207	0x3dc34eb8	0.09536499
208	0xbda010f4	-0.078157336
209	0xbe1cf775	-0.15328772
210	0x3e0f2ca9	0.1398188
211	0x3e0ab2f3	0.13544826
212	0x3de961a7	0.11395579
213	0x3e16905d	0.14703508
214	0xbda42b9e	-0.08016132
215	0x3d984e90	0.074368596
216	0x3e14087a	0.14456359
217	0xbe161514	-0.14656478
218	0x3e262cfe	0.162281
219	0x3ded631f	0.115911715
220	0x3b5b579d	0.003346897
221	0x3e088b01	0.13334276
222	0xbd691c96	-0.056912027
223	0xbe08a839	-0.13345422
224	0xbdebe1eb	-0.115177
225	0x3cb8b31a	0.02254634
226	0x3e16a4ff	0.14711379
227	0x3e1ad539	0.151204
228	0xbd71db7b	-0.059047204
229	0x3e532196	0.20618281
230	0x3db63c6b	0.088982426
231	0x3e0fb5d3	0.14034204
232	0x3d3a2cb1	0.045452777
233	0xbda6f5e3	-0.08152368
234	0xbdba6811	-0.0910188
235	0xbdf5577a	-0.119795755
236	0x3da00adf	0.078145735
237	0xbc023fdc	-0.007949796
238	0x3dd22a65	0.10261992
239	0xbe05cbaa	-0.13065973
240	0x3d969d96	0.07354276
241	0xbd3dddba	-0.046354033
242	0xbdab2cde	-0.08358167
243	0x3da735bb	0.08164545
244	0xbe0b01ab	-0.13574855
245	0x3d4589ae	0.048227005
246	0xbca56f4a	-0.020194668
247	0xbd77039e	-0.060306184
248	0xbdbef5bb	-0.09324213
249	0xbd786c1d	-0.06064998
250	0x3de6278a	0.1123801
251	0x3db6957d	0.089152314
252	0xbe194f3d	-0.14971633
253	0xbc8e4a25	-0.01736934
254	0xbd4f2f36	-0.050582133
255	0xbe1f49de	-0.15555522

1.layer.0.bias f4 [9]
0	0x3cbccfa8	0.023048237
1	0xbd7f6dfc	-0.06236075
2	0x3a4ae127	0.0007739239
3	0xbe03d9ad	-0.12876005
4	0x3dbe406c	0.09289631
5	0x3cef444d	0.029207373
6	0xbdbb02ad	-0.0913137
7	0xbdeddc76	-0.11614315
8	0xbde3db99	-0.11125869

3.weight f4 [50, 441]
0	0xbcacc7b6	-0.021091323
1	0xbc5b74df	-0.013394563
2	0x3d692ecf	0.056929406
3	0x3d38b4e2	0.04509438
4	0xbd07cbc1	-0.0331533
5	0xbd346902	-0.044045456
6	0x3a7a3a99	0.0009545475
7	0x3cfe34dd	0.031031067
8	0x3d2ef6ca	0.042715825
9	0x3d0ef5cc	0.03490238
10	0x3d00d51b	0.031453233
11	0xbb9488fc	-0.0045329314
12	0xbcbfea38	-0.023427114
13	0x3bf7670e	0.007550127
14	0x3a9dd9dc	0.0012043077
15	0xbc595133	-0.013263988
16	0x3b1add83	0.0023630566
17	0x3e08a439	0.13343896
18	0x3d007243	0.03135897
19	0x3d3a0f6f	0.045424875
20	0x3c75456a	0.014970163
21	0x3ccd1dde	0.025038656
22	0xbc139a36	-0.009008935
23	0xbc4b6f28	-0.012416638
24	0x3d67ab29	0.056559715
25	0xbc1398bb	-0.009008582
26	0x3d1888fc	0.037240013
27	0x3d3d5817	0.046226587
28	0x3caaa443	0.02083028
29	0xbca6b471	-0.020349713
30	0xbdacb2c2	-0.08432533
31	0xbb34f207	-0.002761008
32	0x3c2dc107	0.010605103
33	0x3ca56fd5	0.020194927
34	0x3d48c715	0.049017984
35	0x3c28f284	0.0103117265
36	0x3d9a69a4	0.075396806
37	0x3da17004	0.078826934
38	0x3ca02afd	0.019551748
39	0x3d496a72	0.04917378
40	0x3d58be17	0.05291566
41	0xbcab261f	-0.020892201
42	0xbc17add2	-0.009257751
43	0x3d006e19	0.031354997
44	0xbc6fd113	-0.0146372495
45	0x3cacaaf9	0.02107762
46	0x3baf53f4	0.005350584
47	0xbca6a647	-0.02034296
48	0xbc715d72	-0.014731752
49	0x3d54a0b7	0.051911082
50	0x3d221776	0.039573155
51	0xbc258f1d	-0.010104922
52	0x3d523f8d	0.051330138
53	0x3bc03f20	0.0058669
54	0x3ce250b0	0.027626365
55	0x3cdb01e7	0.026734306
56	0xbc41ddde	-0.011832682
57	0x3d776672	0.060400434
58	0xbc4d05c5	-0.012513583
59	0x3cfd75ca	0.030939955
60	0x3d08164f	0.0332244
61	0xbd298b79	-0.041392777
62	0xbba1dadb	-0.0049394197
63	0x3d4b7882	0.049675472
64	0x3a1ff4e7	0.0006101862
65	0x3c55a46e	0.013039691
66	0x3e18cacc	0.14921111
67	0xbd006044	-0.031341806
68	0x3d22445a	0.039615966
69	0xbcc79393	-0.024362361
70	0x3a45744e	0.00075322844
71	0xbd828526	-0.06373052
72	0xbd8d92e4	-0.06912783
73	0xbd7e557a	-0.062093236
74	0xbd91290d	-0.07087908
75	0x3c619b20	0.013769895
76	0x3cc13707	0.02358581
77	0x3c0d0c93	0.008608955
78	0x3d114203	0.035463344
79	0xbd7b209f	-0.061310407
80	0xbcc96c60	-0.02458781
81	0x3d20d9b8	0.039270133
82	0x3d1af432	0.03783054
83	0xbc3484c7	-0.011017985
84	0x3dc88889	0.09791667
85	0x3d3f19be	0.04665541
86	0x3d718241	0.05896211
87	0x3d88d439	0.06681103
88	0x3d336f26	0.04380717
89	0xbb961d14	-0.004581103
90	0xbc3df279	-0.0115934545
91	0x3d7bd5b7	0.06148311
92	0x3c6cf5b6	0.014462879
93	0x3d1b0dcd	0.03785496
94	0x3c814c72	0.015783522
95	0xbcfbf528	-0.030756548
96	0xbd2406cc	-0.040045545
97	0x3ccb1cea	0.02479406
98	0x3d32d446	0.04365947
99	0xbc2943a2	-0.010331066
100	0xbc954bcb	-0.018224617
101	0xbb083f91	-0.0020789842
102	0xbc76fca0	-0.015074879
103	0x3d1a23ed	0.037631918
104	0x3d3d3d34	0.046200946
105	0x3c23063d	0.009950218
106	0x3cc0b412	0.023523364
107	0xbc185915	-0.009298583
108	0x3b98ba0d	0.004660851
109	0x3cf3330d	0.029687429
110	0x3d0175e0	0.031606555
111	0x3b89629e	0.0041926643
112	0x3d6924cb	0.056919854
113	0xbab55596	-0.0013834711
114	0x3d387251	0.045030896
115	0x3d7629f4	0.060098603
116	0xbc5e274a	-0.013559172
117	0xbb14b7a7	-0.0022692473
118	0x3d2ebc97	0.042660322
119	0xbb9ddb11	-0.0048173745
120	0xbd6356be	-0.055502646
121	0x3beb925a	0.0071890773
122	0xbd96c166	-0.073611066
123	0xbc602212	-0.013679998
124	0xbc11a2a1	-0.008888871
125	0xbcba8898	-0.022770211
126	0x3d8f9a6a	0.07011874
127	0xbc133a5a	-0.00898608
128	0x3c93a494	0.018022813
129	0x3d43ba12	0.047784872
130	0x3dc08b14	0.09401527
131	0x3b92d1c5	0.004480573
132	0xbbee8606	-0.0072791604
133	0x3d7d35e6	0.06181898
134	0x3d9e0dda	0.07717486
135	0x3d6d7d15	0.057980616
136	0x3d2aed62	0.041730292
137	0x3d1e66a5	0.03867211
138	0x3ccf9b3a	0.025342572
139	0xbca9d45f	-0.02073115
140	0x3d13f10a	0.036118545
141	0xbc7ba2af	-0.015358611
142	0xbcca258e	-0.02467611
143	0x3bfe9810	0.007769592
144	0x3d4ae583	0.049535286
145	0xbcd05600	-0.025431633
146	0xbced539d	-0.028970534
147	0x3cdbf5bb	0.026850572
148	0xbd34c161	-0.044129733
149	0x392b3d47	0.00016330658
150	0xbc889973	-0.016674733
151	0x3d3258b0	0.04354161
152	0xbd1b0d42	-0.03785444
153	0xbd238473	-0.039921235
154	0x3d156e05	0.036481876
155	0x3ce95048	0.028480664
156	0x3ceb3a28	0.028714254
157	0xbc95dac3	-0.01829279
158	0x3d1d8455	0.03845628
159	0xbcdca898	-0.02693586
160	0xbd376ada	-0.044779636
161	0xbd0b0b6b	-0.033946436
162	0x3d6f5f2a	0.058440365
163	0xbbdf5f21	-0.00681676
164	0xbcac06a2	-0.020999257
165	0x3cf985e1	0.030459346
166	0x3c53caee	0.0129268
167	0xbcca11d0	-0.024666697
168	0x3c9fe081	0.019516231
169	0xbd28ac35	-0.041179854
170	0xbd57cc5b	-0.052685123
171	0xbc848b2c	-0.016179644
172	0xbd3f6edc	-0.046736583
173	0xbcbb6b0e	-0.022878196
174	0xbc1fecb8	-0.009761028
175	0x3d2e0ce6	0.04249277
176	0x3d034e5e	0.03205716
177	0xbc0d1ef6	-0.008613339
178	0x3cb6cee1	0.022315444
179	0x3bfd2857	0.007725756
180	0x3c8516e7	0.016246272
181	0x3b3c0c5b	0.0028693888
182	0x3d4cd3a5	0.050006527
183	0xbc8dafdb	-0.017295768
184	0x3d06c2a9	0.032900486
185	0xbb1a8680	-0.0023578703
186	0x3d09edfc	0.033674225
187	0xbb16c63a	-0.0023006336
188	0xbac66896	-0.001513737
189	0xbc6504fd	-0.01397824
190	0xbd03af4b	-0.032149594
191	0x3b11ecd1	0.0022266398
192	0x3d196733	0.037451934
193	0xbb87707e	-0.004133283
194	0xbd37e36e	-0.04489463
195	0xbd09bd75	-0.033627946
196	0x3cac4234	0.021027662
197	0x3d088932	0.033333965
198	0xbce31c56	-0.027723473
199	0x3d56d7ea	0.052452005
200	0xbc969370	-0.01838085
201	0x3c33d2c1	0.010975541
202	0xbc7065a7	-0.014672673
203	0xbcf2dc43	-0.029646045
204	0x3cc49b46	0.023999821
205	0xbaf53d0d	-0.0018710211
206	0x3d93a0cd	0.07208405
207	0xbc9eea8a	-0.019398946
208	0x3d066366	0.032809637
209	0xbd1988b0	-0.03748387
210	0xbbb5be1b	-0.005546344
211	0xbd7fa3dc	-0.062412128
212	0x3cc8aadc	0.024495535
213	0x3dad2417	0.08454149
214	0xbcb46e45	-0.022025237
215	0x39d3af6f	0.00040375764
216	0xbca0fd6e	-0.019652095
217	0x3c2b4103	0.010452512
218	0xbd0b3946	-0.033990167
219	0xbca7a205	-0.020463
220	0xbd4d3732	-0.050101466
221	0xbd1f4bd9	-0.038890693
222	0x3d614841	0.055000547
223	0x3cf3fc49	0.029783385
224	0x3d75e428	0.06003204
225	0x3c600af4	0.013674486
226	0x3d4e7591	0.05040509
227	0x3d7a5f74	0.061126187
228	0xbb8587a4	-0.0040750075
229	0xb9b95d8a	-0.00035355642
230	0x3c9c09ed	0.019047702
231	0x3cb7780c	0.02239611
232	0x3c53c202	0.012924673
233	0xb8451a42	-4.6992915e-05
234	0xbd2166bc	-0.039404616
235	0xbd1f0e54	-0.038832024
236	0xbccdb6a7	-0.02511151
237	0xbb19f756	-0.002349337
238	0x3ace74b1	0.001575133
239	0x3bf7ecf3	0.0075660883
240	0x3ce8204f	0.028335718
241	0x3cfe87a9	0.031070547
242	0xbc398a8c	-0.011324536
243	0xbc213c7d	-0.009841082
244	0xbc5d6215	-0.013512154
245	0xbc6af28c	-0.014340054
246	0xbd160866	-0.036629103
247	0x3cd86860	0.026416957
248	0x3b07997f	0.0020690856
249	0x3c3e7452	0.011624413
250	0x3b62afc8	0.0034589637
251	0x3d003c55	0.031307537
252	0x3d559c3f	0.05215096
253	0xbb90cee3	-0.004419194
254	0xbcec3782	-0.028835062
255	0x3ca5cf9a	0.020240594

3.bias f4 [50]
0	0x3d2526c7	0.040320184
1	0x3cccd056	0.025001686
2	0xbcd2e3d4	-0.025743403
3	0xbce959d2	-0.028485212
4	0xbd0f4b7e	-0.034984104
5	0xbd217e37	-0.03942701
6	0xbbe2cbce	-0.006921268
7	0xbd42ef4e	-0.0475915
8	0xbd3fa284	-0.046785846
9	0x3db2f45c	0.08738014
10	0x3cb26e62	0.02178115
11	0x3d0cbba6	0.034358643
12	0x3d217859	0.039421413
13	0xbb1a1074	-0.0023508342
14	0xbcde7fae	-0.027160492
15	0xbcd47866	-0.025936317
16	0xbca46948	-0.020069733
17	0xbc2066fc	-0.009790178
18	0xbccf660a	-0.02531721
19	0x3b8d66f3	0.004315251
20	0xbb82c13d	-0.003990321
21	0xbd021033	-0.03175373
22	0xbce2b981	-0.027676346
23	0x3d9259e1	0.07146049
24	0xbc108ee6	-0.008823132
25	0x3d520efc	0.05128382
26	0x3d33b547	0.04387405
27	0xbd0d63ed	-0.034519125
28	0x3c4e299b	0.012583162
29	0x3bcc2f02	0.0062311897
30	0xbd4486d9	-0.047980163
31	0xbcbe1c5a	-0.023206878
32	0x3d10ac1c	0.035320386
33	0xbcc18d1b	-0.023626855
34	0x3cbde7d4	0.023181833
35	0x3b9f74a9	0.004866202
36	0x3b95e977	0.0045749503
37	0x3cd5bff9	0.026092516
38	0xbc3dc5e8	-0.011582829
39	0x3b219d9d	0.0024660595
40	0x3d7ad8e5	0.061242003
41	0x3cf7a862	0.030231658
42	0xbc2d01af	-0.010559483
43	0x3cd1d6a2	0.02561504
44	0xbcc8e018	-0.024520919
45	0xbc87cae2	-0.016576234
46	0x3d9eda3b	0.07756468
47	0xbc17af3c	-0.009258088
48	0xbcde1d3a	-0.027113546
49	0x3bcf529b	0.006326986

5.weight f4 [50, 50]
0	0x3da141cf	0.0787388
1	0x3d51af31	0.051192466
2	0x3e0d454f	0.1379597
3	0x3dddc1d4	0.108279854
4	0x3c1e6d8e	0.009669675
5	0xbd4e629a	-0.050387003
6	0xbe3fb007	-0.18719493
7	0xbde46f53	-0.11154046
8	0x3de2bdc2	0.1107135
9	0x3e547a18	0.207497
10	0x3ce2100b	0.02759554
11	0x3df1a7d9	0.117995925
12	0x3d712498	0.05887279
13	0xbdcb1c7d	-0.09917543
14	0x3e028a05	0.12747963
15	0xbbae7428	-0.0053239055
16	0x3db80d09	0.08986861
17	0xbe2c6f30	-0.1683929
18	0xbdd7b422	-0.105324045
19	0xbe0d774a	-0.13815036
20	0xbe0f9857	-0.14022957
21	0xbe1706e2	-0.1474872
22	0xbd048a5e	-0.03235852
23	0x3da9aa94	0.08284488
24	0x3de5dba3	0.11223533
25	0x3dac7a21	0.08421732
26	0x3ce07bfa	0.027402867
27	0xbd8326af	-0.06403863
28	0xbda9c834	-0.08290139
29	0xbb4cd12d	-0.0031252608
30	0x3df1a9e2	0.11799981
31	0xbd3f8c39	-0.046764586
32	0xbd88e68e	-0.066846
33	0xbde06751	-0.10957206
34	0xbcb2d7c9	-0.02183141
35	0x3c5c1eda	0.01343509
36	0xbd72a4e3	-0.05923928
37	0xbd1eeac8	-0.038798124
38	0xbd26c269	-0.040712748
39	0xbccc6f7a	-0.0249555
40	0x3e28c385	0.16480835
41	0x3db1f96d	0.08690152
42	0x3e3fc9e5	0.1872936
43	0xbd3d18f4	-0.046166375
44	0xbd835ae0	-0.064138174
45	0x3e024277	0.12720667
46	0xbd08e39c	-0.03342019
47	0x3e0eed3e	0.13957688
48	0xbdbf23cf	-0.09333002
49	0x3daf2953	0.08552804
50	0x3c4cb389	0.012493976
51	0xbd1d93c8	-0.038471013
52	0xbc27c417	-0.010239623
53	0xbd981b3a	-0.07427068
54	0x3d843758	0.064558685
55	0xbd8189f9	-0.06325144
56	0xbe145dbe	-0.14488885
57	0x3c5ffd00	0.01367116
58	0xbd8fe448	-0.07025963
59	0xbe06d100	-0.13165665
60	0x3d1e3f45	0.038634557
61	0xbe179c7a	-0.14805785
62	0x3c5a1216	0.013309976
63	0xbd3e89ff	-0.046518322
64	0x3e0ee75e	0.13955447
65	0x3df3e2e8	0.11908513
66	0x3d310049	0.043213163
67	0xbcd93d35	-0.026518444
68	0x3e0bb774	0.136442
69	0x3dbb8b51	0.09157432
70	0x3d182129	0.037141
71	0xbce8059f	-0.028322993
72	0x3cd5bebf	0.026091931
73	0x3e31d009	0.17364515
74	0xbc069649	-0.008214542
75	0x3cb45f2a	0.022018034
76	0x3d42ea41	0.047586683
77	0x3db4472b	0.08802637
78	0xbb5331c6	-0.0032225712
79	0xbdda7807	-0.10667425
80	0x3ddb466b	0.107067905
81	0x3e45538a	0.19270149
82	0xbdd1503d	-0.10220382
83	0xbd42e1a5	-0.047578473
84	0x3e06fa67	0.13181458
85	0x3d3c0f6e	0.045913152
86	0xbd3e6c3b	-0.046489935
87	0x3c8c8f93	0.017158305
88	0x3de58d21	0.11208559
89	0xbdcb4613	-0.09925475
90	0x3e1d94ed	0.15388842
91	0xbddaaa33	-0.10676994
92	0x3da8c099	0.0823986
93	0xbd91090c	-0.07081804
94	0x3e0bf373	0.13667087
95	0x3e1c14e0	0.15242338
96	0xbdf4cc38	-0.11953014
97	0xba197790	-0.0005854303
98	0x3d162428	0.036655575
99	0xbd2e06c0	-0.042486906
100	0x3d464a64	0.04841079
101	0x3dd3fe3a	0.10351224
102	0x3df75e92	0.12078585
103	0xbdd6c6ac	-0.104871124
104	0x3d164e90	0.036696017
105	0xbd99b524	-0.07505253
106	0xbdc4ff34	-0.09618989
107	0x3e05177f	0.12997244
108	0x3d9c7278	0.07639021
109	0x3d639e28	0.05557075
110	0x3dc0cf00	0.09414482
111	0xbdda84b0	-0.106698394
112	0x3d649938	0.055810183
113	0xbe0bdaa1	-0.13657619
114	0x3dad65fe	0.08466719
115	0xbe038d0f	-0.12846778
116	0xbc45ff60	-0.012084812
117	0xbda6ac62	-0.08138348
118	0x3dcb50ee	0.099275455
119	0x3caf63f8	0.021409974
120	0xbc9366dc	-0.017993383
121	0xbdfb7578	-0.12278265
122	0x3c8120f0	0.015762776
123	0xbd039d4a	-0.032132424
124	0xbdd52ea3	-0.10409286
125	0xbc79f780	-0.0152567625
126	0x3d4314c0	0.04762721
127	0xbe10c53a	-0.14137736
128	0xbd4b5bd2	-0.049648114
129	0x3d82d6a6	0.06388597
130	0xbe0ad9e1	-0.13559677
131	0x3a8cb580	0.0010735244
132	0xbdef835d	-0.116949774
133	0xbcdf7308	-0.02727653
134	0xbc231d70	-0.009955749
135	0x3d5bde54	0.053678825
136	0xbcaa72a4	-0.020806618
137	0x3d646e94	0.055769518
138	0xbdeb29a4	-0.11482552
139	0x3dc0e054	0.09417787
140	0xbdc46f7a	-0.09591575
141	0xbdd8ecd2	-0.10592045
142	0xbdd3fbfe	-0.10350798
143	0x3d35baac	0.044367477
144	0xbdf99d92	-0.12188257
145	0xbdc32f5c	-0.095305175
146	0xbc1713d0	-0.009221032
147	0x3d80c656	0.062878296
148	0xbcd84f28	-0.026404932
149	0xbd80c61d	-0.06287787
150	0x3e132dd1	0.14372946
151	0xbd283940	-0.041070223
152	0xbca2a50c	-0.019854091
153	0xbb21aa34	-0.00246681
154	0x3de0185b	0.109421454
155	0xbb5d977a	-0.003381221
156	0x3d02a9ce	0.03190022
157	0x3e0b55ab	0.13606898
158	0x3da1d7c6	0.07902484
159	0x3d8cd6fe	0.06876944
160	0x3d994365	0.074835576
161	0xbddd9eee	-0.10821329
162	0x3dae3a4d	0.08507214
163	0x3e091afb	0.13389198
164	0x3e07a90e	0.13248083
165	0x3d83cf4b	0.06436022
166	0x3ca866cd	0.020556832
167	0x3dca2482	0.098702446
168	0xbd386b02	-0.045023926
169	0xbd929250	-0.07156813
170	0xbcf6c09e	-0.030121144
171	0xbdb4715d	-0.08810685
172	0x3d2cf42d	0.04222505
173	0x3d8440ad	0.064576484
174	0x3e0ff39c	0.14057773
175	0xbdfeb41c	-0.12436697
176	0xbe0ce2e4	-0.13758427
177	0x3e1146a3	0.14187102
178	0xbdd2e09e	-0.102967486
179	0xbe052e81	-0.13006021
180	0xbdfa6980	-0.12227154
181	0x3c8aee88	0.016959444
182	0xbe1fcffc	-0.15606683
183	0xbcc28b7e	-0.023748156
184	0xbc8fb310	-0.017541438
185	0x3dd1ab4e	0.10237752
186	0x3d013ac8	0.0315502
187	0xbc10e2be	-0.008843122
188	0x3e0b40b9	0.13598908
189	0x3b5668bd	0.0032716237
190	0x3cb16a1f	0.021657048
191	0xbd82820b	-0.0637246
192	0x3d77fffd	0.060546864
193	0x3e065851	0.13119628
194	0x3dcc4a6c	0.09975132
195	0x3be84c7f	0.007089197
196	0xbafad585	-0.001913712
197	0xbc0c297f	-0.008554815
198	0xbcbb4658	-0.022860691
199	0xbdb88a20	-0.0901072
200	0x3b92d458	0.0044808798
201	0x3d1c8ab3	0.03821821
202	0xbe003937	-0.12521826
203	0xbdea196f	-0.11430632
204	0xbde11e3e	-0.10992096
205	0x3ddb660e	0.10712825
206	0x3e935c47	0.2878134
207	0x3c9e0e90	0.019294053
208	0x3cd328c4	0.025776275
209	0xbcd5c8be	-0.026096698
210	0x3d2fab92	0.04288823
211	0x3be8ac7f	0.0071006413
212	0xbccc2b5f	-0.024923025
213	0xbe205f52	-0.15661362
214	0x3ddd8dfe	0.108180985
215	0x39beedc6	0.0003641678
216	0x3e0ea870	0.13931441
217	0x3e0455b3	0.12923317
218	0x3d2d80b8	0.042359084
219	0xbd61d517	-0.05513486
220	0xbde7344a	-0.1128927
221	0xbdbc5152	-0.09195198
222	0xbc0607dd	-0.008180586
223	0xbe2c3694	-0.16817695
224	0xbdd35151	-0.10318244
225	0x3cbfbc6e	0.02340528
226	0x3d4c4bdf	0.049877044
227	0xbd14e7fb	-0.036354046
228	0x3cdb9838	0.026805982
229	0xbdafe079	-0.08587737
230	0xbe02492f	-0.1272323
231	0xbd532f5e	-0.051558845
232	0x3e30dbd4	0.17271358
233	0x3b8a1149	0.0042134863
234	0x3de87990	0.11351311
235	0xbe0de9d0	-0.13858724
236	0xbdc14343	-0.09436657
237	0x3d8f87eb	0.07008346
238	0x3e0d0057	0.13769661
239	0x3e275487	0.16340838
240	0x3da0fbc8	0.078605235
241	0xbd0a60f9	-0.033783887
242	0xbdbfeab6	-0.093709394
243	0xbd360c08	-0.044445068
244	0xbd82bbae	-0.06383453
245	0x3dae57ac	0.08512816
246	0xbe20663e	-0.15664002
247	0x3d68873f	0.056769606
248	0xbdb07a46	-0.08617072
249	0xbdfb37f3	-0.12266531
250	0x3da48412	0.08033003
251	0xbae8e1dd	-0.0017767508
252	0xbd9e4622	-0.077282205
253	0x3e027f5c	0.12743896
254	0x3d91d888	0.07121378
255	0x3d65dbb5	0.056117732

5.bias f4 [50]
0	0x3c9eeb03	0.019399172
1	0x3d13c076	0.036072217
2	0xbcc51574	-0.024058081
3	0xbd8fa38d	-0.07013617
4	0x3df997f2	0.121871844
5	0x3e05af99	0.13055266
6	0xbdb20243	-0.08691838
7	0x3e2bab43	0.1676455
8	0x3e135255	0.14386876
9	0x3b3f6dac	0.0029209657
10	0xbe0393e6	-0.12849388
11	0x3dc6c7fe	0.09706114
12	0xbddbdc4a	-0.10735376
13	0x3cf8e893	0.030384338
14	0xbc893691	-0.016749652
15	0x3dc98092	0.09838976
16	0x3e0e50d8	0.13898027
17	0x3c8db549	0.017298358
18	0x3e114028	0.1418463
19	0xbdf5e097	-0.12005728
20	0x3dabb41d	0.08383963
21	0x3e03e948	0.12881958
22	0xbce9e3b4	-0.02855096
23	0xbda0141c	-0.078163356
24	0xbddbeda1	-0.107386835
25	0xbd68cb7a	-0.056834675
26	0x3dd26f16	0.10275094
27	0xbd972a35	-0.07381097
28	0xbdb619be	-0.08891629
29	0x3e1bec72	0.15226915
30	0xbdc8ce2c	-0.09804949
31	0xbd0ab9ec	-0.033868715
32	0x3dfbe457	0.12299412
33	0xbc3fe82e	-0.011713071
34	0xbe21fc7b	-0.1581897
35	0x3e1cf79b	0.15328829
36	0x3b605ef6	0.0034236289
37	0x3dbe47d8	0.09291047
38	0xbc98a2ba	-0.018632282
39	0x3e08bffd	0.13354488
40	0x3e5ddacd	0.21665497
41	0xbdc812a1	-0.09769178
42	0xbd5b946b	-0.05360834
43	0x3bc5c8b2	0.0060358876
44	0x3d987ca7	0.074456505
45	0xbcbff709	-0.023433225
46	0xbd27e478	-0.04098937
47	0xbd4878d3	-0.048943352
48	0x3c3aa091	0.011390821
49	0xbca7838d	-0.02044847

7.weight f4 [10, 50]
0	0xbe9ad023	-0.3023692
1	0x3c19ddb5	0.009391238
2	0xbdbc0758	-0.09181088
3	0xbd45a881	-0.0482564
4	0x3e181aa2	0.1485391
5	0xbcbaec74	-0.022817828
6	0xbe037db2	-0.12840918
7	0xbe0dfdf5	-0.13866408
8	0xbd2e350b	-0.042531054
9	0x3db6573e	0.08903359
10	0x3dc646f0	0.09681499
11	0xbe5ebae3	-0.21750979
12	0xbe2dac39	-0.16960229
13	0x3d0ca28c	0.034334704
14	0xbce20635	-0.02759085
15	0xbe8108d1	-0.2520204
16	0x3d526889	0.051369224
17	0xbdf1c307	-0.11804777
18	0x3e02c3ad	0.12769957
19	0xbde9ee4b	-0.11422404
20	0x3e73b787	0.23800479
21	0x3deb7fad	0.114989616
22	0xbc8718a8	-0.01649125
23	0x3e0b7f9f	0.13622902
24	0x3d83892c	0.06422648
25	0x3cbe71e5	0.023247669
26	0x3d87356a	0.06601985
27	0x3d8592b5	0.06522123
28	0xbd1c4aa2	-0.038157113
29	0xbdacc7bb	-0.08436533
30	0xbdbef7c6	-0.09324603
31	0x3d2daa76	0.042398892
32	0x3e8db219	0.2767494
33	0xbd7b2068	-0.061310202
34	0xbe1fde3e	-0.15612122
35	0xbdd0cdd2	-0.10195507
36	0x3dace8c3	0.08442833
37	0x3e24956a	0.16072622
38	0xbd58bc35	-0.052913863
39	0xbd71788a	-0.058952846
40	0xbdbaa2c0	-0.09113073
41	0x3c846418	0.01616101
42	0xbd7c8dba	-0.0616586
43	0x3e250632	0.16115645
44	0x3b703e37	0.0036658177
45	0xbd9a504d	-0.075348474
46	0x3def8afa	0.116964296
47	0xbca5223f	-0.020157931
48	0x3dac1d68	0.08404046
49	0x3e1e3b6c	0.15452355
50	0x3dc6850b	0.09693345
51	0xbdb9496e	-0.09047209
52	0x3da1dc6e	0.07903372
53	0x3d3f8448	0.046757013
54	0xbdf55523	-0.11979129
55	0xbd5c580f	-0.053794917
56	0xbc9e29fe	-0.019307133
57	0x3d511f69	0.051055346
58	0x3ea2bf16	0.31786412
59	0xbd92ed00	-0.071741104
60	0xbe3854fd	-0.1800117
61	0xbe0d8bb1	-0.1382282
62	0x3d442e87	0.047895934
63	0xbd2aa289	-0.04165891
64	0xbe76b46a	-0.2409226
65	0x3ddd0797	0.10792463
66	0x3d0686e3	0.03284348
67	0xbdd05e74	-0.101742655
68	0xbe2f7e4a	-0.17138019
69	0x3dce083a	0.10060163
70	0xbe7c7eb7	-0.24657713
71	0xbe26f022	-0.16302541
72	0xbddba489	-0.10724742
73	0xbc1df744	-0.009641472
74	0xbda89761	-0.08231998
75	0x3d571a38	0.05251524
76	0x3e03a561	0.12856056
77	0xbe2b9afa	-0.16758338
78	0xbdd4d624	-0.103924066
79	0x3e933619	0.2875221
80	0xbe21b4d4	-0.15791637
81	0x3cc2ef0b	0.023795625
82	0xbe800c81	-0.2500954
83	0x3cbaa6b1	0.022784563
84	0xbe057610	-0.13033319
85	0x3e572fbb	0.21014301
86	0xbd2bcd62	-0.041943915
87	0xbe641857	-0.2227491
88	0x3df46424	0.11933163
89	0x3e8aa3f5	0.27078214
90	0x3e4f8b32	0.20267943
91	0xbdaf7d35	-0.08568803
92	0xbdb8d791	-0.09025491
93	0xbd8a1aaf	-0.06743371
94	0xbda163e0	-0.07880378
95	0xbdcf0b48	-0.101095736
96	0x3df756bc	0.1207709
97	0x3e6285ec	0.221214
98	0x3e054c45	0.13017376
99	0xbd93b253	-0.07211747
100	0xbe804a9f	-0.2505693
101	0xbe2f07fa	-0.17092887
102	0xbded3544	-0.11582425
103	0xbe024ab9	-0.12723817
104	0xbc7cb3b9	-0.015423709
105	0x39e6d246	0.00044025684
106	0x3e03df53	0.1287816
107	0xbe9b0a93	-0.30281505
108	0xbe392cc5	-0.18083484
109	0x3e0a5c87	0.13511859
110	0x3e094d20	0.13408327
111	0x3e0beda4	0.13664871
112	0x3d5e0f33	0.054213714
113	0xbc0a9da3	-0.008460435
114	0xbe2cd267	-0.16877137
115	0x3c289b94	0.010290999
116	0xbda26ca6	-0.07930879
117	0xbdd22b66	-0.10262184
118	0xbe3226fc	-0.17397684
119	0x3ddd2171	0.10797394
120	0x3d0e7ca7	0.034786846
121	0x3de3e228	0.1112712
122	0x3df1f4e3	0.118142866
123	0x3e089d3b	0.13341229
124	0xbe13bcc5	-0.14427479
125	0xbddd2b73	-0.10799303
126	0x3e6b6206	0.22986612
127	0x3d57dbfe	0.052700035
128	0x3df145e2	0.11780907
129	0x3eb991d4	0.3624407
130	0x3dc997ff	0.09843444
131	0xbd773850	-0.06035644
132	0x3d11f578	0.035634488
133	0xbd9e7e1b	-0.077388965
134	0x3d87830c	0.06616792
135	0xbdda3366	-0.10654335
136	0xbe0c023e	-0.1367273
137	0xbcab1be3	-0.02088732
138	0xbccc8204	-0.02496434
139	0x3df8120d	0.12112818
140	0x3e3e62cb	0.18592374
141	0xbd3d2096	-0.046173654
142	0x3e0fea00	0.14054108
143	0x3d07ebfc	0.033184037
144	0xbd3b8ff6	-0.04579159
145	0x3d103ced	0.035214353
146	0xbd325c3b	-0.04354499
147	0xbdc13d15	-0.094354786
148	0x3d9c2d59	0.07625837
149	0xbbe7adb4	-0.0070702676
150	0x3e26e656	0.16298804
151	0x3b1f666d	0.0024322525
152	0x3dee4622	0.116344705
153	0x3da01ae3	0.07817628
154	0xbdf030d6	-0.11728065
155	0x3c189002	0.009311678
156	0xbdf3cc3d	-0.1190419
157	0x3cfacafd	0.03061437
158	0xbde076d5	-0.109601654
159	0x3a816000	0.0009870529
160	0xbcb3fc1d	-0.021970803
161	0x3c26053b	0.010133083
162	0xbcd3c7d1	-0.025852116
163	0x3cba636a	0.022752482
164	0x3e4dc2d2	0.2009385
165	0xbe30c829	-0.17263855
166	0x3e268f4c	0.16265601
167	0x3d9d82f7	0.07690995
168	0x3e40b167	0.18817674
169	0x3d3d9ac0	0.04629016
170	0xbe58bd03	-0.21165852
171	0xbe64cbed	-0.22343417
172	0xbdcaf1c2	-0.09909393
173	0xbdf2a2e3	-0.118474744
174	0xbd6372c3	-0.055529367
175	0xbe130758	-0.1435827
176	0x3e97678a	0.29571182
177	0xbdcad38c	-0.099036306
178	0x3e05985f	0.13046406
179	0xbd05ffdd	-0.032714713
180	0xbd0151d8	-0.031572193
181	0xbdf4e346	-0.119574115
182	0x3cb0d68a	0.021586675
183	0xbe0af44a	-0.13569751
184	0x3e0402a2	0.1289163
185	0xbd5d8456	-0.054081284
186	0xbe349091	-0.17633273
187	0x3e2514cd	0.16121216
188	0x3e0fe55b	0.14052336
189	0xbe0203be	-0.1269674
190	0xbc02f072	-0.007991897
191	0xbc54c4e5	-0.012986396
192	0xbd8eeeb4	-0.06979123
193	0xbd8e5732	-0.06950225
194	0xbc1a393e	-0.009413062
195	0x3d93c1c1	0.0721469
196	0x3e1c31b2	0.15253332
197	0x3e24604a	0.16052356
198	0x3e036b40	0.12833881
199	0x3cb58b0b	0.022161027
200	0x3e013c14	0.12620574
201	0xbe4f88f4	-0.20267087
202	0x3d497598	0.04918441
203	0xbd77ca94	-0.060495928
204	0x3e48efa0	0.1962266
205	0xbd0560d9	-0.032563064
206	0x3dc69fa0	0.09698415
207	0x3daac807	0.083389334
208	0x3e1a744e	0.15083429
209	0xbe0dcd56	-0.1384786
210	0x3e01a36f	0.12660001
211	0x3e16ec35	0.14738543
212	0xbe10c2c9	-0.14136805
213	0xbdc3a766	-0.09553413
214	0xbe463e3f	-0.19359683
215	0x3e49c4a0	0.19703913
216	0x3d4b8f17	0.049697008
217	0xbe0dc5c0	-0.13844967
218	0x3db4ab96	0.0882179
219	0x3d7d0cb7	0.061779704
220	0x3d457d28	0.04821506
221	0x3d82d315	0.06387917
222	0x3d3ff3ab	0.04686324
223	0xbd10d627	-0.03536048
224	0xbe09e665	-0.13466795
225	0x3dc6724c	0.09689769
226	0xbe7fe9a4	-0.2499147
227	0xbdff664c	-0.124706835
228	0x3e00d6dd	0.12581964
229	0xbe80c82e	-0.25152725
230	0x3e225299	0.15851821
231	0xbdc34af5	-0.09535781
232	0x3dec0c2d	0.1152576
233	0xbd0f6c8e	-0.035015635
234	0x3d7e1c5e	0.06203877
235	0x3e6cfce8	0.23143351
236	0xbc6a2beb	-0.014292697
237	0x3df446e3	0.11927583
238	0xbd9718b1	-0.073777564
239	0xbd949331	-0.07254637
240	0xbe975b18	-0.29561687
241	0xbb374209	-0.0027962944
242	0xbd6ce77f	-0.05783796
243	0xbdb197b9	-0.08671517
244	0xbb44e43c	-0.0030043265
245	0xbceb53e5	-0.028726527
246	0x3d37ccca	0.044873036
247	0xbd7824c6	-0.060581945
248	0x3e00a3c5	0.12562473
249	0xbe775de4	-0.2415691
250	0x3d08f9f5	0.033441503
251	0x3e220a63	0.15824275
252	0xbc6acff0	-0.014331803
253	0x3e2c8ef1	0.16851403
254	0xbe32b57b	-0.17452042
255	0xbdaefb54	-0.08544031

7.bias f4 [10]
0	0xbe4354dc	-0.1907534
1	0x3e123f6d	0.14282008
2	0xbd914350	-0.07092917
3	0xbda26027	-0.07928496
4	0xbe312f82	-0.17303279
5	0x3cd6f35c	0.02623909
6	0xbda20868	-0.079117596
7	0xbd0f7361	-0.035022143
8	0xbd0a0ee2	-0.0337056
9	0x3c7751da	0.0150951985
