Topics/Convolutional Network/output/cnn_demo_3Layer_50Perc.pth (torch, 61730 bytes, 10 tensors)

0.layer.0.weight f4 [32, 1, 3, 3]
000000 27 33 d2 3d 04 dd b1 3d fd aa 22 3e e0 10 69 bd
       0.10263663 0.086847335 0.1588554 -0.05690086
000010 bc bb 72 3e 52 e9 b6 3c 30 82 ac 3e 4b 5a 81 bd
       0.23704427 0.022328053 0.33693075 -0.0631605
000020 35 c9 2c bd e2 ff a9 3e 30 cc 99 3e 7d b7 7e be
       -0.042184073 0.33203036 0.30038595 -0.24874683
000030 71 80 2e bc ca 39 76 3e 07 3e 95 be e5 a9 62 be
       -0.01065074 0.24045482 -0.29148886 -0.22135122
000040 78 c6 75 3e 8f 13 08 be 33 0a 83 3d 23 f3 3b 3e
       0.24001491 -0.13288711 0.0639843 0.18354468
000050 18 4a 36 3e ac 17 b7 3e 25 67 9c 3e 5f f8 7d 3e
       0.17801702 0.35760248 0.30547443 0.24801777
000060 d0 3f bf 3e 9f ac 0d 3e ac 94 25 bd 01 ac 41 3d
       0.37353373 0.13835381 -0.040424988 0.047283176
000070 65 75 90 be 0e 9f 39 3e ac a9 fb 3d 71 d6 a6 3e
       -0.28214565 0.18127081 0.12288222 0.3258548
000080 58 3e c0 3d d0 b5 a1 be ad b0 62 be 74 65 2b be
       0.09386891 -0.31584024 -0.22137709 -0.1673792
000090 39 8d 9a 3e ea 71 fb 3d 43 d7 71 be a6 6a a0 3e
       0.3018587 0.12277587 -0.23617272 0.31331366
0000a0 02 47 bb 3e 72 0b 86 3e 04 99 90 bd a2 01 6e be
       0.36577612 0.26180607 -0.070604354 -0.2324281
0000b0 55 91 20 3d 18 a6 5e bd a4 f2 af 3d f1 24 33 be
       0.0392011 -0.054357618 0.08591202 -0.17494561
0000c0 49 14 2b be 68 76 59 3e cc eb 56 3a 47 59 d9 bd
       -0.16706957 0.21236575 0.00081985886 -0.106127314
0000d0 d7 57 38 be 05 2e 83 bc 96 2b 99 3e c1 de b6 bc
       -0.18002258 -0.016013155 0.29916066 -0.022323014
0000e0 59 d7 c7 bd e1 1b 2e 3e 54 53 10 3e 4b e5 86 bc
       -0.09757871 0.17002822 0.14094287 -0.016466757
0000f0 02 26 3c 3e 50 69 a1 3e a0 dd 89 3e e7 04 90 3e
       0.18373874 0.3152566 0.269269 0.2812874
000100 6b af be bc 7b 32 0c 3e 9a 49 bc bc 8b 5e a3 3e
       -0.023277005 0.13691132 -0.022984315 0.31908068
000110 c6 79 29 be 97 c9 71 3e aa 48 c2 bd e5 4b 0b bc
       -0.16550359 0.23612057 -0.09486516 -0.008501981
000120 a5 99 a0 bd f2 68 49 be cf 03 28 be a0 52 cb 3c
       -0.07841805 -0.1966894 -0.16407703 0.024819672
000130 b6 37 06 3d 35 50 af bd d4 a7 05 be 5d 77 00 3c
       0.032767974 -0.0856022 -0.13052303 0.007840958
000140 df af 33 3e 31 c0 72 3e 7b 26 7e 3e ed 1a 7c be
       0.17547558 0.23706128 0.24819367 -0.24619646
000150 9e 6f 78 3e 00 cb 4e be 52 5b 51 be d3 31 90 3e
       0.24261329 -0.20194626 -0.20444992 0.28163013
000160 ab 95 49 bd f5 36 a2 bd 88 60 55 be 26 a4 1a be
       -0.049215 -0.079206385 -0.20837605 -0.1510168
000170 76 a1 64 be f0 50 5f 3d 66 22 59 3e ba 97 86 be
       -0.22327217 0.054520547 0.21204528 -0.26287633
000180 e3 3f ef bd 52 de 64 be d0 58 be 3d 9f a7 24 3e
       -0.11682107 -0.22350433 0.092942834 0.16079567
000190 bb 24 7b bd 23 c1 3d be 87 e8 87 3d e6 6b 44 3d
       -0.061314326 -0.18530707 0.06636148 0.047954462
0001a0 e2 6d a1 be 79 e6 17 3e 0f e0 10 be e0 96 2e 3e
       -0.31529146 0.14834012 -0.14147972 0.17049742
0001b0 da 8a 8b 3e c5 e1 95 be 60 20 28 bd 43 3c d3 3d
       0.27254373 -0.2927381 -0.0410465 0.103142284
0001c0 27 ca f7 3d 78 0f c3 bc 74 48 60 be 21 dc 6d be
       0.120991044 -0.023811087 -0.21902639 -0.23228504
0001d0 22 5e 6f be c1 78 8c 3e 4d 99 e7 3b 9c a9 b5 bc
       -0.23375753 0.27435878 0.0070678354 -0.022175603
0001e0 18 8a 95 3e df 1f 30 be 07 49 84 be b7 73 83 3e
       0.2920692 -0.17199658 -0.25836965 0.2567422
0001f0 2e 0e b5 bc 49 bb 91 3e 40 8d 94 be 40 bf 9a 3e
       -0.022101488 0.284632 -0.29014015 0.30224037
000200 64 70 21 3e 83 20 17 be ff 8e 1e be 0a 29 a4 3e
       0.1576553 -0.14758496 -0.15484236 0.3206256
000210 ce 12 4e be 16 1d 33 be 67 f7 6b 3d 14 6d 9e 3e
       -0.20124361 -0.17491564 0.057608988 0.30942595
000220 de 24 54 38 60 1e 9b be 23 9d 9b 3e b1 50 2a be
       5.0579074e-05 -0.30296612 0.30393323 -0.16632344
000230 ae c2 a9 3e 9e 07 8b 3e 11 79 9b 3d c5 c6 2d 3e
       0.3315634 0.2715425 0.07591451 0.16970356
000240 30 cf 29 be 56 3e 74 3e 17 5d c9 bd 88 c0 63 3e
       -0.16582942 0.23851904 -0.098322086 0.22241414
000250 97 e8 d5 bd 39 92 94 be 56 4a b0 3d 65 03 33 be
       -0.104447536 -0.2901781 0.086079285 -0.17481764
000260 15 61 35 be ed 12 8b be db 99 17 3e 34 22 2c 3e
       -0.17712815 -0.27162877 0.14804785 0.16809922
000270 5a 97 b3 bd 75 9a 6d 3e b6 9e 7e be de fa 73 3e
       -0.087691024 0.23203452 -0.24865231 0.23826167
000280 03 76 8a be d6 14 50 bd 9e 51 2a 3e c6 2c dd 3e
       -0.2704316 -0.05080112 0.16632697 0.43198222
000290 7e 5a 39 3e f8 e5 6c 3e f2 5b e7 3e 94 ec e6 3e
       0.18100926 0.23134601 0.45187336 0.4510237
0002a0 b7 18 b9 bd f9 c7 be 3e 78 67 2b be 04 6a 4f be
       -0.09037917 0.37261942 -0.16738689 -0.20255286
0002b0 4f d1 23 3d e9 0b 3d 3e 0c 72 88 3e d4 58 dd 3e
       0.039994534 0.18461575 0.2664951 0.43231833
0002c0 71 0e 38 be 8a 1e 0c 3e b8 30 10 3e 31 29 a2 3e
       -0.17974259 0.13683525 0.14081085 0.31672052
0002d0 4e b2 53 3d 30 02 0b bd 6a bd a9 3e 0a fe 31 3e
       0.051683716 -0.033937633 0.33152324 0.17382064
0002e0 82 1a 36 be 01 20 16 3d 62 3c bb bd 17 c2 f1 3c
       -0.1778355 0.036651615 -0.091423765 0.029511495
0002f0 90 70 26 3e 45 f3 26 3e f9 71 18 be ec f7 13 be
       0.16253877 0.16303737 -0.14887227 -0.14450043
000300 fc 66 d6 bd d6 ce 32 3e 7b f6 18 be 71 80 57 be
       -0.104688615 0.17461714 -0.14937775 -0.2104509
000310 24 a1 ec bd 17 bb 84 be b6 41 39 be 3e 15 02 be
       -0.11554173 -0.25923988 -0.18091473 -0.12703416
000320 f6 55 53 3e b3 d6 1f be dc 39 b4 3d f6 c4 49 be
       0.2063826 -0.15609245 0.08800098 -0.19704041
000330 d6 f0 a0 be a6 ab d3 bd fe c3 14 be cd f7 80 be
       -0.31433743 -0.10335474 -0.1452789 -0.25189057
000340 3b c3 a9 bd cb 06 c4 3e 81 ab 40 be bb 6e b9 3e
       -0.082891904 0.38286433 -0.18815424 0.36217293
000350 1e d6 b0 3e e7 9a 1d 3e 77 a2 1e 3e a7 6d 8c 3e
       0.34538358 0.15391122 0.15491663 0.27427408
000360 65 7f 20 be 7d 95 ab 3b bf 81 9b be b3 7e 35 3e
       -0.15673597 0.0052363263 -0.30372426 0.17724113
000370 cd 9f 33 be 36 77 2c be 84 ad 86 be 1d d8 18 be
       -0.17541428 -0.1684235 -0.26304257 -0.1492619
000380 d6 6b 91 be 02 4b 23 3e ba 95 13 be 85 e1 19 3e
       -0.28402585 0.15946582 -0.14412585 0.15027435
000390 12 57 dd 3d b9 c6 30 3e 26 9c d7 3d d4 da 89 3d
       0.10807623 0.17263307 0.1052783 0.06731191
0003a0 d5 c4 07 be 9c 3b af 3e d5 33 63 3d ca 40 55 bd
       -0.13258679 0.34225166 0.055469353 -0.05206374
0003b0 20 d8 70 3d be dc 9b 3e 1b 99 91 3c 1b 56 6c 3e
       0.058799863 0.3044185 0.017773202 0.23079722
0003c0 fd 63 f3 3d f2 27 fc 3d 61 38 83 3e bb 24 a4 3e
       0.118843056 0.123123065 0.2562895 0.32059273
0003d0 7c a0 8e be 2e cb 9b 3e d5 a6 91 be 29 e5 7d bd
       -0.27856815 0.3042845 -0.28447595 -0.061986122
0003e0 bc 91 56 3e a6 bd 09 3e 26 13 bc 3d d2 38 96 3e
       0.20954031 0.13451251 0.0918334 0.29340225
0003f0 2f 82 4f be 3c 47 fc bd bf 79 a1 3e 2b 0e ea bc
       -0.20264505 -0.123182744 0.31538197 -0.028571209

0.layer.0.bias f4 [32]
000000 4d 78 f7 bd 80 d7 b7 3d 2d e2 80 3d a6 e1 0f 3e
       -0.120834924 0.0897665 0.062931396 0.14050922
000010 36 37 2f 3d 0c 3b 08 3e ab 6d 06 bd e7 5f 73 3e
       0.042777263 0.13303775 -0.03281943 0.23767053
000020 1c 30 79 3e f6 b6 9a bd b0 93 6a be 3c e2 59 be
       0.24334759 -0.07554428 -0.22907901 -0.21277708
000030 28 1b 0e 3e 94 a7 97 be 8c e3 b6 3d 19 11 bd 3e
       0.13877547 -0.2962004 0.0893012 0.36927107
000040 eb 04 0d bc e3 69 17 38 5c 41 d3 39 45 dc 1b 3e
       -0.00860713 3.609982e-05 0.00040293753 0.15220745
000050 b3 56 8e 3a be 59 c6 bd fb 20 9e be d9 7a f5 3d
       0.0010859579 -0.09685086 -0.30884537 0.11986322
000060 b8 0b 94 3e 46 9e 8b 3e 72 7e 31 be 6e 1b 85 3e
       0.2891519 0.2726919 -0.17333391 0.2599749
000070 6f 80 1c 3e a2 5e d7 3c cd 6b 80 be 69 94 ae 3e
       0.15283369 0.026290242 -0.25082245 0.34097603

1.layer.0.weight f4 [4, 32, 3, 3]
000000 ff 41 b4 3c 68 5e 8e 3d 68 51 21 3d 8b a2 b4 3d
       0.022004126 0.069516 0.039384276 0.08820065
000010 79 f8 c6 3d 0a 2f 8b 3d 7d b8 f3 bc 0d 9a 8d 3c
       0.09715361 0.06796081 -0.029751057 0.017285371
000020 8b 3f 99 3d 18 d1 c0 3d 31 b3 c5 bc 07 f9 7b 3b
       0.07482823 0.094148815 -0.024133297 0.0038447992
000030 4a 58 02 3e e6 68 31 3d 0d 08 91 3d bf 13 53 3d
       0.12728992 0.04331293 0.07081614 0.051532503
000040 db 6c 0b 3d ba fe d0 3b bf 60 86 3e 32 03 4a 3e
       0.03403936 0.006378022 0.26245686 0.19727781
000050 5b 6f 16 3e b9 5e 27 3e 05 60 04 3e 6c b3 e4 3d
       0.14690916 0.16344728 0.12927254 0.111670345
000060 20 2c 60 3d 19 87 97 3d 8f f3 57 3d 5a 7f 79 bc
       0.05472958 0.07398815 0.05272251 -0.015228117
000070 36 9b dd bb 8e 66 07 bd 86 17 e9 3c fb 62 85 3d
       -0.0067628874 -0.03305679 0.0284536 0.0651302
000080 17 b9 13 3d 45 14 b3 3c da f9 11 3c e3 bb 61 3c
       0.036065187 0.021860251 0.008909667 0.013777706
000090 b7 cd 21 3e be 95 1b 3e 0b 10 41 3d 83 b8 c2 3d
       0.1580113 0.15193841 0.04713444 0.09507849
0000a0 a7 04 00 3e af 4d 8c 3d 38 bd b1 3b 69 08 75 38
       0.12501775 0.068507545 0.005424168 5.8420384e-05
0000b0 2c 8a df 3d c1 6a b6 bc 1f b3 6b 3b 95 67 93 bd
       0.10915026 -0.022267701 0.0035964919 -0.07197491
0000c0 68 ad 5a 3d 5a 1e 2a bd 65 93 bd 3c fe 8f 24 3c
       0.05338803 -0.04153285 0.023141572 0.010044096
0000d0 90 b3 5e bd a3 65 18 bc f3 89 22 3e c1 7c 1b 3e
       -0.054370463 -0.009301576 0.15872936 0.15184309
0000e0 1c d6 1d 3e 87 b9 19 3e 00 7e ea 3d 21 8d 6e 3d
       0.15413707 0.1501218 0.11449814 0.05824006
0000f0 bb d4 3a bd 88 b4 43 3d 7b 4c 4e 3c 32 99 17 3d
       -0.04561303 0.04777959 0.012591477 0.037011333
000100 8f ce f7 3c 5f d1 57 3d d7 9f ec 3d 51 51 1c 3d
       0.030249862 0.052689906 0.115539245 0.038163487
000110 2a 36 89 3d f1 de 0d bd 33 fa de bb f5 df 81 bc
       0.06699784 -0.03463644 -0.0068047284 -0.015853861
000120 8c 01 0b 3d 0f 11 f1 3c a9 eb e4 bb 5d 84 9f bd
       0.033937022 0.02942708 -0.0069861007 -0.07788918
000130 b7 0c ab bd 8d 3c a1 3a f8 25 3c 3d ea 10 93 bd
       -0.083520345 0.0012301371 0.045934647 -0.071809605
000140 17 9d 5b bd a4 57 b9 3d d0 36 e6 3d e4 01 1b 3d
       -0.05361661 0.09049919 0.112409234 0.0378436
000150 a8 04 2f 3d 08 f9 29 3d 41 9b 18 bd 3e 08 20 3d
       0.04272905 0.04149726 -0.037257437 0.03907036
000160 0e f1 09 bb 37 01 45 3d 7e e9 b2 3b ba 70 87 3c
       -0.002104822 0.04809686 0.0054599633 0.016533244
000170 aa a9 70 bd 8f ea 50 3d b7 6e 5e bd 55 e0 cd 3c
       -0.058755554 0.051004943 -0.054304805 0.025131384
000180 ba 79 1e 3c ba 90 06 3d b9 36 63 bc 42 98 c7 bc
       0.009672577 0.032852866 -0.013868027 -0.024364594
000190 ae 0c 40 bd 4d f8 c3 3b 27 dd 66 3d b2 d7 a3 bc
       -0.046887092 0.0059805275 0.05636325 -0.020000312
0001a0 87 35 53 bc 1d fd a3 bc 70 ea d8 3c 7e 87 26 3d
       -0.01289118 -0.020018155 0.026478976 0.04065656
0001b0 4d d0 9f bc df f8 34 3d d1 26 92 bd 6d 6d 28 3d
       -0.019508505 0.044182654 -0.0713631 0.04111998
0001c0 98 43 55 bd dc 39 53 3d b4 04 2a bc 7d 04 0c 3d
       -0.052066416 0.05156885 -0.010377098 0.034183968
0001d0 5c 88 bd 3c 07 2e e6 3d 20 a7 53 3d 5f ba 25 3b
       0.02313631 0.11239248 0.051673055 0.0025288088
0001e0 36 eb 8a bc 27 e4 a7 bc 7c 52 85 bc ae a9 a6 bc
       -0.01695786 -0.020494534 -0.016274683 -0.020344581
0001f0 d7 8f 09 3c 87 25 49 3c 60 dd 39 bc dd a5 3c bc
       0.0083961105 0.012277014 -0.011344284 -0.011514154
000200 86 9f f3 ba 81 48 99 3d 6e 3a 51 3d 34 34 27 3c
       -0.001858697 0.07484532 0.051081114 0.010205317
000210 17 f6 a7 3c ef 97 bd 3d ba fd b9 b9 3f 34 e5 3d
       0.020503087 0.09257495 -0.0003547499 0.11191606
000220 b5 bb 59 3e 3c 72 e4 3d 00 09 14 3e ec 80 17 3e
       0.21263011 0.11154601 0.14456558 0.14795274
000230 3a 68 82 3d fd c5 56 bc a2 d4 e7 3b 31 d6 62 ba
       0.06367536 -0.0131087275 0.0070749084 -0.0008653133
000240 fd 5d 56 3c 9a 5b 08 bd d8 11 2f 3d e6 38 4e bd
       0.013083932 -0.033290483 0.042741627 -0.05034723
000250 32 b2 2b bd f5 8b 50 bd 40 60 f6 3c 45 c6 22 bd
       -0.041917987 -0.050914723 0.030075192 -0.039739866
000260 44 65 93 bc ad 11 7a 3d 80 3e ad 3b 50 d5 c9 3c
       -0.017992623 0.061052013 0.0052869916 0.024637848
000270 71 a7 0c 3d 5b 9a d4 bc a4 53 b2 bc 8e bb 5b 3d
       0.034339372 -0.025952509 -0.021768399 0.053645663
000280 bb bb bc 3c 4d 93 7b bc 10 15 8a 3e 57 e8 0d 3e
       0.023038736 -0.015354943 0.26969194 0.13858162
000290 3c b0 cc 3d ff d3 83 3e ea bd 83 3e 2e 02 67 3e
       0.099945515 0.25747678 0.2573083 0.22559425
0002a0 76 9a 12 3b 38 23 c7 3d bf df ae 3d ed 8b 50 3e
       0.0022369898 0.09723514 0.0853877 0.20365877
0002b0 0d 9b 2d 3e 18 df 21 3e e1 46 11 3e 88 83 e4 3d
       0.16953678 0.1580776 0.14187194 0.111579
0002c0 99 de 8c 3d 10 85 8d 3b a4 97 65 bb 1a ba 04 3d
       0.06878395 0.004318841 -0.0035033012 0.032404043
0002d0 4d 29 6a 3d 8a 21 5e 3b cb bf 23 bc 16 71 f1 3d
       0.057168294 0.0033894503 -0.0099944575 0.117891476
0002e0 4f 6d 51 3d 76 c9 c8 3d c6 19 82 3d 93 33 5e ba
       0.051129635 0.098040506 0.06352572 -0.0008476313
0002f0 ec 2a 58 3d be 56 0c bc 59 86 2d 3d 2a 88 45 bd
       0.05277531 -0.008565603 0.042364452 -0.04822556
000300 9f b3 48 bb 00 d2 52 bd ad e7 03 3b 6b ce f3 3c
       -0.003062464 -0.051469803 0.0020127103 0.029761514
000310 b4 63 c3 3b 77 9d 0f 3d 0f d0 23 bd a4 6e 62 bc
       0.0059628133 0.03506228 -0.039993342 -0.013820324
000320 41 1c 26 3d c0 ff d6 ba ec 61 da bc e4 78 68 bd
       0.04055429 -0.0016403124 -0.02665802 -0.056755915
000330 aa b3 1d bd 2b f5 f7 bc 56 12 84 3c 54 66 31 3e
       -0.03850142 -0.030268272 0.016122025 0.17324191
000340 53 54 3e 3e 9d 08 53 3d 92 0c 0b 3e a5 b4 13 3d
       0.18586855 0.051521886 0.13579014 0.036060948
000350 87 44 05 3e 2b 3a 4a 3d 1c 2a 0d bd 82 02 d7 3c
       0.13014422 0.04937188 -0.034463987 0.026246313
000360 f4 06 2f bc d7 56 84 bd c0 e6 42 3c e8 11 2d bd
       -0.01068281 -0.06461876 0.011895835 -0.042253405
000370 9b 55 18 bc 89 ce 05 3c dd 24 2d bd 12 78 17 3d
       -0.009297754 0.008166918 -0.042271484 0.036979742
000380 00 38 88 bd 1a 79 ed 3d 0f 94 51 3d 2c c9 87 3d
       -0.06651306 0.11595364 0.05116659 0.06630167
000390 de ef ae 3d 06 49 ca 3d 42 0d 02 3e 72 38 4a 3c
       0.08541845 0.09877209 0.1270037 0.012342559
0003a0 83 8a 73 3d 09 42 a0 3c 82 cd e1 3d fc 76 a5 3d
       0.059458267 0.019562738 0.11025526 0.08079335
0003b0 f7 2c 0a 3e 1b 29 85 3d d2 cf 81 3d 17 41 76 3d
       0.13493715 0.06501981 0.06338467 0.06012067
0003c0 24 3e 46 3d 5b ed 0e bd 0c d2 85 3d da 89 57 3d
       0.048399106 -0.03489433 0.06534204 0.0526217
0003d0 fe d5 bd 3c 20 65 d6 3d 6f 8a c6 3c b1 23 09 3e
       0.023173328 0.10468507 0.024235932 0.13392521
0003e0 30 c7 a1 b9 2d 6d bf 3c 75 40 88 3d fe fe 12 3d
       -0.0003085672 0.023367489 0.06652919 0.03588771
0003f0 5d 29 75 3c d0 cc 0d bc bc e0 94 3d 85 6c 18 3d
       0.014963475 -0.008654788 0.07269427 0.037212867

1.layer.0.bias f4 [4]
000000 fc 91 3b bc 68 f3 21 bc ab 61 6c bd c8 58 39 3e
       -0.01144838 -0.009884693 -0.05771033 0.18100274

3.weight f4 [50, 196]
000000 bc 36 00 bc ec 1e 58 3d a1 d1 1c 3a 17 ce 66 3d
       -0.00782555 0.052763864 0.0005982165 0.056348886
000010 89 81 ff bc 1f e5 8a bd fb 18 88 3c 19 47 60 bd
       -0.031189697 -0.06781983 0.016613474 -0.054755304
000020 97 ab 9e 3b a7 1e a9 bc 4b 74 eb 3c 2c bd ba bc
       0.0048422324 -0.020644499 0.028741976 -0.022795282
000030 73 ff d1 bc bd 55 1d ba 48 46 b9 3c fb b4 11 bd
       -0.025634503 -0.00060018507 0.02261652 -0.035572987
000040 37 2b 18 3d ea 5f 7b 3d bd cf 99 3c 95 a0 26 bd
       0.037150588 0.061370768 0.018775815 -0.040680487
000050 86 d0 b1 3b 7b be 9a bc f2 0f 7a 3b bf 3a 34 bd
       0.0054264693 -0.018889656 0.0038156477 -0.044001337
000060 66 7d c2 3c 40 12 5d bd ff 73 8e 3d f7 1f 1f 3d
       0.023741435 -0.053972483 0.06955718 0.038848843
000070 ce 77 08 3c 88 e6 5e 3d 63 b6 ed 3c 03 b2 a7 bd
       0.008329345 0.05441907 0.029017633 -0.0818825
000080 bb 21 3d bd d0 ce 83 3d ec 1e 3f bc c7 c4 54 bd
       -0.046174746 0.06435931 -0.011665087 -0.051945474
000090 b5 94 17 3d 27 b0 8c 3c aa 8f 89 3d b7 c5 1f 3d
       0.037007052 0.01717384 0.06716855 0.039006915
0000a0 7a c1 4c 3b 48 ca 75 bd 1b 61 9e 3c a3 7c f2 3c
       0.003124325 -0.060007364 0.019333413 0.029600447
0000b0 b5 51 0b 3d 9f b3 9d bc 94 03 88 3d f1 0c 55 bc
       0.03401347 -0.01925069 0.066413075 -0.013003574
0000c0 f3 5a 88 bd b0 fd 50 3c f8 aa 43 bc 9f db cc 3c
       -0.06657972 0.012755796 -0.011942618 0.025007067
0000d0 82 0e 46 3d 15 58 81 3d 4f 08 92 3d 5f 2d 0c 3d
       0.04835368 0.063156284 0.07130491 0.034222957
0000e0 a8 e9 2d bd ae a7 57 bc 74 6a 3a 3d 95 63 30 3d
       -0.04245916 -0.013162537 0.045511678 0.04306372
0000f0 b3 d4 b7 bc b8 78 5c bd 4a 16 af 3c 51 7e 28 3d
       -0.02244029 -0.053826064 0.021372933 0.04113609
000100 46 1e 61 3d b6 e5 ae 3b fb fa e1 bc ab 0b ff bc
       0.05496051 0.0053374423 -0.027585497 -0.031133493
000110 dd 76 91 bb ce e6 d5 bc bd 5f f4 3c 05 d3 a2 3c
       -0.0044392184 -0.026111033 0.029830808 0.019876013
000120 64 ee 1c 3d 85 c4 c8 3b e0 f9 5f bb 37 4b ce bc
       0.038313285 0.0061269426 -0.0034176037 -0.02518235
000130 47 75 67 bd ba 20 05 3d c1 42 ec bc 59 f0 13 bd
       -0.05650833 0.032501914 -0.028840424 -0.036117885
000140 2a a0 5e 3d 24 12 72 bd 2c 7d 70 3d 6e 97 1a 3c
       0.054351963 -0.05909933 0.058713123 0.009435518
000150 f6 65 6a 3c f4 6a b2 bc 1a b6 00 3d 36 fe 69 bd
       0.014306536 -0.021779515 0.031423666 -0.0571272
000160 08 99 0d bd ae 3e 83 bd 37 76 fe 3b ba 76 3d 3b
       -0.03456977 -0.064084396 0.007765557 0.0028909878
000170 07 ec 01 ba f9 c6 12 3d d9 e8 e3 3c d3 6f 13 3c
       -0.000495613 0.035834286 0.027820991 0.008998829
000180 ab 58 57 ba c1 3f 03 bd d7 b8 67 bd 40 52 89 3d
       -0.00082148117 -0.032043222 -0.05657276 0.06705141
000190 73 31 10 bd 53 81 f2 3c aa fa fb bc 74 1c c9 bc
       -0.03520341 0.029602682 -0.030759174 -0.0245497
0001a0 5c e3 8d bc fc 5f 41 3d 2f 57 1c bd e8 68 54 3d
       -0.017320327 0.04721068 -0.038169082 0.05185786
0001b0 ab e6 c1 bc 50 43 54 3d 1a 08 8e 3d 07 33 40 3d
       -0.023669561 0.051822007 0.06935139 0.046923663
0001c0 a3 d5 81 bd 9c 7a 96 bd de 47 2f bd bb 2f 6c bd
       -0.06339576 -0.07347605 -0.042793147 -0.057662707
0001d0 51 69 ce bc f7 e6 74 39 08 25 78 bd 58 a4 6f 3d
       -0.025196703 0.00023355694 -0.06058219 0.05850634
0001e0 6d 9f 5c bb 29 1f 2e bc 45 38 e0 3c 73 b8 07 3d
       -0.003366436 -0.010627546 0.027370581 0.03313489
0001f0 e7 d4 4e bd 48 e4 2e bc 2b 93 27 3d 9e 42 b7 3a
       -0.05049601 -0.010674544 0.040911835 0.0013981645
000200 d8 bf de bb eb be e3 3b 7d af 08 bd 7b 13 52 3d
       -0.006797772 0.0069502494 -0.033370484 0.05128811
000210 84 50 60 3d ab e5 7c bd 0e b5 70 bd d7 a2 b5 ba
       0.054764286 -0.061742466 -0.058766417 -0.0013857734
000220 2c 00 62 bd 51 bf 3c 3d b0 96 15 b9 29 4d df bc
       -0.055175945 0.04608089 -0.00014265883 -0.027258473
000230 63 21 2a 3d a5 ee 94 3d f8 1d 27 bd 76 ec 9b bc
       0.041535746 0.0727208 -0.040800065 -0.019033652
000240 cb cf 6c 3d e1 ca 95 bd 5a c6 38 bd 6b fb 62 3d
       0.057815354 -0.07314087 -0.045111038 0.055415552
000250 93 7d 70 bd 88 03 24 bd cc 20 d9 3b 9e b2 b2 3c
       -0.058713507 -0.04004243 0.006626224 0.021813687
000260 b3 d5 4d bd 57 5a 36 bd 07 5e 3f 3d 8f 5f 70 bd
       -0.050252628 -0.04451975 0.04672053 -0.05868488
000270 0c cc ae bc 6e 97 94 3c 70 29 52 3d 4b cc 60 3d
       -0.021337532 0.018138614 0.05130905 0.05488233
000280 49 2e 3f bd 30 e2 17 bd 22 75 5e 3d 97 da 3e bd
       -0.046675 -0.037080944 0.054310925 -0.046595182
000290 b9 a2 8f 3c 70 c1 88 3c e9 e1 94 bd e0 e7 34 3d
       0.017533647 0.0166938 -0.072696514 0.044166446
0002a0 8d 80 78 bc 99 1a c0 bc da 6e 29 bd 90 0a e4 bc
       -0.015167368 -0.023450183 -0.041365482 -0.027837068
0002b0 7c 9c 31 3d 3b 5e 7d bd b3 6f 10 3c aa eb 18 3d
       0.043362126 -0.061857443 0.008815694 0.03733412
0002c0 ad 96 8a bc 91 e0 10 bd b3 58 5e bb d7 d8 6b 3d
       -0.016917551 -0.035370413 -0.003392738 0.05757984
0002d0 aa 76 f4 3c 95 1c b5 bc 4a e2 67 bd 58 47 eb bc
       0.02984174 -0.022108356 -0.05661229 -0.028720543
0002e0 ed 2c af bc a9 8b 91 bc 69 85 6b 3d 53 4f fe 3c
       -0.021383727 -0.01776679 0.057500277 0.031043684
0002f0 87 a0 27 3d 26 4e 53 bd 65 77 d7 3c 4e 01 1a bd
       0.040924575 -0.0515882 0.026302049 -0.0375989
000300 7d 2d 67 bc 31 9e 86 bc fd 03 4f bd f5 dc 52 3b
       -0.014109966 -0.016432853 -0.050540913 0.0032175158
000310 bf 44 98 3c bd 76 81 3d 2f fa dc 3c 02 18 89 3d
       0.018587468 0.06321476 0.026974766 0.06694032
000320 ba e6 9a 3d b8 a0 82 3a 9b e4 14 3c 2f 7c 80 bd
       0.07563539 0.0009966111 0.009087707 -0.06273686
000330 a3 ee 87 3c 63 a4 f2 bc 28 8e dd bb 53 08 09 3d
       0.016593283 -0.029619401 -0.006761331 0.033455204
000340 48 6b 5b 3c 85 fc ad bc cf e7 74 bc 9b cf 7e 3d
       0.013392277 -0.021238575 -0.014947846 0.062209707
000350 24 a8 94 3d 3f c5 3b bd b4 d3 91 3c 75 05 89 bd
       0.07258633 -0.045842405 0.017801143 -0.06690494
000360 36 73 89 3d 28 f1 26 3d 2d 55 87 bb eb 03 7b bd
       0.06711428 0.04075733 -0.004130027 -0.061283033
000370 f6 56 4f 3d d3 d9 37 bd 88 e6 8f bb a0 24 ac 3d
       0.05062004 -0.044885468 -0.004391495 0.08405423
000380 1e 1f 10 bc 5d ce 17 bd 74 f1 d2 3d a5 03 93 bc
       -0.008796481 -0.037062038 0.1029996 -0.017946074
000390 36 0e 8b 3d f8 2c 3c 3d 08 19 f6 3c 50 f1 8e bd
       0.0678982 0.045941323 0.030041233 -0.069796205
0003a0 68 68 f2 3c 8b b6 a1 3d da aa d5 3d 37 6d 81 3c
       0.0295908 0.078961454 0.10432978 0.015799148
0003b0 88 d5 a4 3d 29 e2 9f 3d 2d 3c 01 bd bc 58 71 3d
       0.0804854 0.078068085 -0.03155153 0.058922514
0003c0 1f e1 4c 3d 2c 83 73 bd 28 67 5a bc d2 54 82 3b
       0.05001938 -0.059451267 -0.013330258 0.0039773965
0003d0 ec 1e 50 bd c8 10 75 bc 58 9e 59 bd 37 93 30 bc
       -0.05081074 -0.014957614 -0.053129524 -0.010777286
0003e0 80 90 ce 3c 2c e0 73 3d 4b 65 70 3d cf 43 5e bd
       0.025215387 0.05953996 0.05869035 -0.054263886
0003f0 c2 75 bc 3c a7 7e 89 3d 81 f7 7b 3d ff 12 49 3d
       0.02300537 0.0671361 0.061515335 0.04909038

3.bias f4 [50]
000000 9d 6a 8b 3c a6 f2 75 3d 52 24 a8 bd bc c2 8d 3d
       0.01701861 0.06004586 -0.082100525 0.06921908
000010 ad c0 a4 bd fd 34 16 bd 13 01 5a bd 45 02 b4 bc
       -0.080445625 -0.036671627 -0.05322368 -0.021973738
000020 ae aa 9b 39 4f 35 9d 3d 40 b8 67 3d 0a e5 5e bc
       0.0002969107 0.076761834 0.0565722 -0.013604412
000030 8a ad 78 bd b6 12 96 3c a5 4a cf 3c 24 cb 12 bd
       -0.060712375 0.018319469 0.025304148 -0.03583826
000040 2c 63 a0 ba 38 56 ac 3c 24 a0 07 bc a1 09 01 bd
       -0.0012236587 0.021037206 -0.008277927 -0.031503323
000050 9a b7 50 bd 02 c9 c8 3b 2e 65 73 bd bd 51 e3 bb
       -0.050956346 0.0061274776 -0.059422664 -0.006937234
000060 bf 67 c8 3c ab 43 2a bd b8 c3 cf bb a4 03 fe 3c
       0.024463532 -0.04156844 -0.00634047 0.031007595
000070 db 7f 07 bc 4b 24 cf bb c2 57 28 3c ae 7a 84 3d
       -0.008270229 -0.006321465 0.010274829 0.06468712
000080 b6 fe 95 3d fa 4f 1c bd bb c5 68 3d 65 7a 31 bd
       0.07323973 -0.03816221 0.056829195 -0.043329615
000090 7e 6f f9 bc 57 43 74 bc ef d5 ee bc 9e 1d 51 bd
       -0.030448671 -0.014908633 -0.029154746 -0.051053636
0000a0 b9 e9 0b bd 05 21 ab 3d 76 97 a7 3d ab ba 25 3d
       -0.034158442 0.08355907 0.08183186 0.040461224
0000b0 5e f1 8f 3c 97 54 57 3c 34 7c 27 bd 02 2b 13 bd
       0.017571148 0.013142726 -0.040889934 -0.035929687
0000c0 3f 74 c6 bc fe 69 0a 3d
       -0.024225352 0.03379249

5.weight f4 [50, 50]
000000 82 54 09 be 64 d6 09 be 9f 83 90 bc b4 6c 99 bd
       -0.13411143 -0.1346069 -0.017640887 -0.074914366
000010 03 2a 56 bc 3a 0a 34 3d 5c 50 c6 3d 96 01 a8 3d
       -0.01307154 0.043955065 0.09683296 0.082034275
000020 a9 94 2a bd 02 3f a3 3d 8d 0d a4 bb c6 60 e7 bd
       -0.04164568 0.07971002 -0.005006498 -0.11297755
000030 2a 65 85 3d 14 4a 4c bd bb a2 02 be 80 16 d7 3b
       0.06513436 -0.049875334 -0.12757389 0.0065639615
000040 46 03 27 bd 94 0e 2e 3d f1 20 d9 3c c2 a8 d8 3d
       -0.040774606 0.04249437 0.026504965 0.10579063
000050 d2 64 d9 bc e9 fc 1e 3e 2e 52 e4 3c 4d ea cd 3d
       -0.026537333 0.15526165 0.027871218 0.10054455
000060 8d ff d1 bb 74 9c c0 bd a1 79 9c 3d 41 c9 15 3e
       -0.006408638 -0.09404841 0.076403864 0.14627554
000070 c6 53 7d bd 15 19 0e 3e c3 70 91 bd a4 68 6c 3d
       -0.06184747 0.13876756 -0.07101586 0.05771698
000080 40 18 a4 bd c0 bb 41 3d 04 3e d4 bd 3a ec 2a bd
       -0.08012438 0.047298193 -0.10363391 -0.04172919
000090 22 ec 0a bc aa 06 15 3e f2 eb 49 bd 56 6b fc 3d
       -0.00847915 0.14553323 -0.04929728 0.1232516
0000a0 b3 c1 2b bd 02 5b dd 3c 62 52 4a 3d 0b b4 6a bd
       -0.041932773 0.027020935 0.049394973 -0.05730061
0000b0 9b 7d f3 3d f2 a9 e4 bd 81 cb 7c bd 9a dd d2 3d
       0.11889192 -0.11165227 -0.061717514 0.102961734
0000c0 93 a1 06 be 7b 23 07 3d ca f2 d2 3d 59 75 81 3d
       -0.13147573 0.03299282 0.103002146 0.063212104
0000d0 fb f5 c8 3d a1 75 b9 bd 4e ee 03 3e 60 35 c5 bd
       0.09812542 -0.09055639 0.12883875 -0.09629321
0000e0 3e 35 b4 3d 1b 51 ca 3d 38 d2 81 3d c2 4f 00 be
       0.08799218 0.09878751 0.06338924 -0.12530425
0000f0 a8 93 9e bd 82 a8 30 3d 73 19 64 3d cc 93 39 3d
       -0.07743007 0.04312945 0.055688333 0.045306966
000100 6e 9f a8 bc 2c 1a 44 3d a2 91 c1 bd d5 ec 76 bd
       -0.020583834 0.047876522 -0.094516054 -0.060284454
000110 9e 57 f6 bc 02 2e f2 3d ea ab e4 3d 34 54 bd 3d
       -0.030071076 0.118251815 0.111656025 0.09244576
000120 10 5e 11 3e c4 12 c1 bd cb dc e9 bc cd 32 b7 bd
       0.14196038 -0.094274074 -0.028547665 -0.08945236
000130 ae 4a a0 bb d2 ce 04 be a0 61 85 bd f1 2b a9 bd
       -0.004891715 -0.1296952 -0.06512761 -0.08260334
000140 92 e5 43 bd 25 09 80 3c 5a 54 0c be 08 db 90 bd
       -0.047826357 0.01562936 -0.13704053 -0.07073027
000150 f8 33 0e 3d 4c 1a 68 3d 38 ed b9 3d 2a 90 a3 3c
       0.03471753 0.056665704 0.09078449 0.019966204
000160 3a 55 a3 bb 3b c1 03 be 79 e1 0f be e6 1e 2f bd
       -0.004984525 -0.1286668 -0.14050855 -0.042754076
000170 f7 a3 08 3e 56 33 34 3e 6b 79 fa 3d 09 c0 fd bc
       0.13343798 0.17597708 0.1223019 -0.030975359
000180 b4 81 ce bc a5 db ee bd 6a 9a 94 bd 00 4a db 3c
       -0.025208332 -0.116629876 -0.07256015 0.026768684
000190 1a 94 28 3c 7b b3 ba bd 62 d0 c1 bd 83 ce 46 bd
       0.010289216 -0.091162644 -0.09463574 -0.04853679
0001a0 11 fc 01 be e8 a0 58 3d 83 68 c8 bd 93 f1 0e 3e
       -0.12693812 0.052887827 -0.09785559 0.13959341
0001b0 ce 51 da 3c a4 43 b5 3a 07 49 7d 3d 53 10 1d 3b
       0.026650336 0.0013829363 0.061837222 0.0023966029
0001c0 28 19 b9 3d 5e e3 a4 3d 22 29 e0 bb 5e 7c 96 bc
       0.09038001 0.08051179 -0.006840841 -0.01836985
0001d0 35 44 92 bd 5b db 4b 3d 3b da 66 3d 38 0f 8b 3d
       -0.07141916 0.04976974 0.056360465 0.06790012
0001e0 70 bb da bc 87 54 d3 bd c8 18 09 3e a0 32 94 b9
       -0.026700705 -0.10318857 0.1338836 -0.00028266478
0001f0 0e 62 5c bc 81 fc 0b 3e c3 cc 9e 3d bc f1 c5 3d
       -0.013451112 0.13670541 0.07753899 0.09665248
000200 49 7b cf bd 95 f2 d4 3d ac a1 c5 bd 65 67 b4 bd
       -0.10130937 0.10397831 -0.09649977 -0.088087834
000210 70 1d 8a bd e8 b2 6a 3d a8 55 9e 3c c2 f8 dc bd
       -0.06743896 0.057299525 0.019327953 -0.10789634
000220 77 53 04 bc 78 29 b6 bd 73 0c 0e bd e5 52 01 3d
       -0.00807654 -0.08894628 -0.03467984 0.031573195
000230 92 c7 78 bc 55 c8 04 3e 1f e9 9f bd b3 1f 9a bd
       -0.0151843 0.12967046 -0.07808136 -0.075255774
000240 7b 51 ea 3d cd df b4 3d 63 55 00 3e 06 03 9f bd
       0.114413224 0.08831749 0.12532572 -0.077642485
000250 98 bf 0d be c0 e7 86 3d 42 ed cc 3d 6d 02 07 bd
       -0.13842618 0.065871716 0.10006191 -0.032961298
000260 9a aa e7 bd 9f 17 3e 3d a3 83 e5 bc 89 d4 89 bd
       -0.113118365 0.046409246 -0.02801687 -0.06729991
000270 ec b5 22 3e 9b 22 81 3c 47 b6 83 bd 88 32 0f bd
       0.1588971 0.015763571 -0.06431251 -0.0349603
000280 78 01 9b 3d e6 4e 09 3d 23 72 99 bc ad fa f2 3c
       0.075686395 0.03352251 -0.018731182 0.029660547
000290 ff 9b 45 bc cf fd 4d 3d 8a fb be 3d 0d 3e 39 bd
       -0.012061118 0.05029088 0.09325321 -0.04522519
0002a0 8a 49 41 3d a2 42 f6 3d 3a bb b3 39 79 5f 89 bc
       0.047189273 0.12024428 0.00034281035 -0.016769158
0002b0 2b ee a1 3c 93 16 ed 3d 7f 6e 4a 3d 98 48 e7 bd
       0.019766888 0.11576571 0.049421784 -0.11293143
0002c0 a3 c8 2f bc b4 72 a3 3d 55 af 01 be 7c 6a f8 3d
       -0.010728988 0.07980862 -0.1266454 0.12129685
0002d0 80 4e ec bd 64 1f ca 3d ac f3 1c be f0 f7 d6 3c
       -0.1153841 0.098692685 -0.15327328 0.026241273
0002e0 aa 83 7f 3b 74 c4 a4 bd d7 5d ec 3d 50 7c ec 3d
       0.003898839 -0.08045283 0.11541336 0.11547148
0002f0 bf 77 0d 3d cc 51 88 bd 0a 0f a8 3c 81 e9 43 3e
       0.034538027 -0.066562265 0.020514984 0.19132043
000300 34 03 ec bd cb be a7 bc 5d 0a d0 3c 67 05 1a 3e
       -0.115240484 -0.02047672 0.025395567 0.15041123
000310 4c 55 26 bd 8e b4 a9 bd e8 73 2d 3d a9 cc dd 3b
       -0.04060869 -0.08286391 0.042346865 0.006768782
000320 53 a5 a1 3d da 2d d9 bc 79 ba 22 3e 33 b7 50 3d
       0.07892861 -0.026511122 0.15891446 0.050955962
000330 39 72 4f 3d 7d 0d 89 3d 06 f3 fa bd ee 03 56 bd
       0.05064604 0.06692026 -0.12253384 -0.05224984
000340 5f bc 06 be af 35 0b 3e 52 4e 07 be 34 6c 0e be
       -0.13157795 0.13594697 -0.1321347 -0.13908464
000350 63 53 dd 3c 96 3b 4c 3d 74 41 1a 3e aa 36 a5 3d
       0.027017301 0.049861513 0.15064031 0.08067067
000360 fe 77 98 3d b6 5f e6 3d 8a b8 8e 3d 6e 87 08 be
       0.07444762 0.11248724 0.06968792 -0.13332912
000370 2c fc ce 3d 5a 35 4d 3d f7 19 98 bd 8f 8d 02 3e
       0.10106692 0.05009971 -0.074268274 0.12749313
000380 e5 80 37 bd 0a a5 e0 bd 71 87 01 3b 3f d3 18 3d
       -0.044800658 -0.10968979 0.0019764567 0.037310835
000390 1b 64 9b bd 31 00 c6 bd fe cb eb bc 62 7a 73 3d
       -0.07587453 -0.09668005 -0.028783794 0.059442885
0003a0 5a 73 03 3e c8 0b a5 bc 8e 8e 9d 3d 22 7b 55 bd
       0.12836972 -0.02014722 0.07693206 -0.05211938
0003b0 b2 c1 17 3e 4d 08 a7 3d e7 de 54 bd 46 0f 88 3d
       0.14819983 0.0815588 -0.05197039 0.06643538
0003c0 da d5 52 bd 13 f1 8a bd 28 a1 26 3e 9f 8b 9f bd
       -0.051473476 -0.067842625 0.16272414 -0.077903025
0003d0 45 a5 e7 bb 18 6c c1 3d 07 64 84 3d fc 34 7b 3d
       -0.007069262 0.09444445 0.06464391 0.061329827
0003e0 03 14 2c bd 9b b0 e0 3c 1f 4d 8b bc 0f c4 5a bd
       -0.042011272 0.027427962 -0.017004548 -0.053409632
0003f0 a7 c4 4f bd b4 9b 8f 3d e4 62 08 be a5 a2 15 3d
       -0.05072465 0.0701212 -0.13318974 0.036532063

5.bias f4 [50]
000000 b1 4e e2 3d cc 10 14 bd 39 8c 95 bd 21 59 6d 3d
       0.110501654 -0.03614883 -0.07302136 0.057946328
000010 8e 3d 18 bd 75 63 ba bd 61 98 5a bd 13 ba be bd
       -0.037168078 -0.09101001 -0.053367976 -0.093128346
000020 56 77 62 bd ec 55 d3 3d 19 4e ff 3d 97 9d 9d 3c
       -0.05528959 0.10319123 0.12466068 0.019240184
000030 51 ac 71 3c 1c 97 dc bd fd a9 db 3d 0b 79 37 3e
       0.014750556 -0.10771009 0.10725782 0.17917268
000040 c9 cb a2 3d 3d 82 49 3e cb 10 bc 3a 0b f2 28 bd
       0.07949025 0.19678588 0.0014348266 -0.041246455
000050 17 33 25 3e 5b 18 b4 3d 94 3d f6 bb e1 2a 09 3d
       0.1613277 0.08793708 -0.007514665 0.033488158
000060 ae ff 05 3e 87 33 9c bd c6 2b 5d bd 2d e7 9b bd
       0.13085815 -0.076270156 -0.053996824 -0.07612453
000070 8e 9b 1b 3b ef 59 f4 bd 80 b7 4a bd ab 59 f3 39
       0.002374384 -0.11931216 -0.049491405 0.0004641538
000080 97 8e fe 3c 0b 5a 1d bd ef 05 46 3e ad c9 26 3d
       0.031073852 -0.03841595 0.19338201 0.040719677
000090 58 17 8c bd 07 79 bb 3c d4 42 2f 3b 95 04 38 bd
       -0.0684039 0.022884859 0.0026742714 -0.044926245
0000a0 e1 6c d5 bd dd 01 b8 bd 6c 6e 34 3c 85 77 47 3c
       -0.10421158 -0.089847304 0.011012655 0.012174492
0000b0 d5 7c 11 3c 13 a2 cc 3d 60 32 0d be 6d 9d da 3d
       0.00887986 0.09991851 -0.13788748 0.10674558
0000c0 80 96 9e 3d 19 74 2c bd
       0.07743549 -0.042102907

7.weight f4 [10, 50]
000000 85 36 b1 3d c5 14 83 3d 28 19 44 3d 82 c4 3b 3e
       0.08652977 0.06400446 0.047875553 0.1833668
000010 9b 3c 44 3e b5 2b 93 bc 55 62 e7 bc b5 a5 0e be
       0.19163744 -0.017965177 -0.02824513 -0.139304
000020 17 65 c2 3d 45 fc 47 3e 34 e1 30 be 03 f8 1c bd
       0.094919376 0.19529827 -0.17273408 -0.03832246
000030 ef f5 2a bd 67 d7 f3 3d 63 af fd bd ac b3 74 3d
       -0.041738447 0.11906319 -0.12386968 0.05974166
000040 ff fe 2e 3e 29 fd 45 be 87 0d 93 3d 9d 04 e1 ba
       0.17089461 -0.19334854 0.071803145 -0.0017167513
000050 2c ad 5d 3e 8f 67 c6 bc a3 0f ca bd a3 a3 21 be
       0.21648091 -0.024219302 -0.09866264 -0.15785079
000060 43 ac 73 bd fc ef 2d 3c 8d 9a 19 be c0 52 0e be
       -0.059490453 0.010616299 -0.15000363 -0.13898754
000070 b1 2b db bd da 3b cf bc 4e e5 91 bd ab 44 ff ba
       -0.10701693 -0.025297094 -0.071238145 -0.0019475421
000080 40 93 17 be 07 8b 8e bd b3 be 15 3d c7 71 f2 bc
       -0.14802265 -0.06960111 0.036558818 -0.029595269
000090 a2 12 45 3e 6a e1 be bd 87 09 8e bd 78 f6 07 bd
       0.19245389 -0.09320338 -0.06935411 -0.033194035
0000a0 00 46 15 be 9e 73 73 bd f0 00 82 bd e6 32 08 bd
       -0.14577484 -0.059436433 -0.06347835 -0.033251666
0000b0 8f 5d 72 3d 27 d4 a4 3d e5 13 01 3e 8d 1c 7b be
       0.059171256 0.08048277 0.12605245 -0.2452261
0000c0 88 3e e1 bd 2e 49 fa 3b 7c ad 21 3e 3f 17 14 3e
       -0.10998255 0.007638118 0.15788835 0.14461993
0000d0 6e e5 f4 3d 5e a7 23 be e8 c0 7c 3d ff 59 1a 3e
       0.11957823 -0.15981814 0.061707407 0.15073393
0000e0 5e 95 2a 3e 5b ee d1 3d fc 54 e2 3c 45 5d 0e be
       0.16658542 0.10250541 0.027628414 -0.13902767
0000f0 1c ef e3 bc 2d cc 06 be 92 97 59 3e ba 68 ee bd
       -0.027823977 -0.13163824 0.21249226 -0.11641069
000100 3d 2d 46 3e cc a3 7d 3d f8 ce d8 3c 67 3b 3b 3e
       0.19353195 0.061923787 0.026465878 0.18284379
000110 59 11 65 be 48 1d 9d bb 9e fa 7f be a8 9e f2 bd
       -0.22369899 -0.0047947504 -0.24997947 -0.118466675
000120 a5 71 9e bc e5 8c b0 bc 26 06 1e 3d d0 fc d1 bd
       -0.0193413 -0.021551559 0.038580082 -0.10253298
000130 1d 0d 1d 3e d8 a7 af 3c 47 74 3c 3e ac 87 0c be
       0.15337034 0.021442339 0.18403731 -0.1372363
000140 81 db 92 3c 0b cd 9f bd 4c 57 a1 bd 7c 36 b9 3a
       0.017926933 -0.07802781 -0.07877979 0.0014130617
000150 4f 7b e3 3d 91 0c 47 be 6b e5 b6 3d 3d 87 1c 3e
       0.111075036 -0.19438387 0.08930477 0.15285964
000160 16 32 b9 bd 09 9d 46 bd 5e 67 90 3d 5f 13 f8 3c
       -0.09042756 -0.048489604 0.07050966 0.030282674
000170 f8 5a 64 3c 0d a6 02 be d3 a7 62 3d 96 30 c5 3d
       0.013937704 -0.12758656 0.05533583 0.09628408
000180 72 01 ae 3d 76 e6 87 3d 51 30 c8 3d 61 19 aa 3d
       0.084963694 0.06635754 0.097748406 0.08305622
000190 76 bc a3 3d c8 cc d0 b9 6d ed 0c be 2e 95 7d bd
       0.079949304 -0.00039825425 -0.13762446 -0.061909847
0001a0 1c c1 fd bd fe e2 08 be b9 89 ff 3d 0c 92 bc bc
       -0.12390348 -0.1336784 0.124774404 -0.02301886
0001b0 6b c3 2a 3e 3e c0 83 3d cc e2 40 be ca 2e 28 3e
       0.16676109 0.06433152 -0.18836516 0.16424099
0001c0 ce eb e9 3c 79 21 f7 bc 16 5e 24 3d 0b 97 f9 bd
       0.028554823 -0.030167328 0.04012879 -0.12187012
0001d0 2d 51 6c bc da fb 35 3e 6a 67 25 bd 0b 64 0b be
       -0.014423651 0.17771855 -0.040381826 -0.13612382
0001e0 5f b9 1d bd 04 b2 0a b3 e9 5d c8 3d 10 9b 01 3e
       -0.03850686 -3.2292533e-08 0.09783537 0.12656808
0001f0 e0 e7 85 bd 78 8a 44 3d 73 5a c1 bd 9e b1 c1 bd
       -0.06538367 0.047983617 -0.0944108 -0.09457706
000200 9d 48 52 3d d5 d9 e7 bd 1f f4 03 3e 79 76 87 3d
       0.05133878 -0.11320845 0.12886094 0.06614394
000210 34 89 4b bd eb ae 0c bd 3d 0e b2 3e 05 54 f2 bd
       -0.049691394 -0.034346502 0.34776488 -0.11832432
000220 81 1d 40 3e fe fb 17 be fc bc 02 be 64 ec 8f bd
       0.18761255 -0.14842221 -0.12767404 -0.0702751
000230 b0 c8 e3 bd 82 e0 93 3c 4a 24 f0 bd 81 6c 54 bc
       -0.111222625 0.01805139 -0.117256716 -0.0129653225
000240 d7 6b b4 bd 02 c8 64 bc 7c a8 cb 3d 62 73 6d be
       -0.08809631 -0.013963701 0.09944245 -0.23188546
000250 11 f5 ba 3d a0 31 d0 3d e6 f0 d0 bc 2e ab 8b 3c
       0.09128774 0.10165715 -0.025505494 0.017049398
000260 d5 f8 7b bd 48 97 de bc d1 c8 98 3d 06 a5 c5 3d
       -0.0615166 -0.027171746 0.07460178 0.09650616
000270 fe 4a 20 3e 1f ca 43 bd 3a 46 04 be 6c 46 20 3d
       0.15653607 -0.04780018 -0.12917414 0.03912966
000280 90 bf 70 bd 7e 89 f6 3d bc 44 40 3e 21 1f d8 3d
       -0.05877644 0.12037943 0.1877622 0.10552812
000290 39 6f 4c 3d 27 be fe bd 1a 9c 0d 3e 80 c9 d4 bd
       0.049910758 -0.124386124 0.1382908 -0.103899956
0002a0 e0 a7 91 bd 61 2f a3 3d fc ad 21 bd 7f 1e 9d 3d
       -0.07112098 0.07968021 -0.039472565 0.07671832
0002b0 7b de 21 bd 61 c7 3d 3c 24 14 5d 3d 06 01 cc 3d
       -0.039518815 0.01158318 0.053974286 0.09961133
0002c0 9f 6e 1d bd 50 de 70 bd 99 b2 e7 bc 7b 51 cf 3d
       -0.038435575 -0.058805764 -0.028283404 0.10122963
0002d0 ea 48 e5 bd 2d 17 3c be d1 85 1d 3e e1 0d c8 bd
       -0.11195548 -0.18368216 0.15383078 -0.09768272
0002e0 27 c7 01 3d a7 4a 1e be ff 12 bf 3d 9e a1 ea 3d
       0.031684067 -0.15458165 0.09329795 0.11456607
0002f0 60 75 1a be a8 ff 99 bd ae 22 10 3e 19 13 f2 bd
       -0.15083838 -0.07519466 0.14075729 -0.11820049
000300 36 bb 60 3d ed 0a 1e bd df c1 eb bd ce 3e 17 bc
       0.05486604 -0.03858464 -0.11511587 -0.009231282
000310 20 cd 5f 3d 4e e5 c7 bd f3 55 54 be 0a 70 54 bb
       0.05463898 -0.09760533 -0.20735912 -0.0032415413
000320 bf 85 b9 bd 86 3b 11 be d9 f9 55 bd 02 ec 90 bb
       -0.09058713 -0.14182863 -0.052240226 -0.0044226656
000330 64 9b 09 bc 78 55 ed 3d c5 a2 cb bd 20 a1 f2 3b
       -0.008398864 0.115885675 -0.09943155 0.0074044615
000340 14 50 c1 3d c4 11 0f be c4 8c b4 3d bc 5d 4c be
       0.09439102 -0.13971621 0.088159114 -0.19957632
000350 54 28 38 be 7a 6d 25 be b0 6c e5 bd 65 ec 2c 3d
       -0.17984134 -0.16155043 -0.11202371 0.04221763
000360 93 52 91 bc f3 08 eb 3d 7c 5d 30 3e 03 eb 82 3d
       -0.01773957 0.11476316 0.17223161 0.06392481
000370 7d 9e 58 bd 37 34 92 3c 31 7b 09 bd 4c 9b c7 bd
       -0.05288552 0.017847164 -0.03356475 -0.097464174
000380 3d f9 37 3d d0 af e9 3d 79 95 20 be ac c8 97 3d
       0.044915427 0.11410487 -0.1568202 0.07411322
000390 3c 74 d7 bd 91 66 7d 3d 5a 87 4f 3d 67 42 5c 3e
       -0.10520217 0.061865393 0.05066619 0.21509705
0003a0 e0 20 12 bd 9c 2f cf bd ba a2 0d be 9b 4f 7a 3e
       -0.035675883 -0.10116503 -0.13831607 0.2444443
0003b0 45 ba 05 3c db 8f 1a 3d 41 f1 e2 bc 34 38 4f 3d
       0.008162086 0.037734848 -0.02770293 0.05059071
0003c0 4a 50 de 3d 33 13 10 3e 03 3f 1e 3e a5 45 14 3e
       0.10855158 0.14069824 0.15453725 0.14479692
0003d0 52 0a df 3c f5 e9 e0 3d 86 3d fb bd d8 49 e6 3c
       0.0272266 0.10982124 -0.12267594 0.028111383
0003e0 0a 5c 80 3d 79 22 aa bd b3 6e ed 3d 53 32 ee 3d
       0.06267555 -0.083073564 0.1159338 0.11630692
0003f0 a2 f0 cf bd f6 b8 07 be 7e d7 c3 3d 6e 47 2d bd
       -0.10153319 -0.13254151 0.09562586 -0.04230445

7.bias f4 [10]
000000 4e 62 00 3c d9 3f 61 3d ad e5 9d 3c 9f ef 97 3d
       0.007835938 0.05499253 0.019274557 0.07418751
000010 06 ff e6 3b 14 68 12 be b6 40 e9 bd f4 90 2e 3e
       0.007049444 -0.14297515 -0.11389296 0.17047483
000020 53 c0 26 bc e5 b5 a6 bd
       -0.01017769 -0.081401624
