Topics/Convolutional Network/output/fcnn.pth (torch, 95118 bytes, 10 tensors)

layers.0.layers.0.weight f4 [32, 1, 3, 3]
-0.25159338 -0.13976918 -0.24911405 0.32614052 0.20208119 -0.0571848 -0.022470646 0.2567783
0.3792191 -0.2686507 -0.19160052 0.08076593 -0.09205583 -0.104979895 -0.31573942 0.26739258
0.21181148 0.21356773 -0.063676156 0.24002881 0.09514985 0.05306674 0.09373886 -0.1545477
0.17358035 0.37983063 0.2274596 -0.030188072 0.31460384 -0.040276337 0.3509981 0.19225706
-0.20483543 0.1496335 0.40987474 0.12240382 -0.05972201 0.3280721 -0.08795667 0.13198586
0.034128502 -0.109847605 -0.22542015 -0.008218556 -0.2999558 0.34264722 0.08774159 0.2949661
-0.22227147 0.37530455 0.17704925 -0.14570692 0.29233688 0.030310692 -0.20748131 -0.16622564
0.3334568 -0.043845255 -0.2134074 0.09198941 -0.25440302 0.18397929 0.13220805 0.3799992
-0.018537706 0.023519702 0.06583349 0.17490885 -0.03279381 0.32376555 0.27497953 -0.12840728
0.045904685 0.029658541 0.4111885 0.002009015 0.24894564 0.15060034 -0.26931614 -0.23373517
0.27203077 0.14323667 0.2659449 -0.30730703 0.34307688 -0.17486148 -0.052458663 -0.23037612
0.30751008 0.1345453 -0.2401103 0.23747745 -0.23179677 -0.0851659 -0.09984264 -0.11658056
-0.1798956 -0.3112146 0.29786444 -0.13685043 0.15503305 -0.18269715 0.29797554 0.03109646
0.20236804 0.1977638 0.13828404 0.07371522 0.1557087 -0.015733866 0.01756229 0.15962394
-0.16150515 -0.05980544 -0.09101799 0.17488937 0.20218755 0.14946134 0.037094664 0.07375891
0.26099917 0.10161167 0.4847245 0.050232187 0.3132593 0.4821106 -0.1735808 -0.32734165
-0.08006126 -0.21663488 0.24539958 0.021482764 0.139554 0.2204219 -0.098851085 -0.31965837
-0.12019951 0.049477026 -0.043093096 -0.21580702 0.15618338 0.11106234 -0.16257432 -0.030131582
-0.25613293 0.076540105 0.0031567886 0.0054674866 -0.09382483 -0.05373417 -0.3066051 0.26584536
0.0283618 0.29364666 -0.11788274 0.19070566 0.07854907 0.20585467 -0.3183809 -0.11754969
-0.1863022 0.029333068 0.32094094 0.025782779 0.098294154 0.31922832 -0.15953368 -0.105690226
0.34203723 -0.28790942 0.0700603 0.35052517 0.3326306 0.15559626 0.17748658 0.39487782
0.23423074 -0.15782458 0.25785857 0.33746082 -0.1315616 -0.06359745 -0.04356509 0.05223742
0.03312772 0.09979849 0.21577033 -0.23568048 0.30738363 -0.10141387 -0.018475667 -0.053741183
-0.09192624 0.15456064 0.13142426 -0.16320512 0.103196874 0.042068277 0.21649137 0.3456439
0.3361316 -0.059372902 0.08877833 0.41395974 -0.22387673 0.028833034 0.18140887 -0.20059164
-0.0066954126 -0.24477471 -0.22146575 0.06351962 0.19639626 -0.10130425 0.24651757 0.15595573
-0.23616566 -0.24955471 0.15392569 -0.1344824 0.01404296 -0.050998554 -0.038237423 0.29574254
-0.15144126 0.08634028 -0.12908626 -0.029001623 -0.24680798 0.029099375 -0.1646758 0.069045655
-0.27434036 0.11819142 0.31044477 0.361027 0.36179602 0.074868806 0.35737902 0.33672974
0.17412135 -0.087303124 -0.06684563 -0.039717518 0.3853781 0.24795388 0.105252355 -0.14169724
-0.17719355 0.3783489 0.008173382 0.38610172 0.12676093 -0.18800011 -0.19691975 -0.21274543
00000000: d9d0 80be a71f 0fbe c117 7fbe e4fb a63e
00000010: 5fee 4e3e 9c3a 6abd 5c14 b8bc 7278 833e
00000020: 0229 c23e 968c 89be ed32 44be 9c68 a53d
00000030: c487 bcbd b3ff d6bd 99a8 a1be aee7 883e
00000040: 1ce5 583e 80b1 5a3e a568 82bd 1dca 753e
00000050: eddd c23d 835c 593d 29fa bf3d c141 1ebe
00000060: 0cbf 313e 2979 c23e 2beb 683e fa4c f7bc
00000070: c113 a13e cdf8 24bd 06b6 b33e 09df 443e
00000080: 61c0 51be 8639 193e 1adb d13e dbae fa3d
00000090: 119f 74bd 11f9 a73e a022 b4bd 4d27 073e
000000a0: 54ca 0b3d c8f7 e0bd 8ad4 66be 1fa7 06bc
000000b0: ce93 99be 756f af3e ddb1 b33d cc05 973e
000000c0: 229b 63be eb27 c03e 664c 353e 3234 15be
000000d0: 2ead 953e 214e f83c fb75 54be 0e37 2abe
000000e0: daba aa3e 1597 33bd 7887 5abe f264 bc3d
000000f0: 1d41 82be 1165 3c3e 8c61 073e 418f c23e
00000100: 63dc 97bc 64ac c03c b5d3 863d 4e1b 333e
00000110: cd52 06bd 99c4 a53e 1eca 8c3e 337d 03be
00000120: 8d06 3c3d 78f6 f23c 4d87 d23e aea9 033b
00000130: 9beb 7e3e fa36 1a3e cee3 89be 4658 6fbe
00000140: 9e47 8b3e a2ac 123e ee29 883e 5957 9dbe
00000150: c6a7 af3e e30e 33be e5de 56bd b8e7 6bbe
00000160: f671 9d3e 3ec6 093e 79df 75be 4a2d 733e
00000170: 225c 6dbe 766b aebd 4c7a ccbd cac1 eebd
00000180: 8d36 38be 8557 9fbe b081 983e 8522 0cbe
00000190: fcc0 1e3e f614 3bbe 4090 983e 01be fe3c
000001a0: 9139 4f3e 9882 4a3e 559a 0d3e 01f8 963d
000001b0: 1a72 1f3e 4fe4 80bc cbde 8f3c 7574 233e
000001c0: 9b61 25be 8df6 74bd a467 babd 3316 333e
000001d0: 410a 4f3e 650c 193e 93f0 173d e90e 973d
000001e0: afa1 853e c719 d03d cf2d f83e 44c0 4d3d
000001f0: 8663 a03e 33d7 f63e 2abf 31be 5399 a7be
00000200: 28f7 a3bd 89d5 5dbe 074a 7b3e 9ffc af3c
00000210: 3ee7 0e3e 47b6 613e 7072 cabd 43aa a3be
00000220: 292b f6bd 6ca8 4a3d 6382 30bd 84fc 5cbe
00000230: 89ee 1f3e a774 e33d e279 26be 82d6 f6bc
00000240: db23 83be 0fc1 9c3d 20e2 4e3b 9a28 b33b
00000250: 3c27 c0bd 5c18 5cbd 58fb 9cbe e21c 883e
00000260: 0157 e83c db58 963e 826c f1bd 5848 433e
00000270: 56de a03d 91cb 523e d202 a3be e4bd f0bd
00000280: 01c6 3ebe e74b f03c 5f52 a43e 6836 d33c
00000290: 724e c93d e571 a33e cc5c 23be 1e74 d8bd
000002a0: 811f af3e dd68 93be c67b 8f3d 0978 b33e
000002b0: 8f4e aa3e a054 1f3e 0bbf 353e 6d2d ca3e
000002c0: 2fda 6f3e c49c 21be 0a06 843e aac7 ac3e
000002d0: 16b8 06be 613f 82bd 4f71 32bd e8f6 553d
000002e0: efb0 073d 2763 cc3d e6f2 5c3e 3956 71be
000002f0: 6361 9d3e 13b2 cfbd 485a 97bc b71f 5cbd
00000300: d343 bcbd 2545 1e3e 1594 063e 3e1f 27be
00000310: e258 d33d c94f 2c3d eaaf 5d3e 3df8 b03e
00000320: 7119 ac3e 0031 73bd 6ad1 b53d 88f2 d33e
00000330: f13f 65be 4133 ec3c 3fc3 393e e567 4dbe
00000340: 3165 dbbb 39a6 7abe ebc7 62be 9316 823d
00000350: 1a1c 493e 9a78 cfbd 1a6f 7c3e dcb2 1f3e
00000360: 69d5 71be 458b 7fbe b29e 1d3e c1b5 09be
00000370: 7114 663c dce3 50bd d89e 1cbd 916b 973e
00000380: 6b13 1bbe 2cd3 b03d 302f 04be d094 edbc
00000390: 3bbb 7cbe d061 ee3c c6a0 28be cf67 8d3d
000003a0: 5776 8cbe 580e f23d 9ef2 9e3e 88d8 b83e
000003b0: 543d b93e d154 993d 62fa b63e d767 ac3e
000003c0: de4c 323e fbcb b2bd 5de6 88bd d6ae 22bd
000003d0: 4750 c53e 9fe7 7d3e 8c8e d73d 1519 11be
000003e0: 3a72 35be f2b6 c13e a6e9 053c 20af c53e
000003f0: 9ecd 013e 1a83 40be 55a5 49be f0d9 59be

layers.0.layers.0.bias f4 [32]
0.25033814 -0.10551817 0.16155276 0.31126136 0.09812332 -0.058716632 0.03828876 0.23061153
0.25455254 -9.846768e-06 -0.11111866 7.8448655e-05 -0.2902953 0.293407 0.15426297 -0.19091631
0.21865743 -0.0053718225 -0.13731368 0.18461579 -0.06191643 -0.2327173 0.009822566 -0.081733525
-0.030343352 -0.16615199 0.22964005 0.056977693 -0.2024751 0.022404741 0.13357422 0.08846372
00000000: 522c 803e e919 d8bd 166e 253e a65d 9f3e
00000010: e1f4 c83d da80 70bd add4 1c3d 6e25 6c3e
00000020: b654 823e 8c33 25b7 2e92 e3bd cd84 a438
00000030: 96a1 94be 7139 963e 1df7 1d3e 917f 43be
00000040: bce7 5f3e 1d06 b0bb f59b 0cbe ec0b 3d3e
00000050: 159c 7dbd 724d 6ebe d4ee 203c e863 a7bd
00000060: 9f92 f8bc bf23 2abe c326 6b3e 7161 693d
00000070: a255 4fbe 268a b73c aec7 083e 782c b53d

layers.1.layers.0.weight f4 [4, 32, 3, 3]
0.1289353 0.16159466 0.123165555 0.033016473 -0.0035958106 0.09105347 -0.058750212 -0.023379993
-0.0020601398 0.08038367 0.043574214 -0.006582576 0.03193568 -0.014213401 -0.023055356 -0.009663892
-0.056846447 -0.009347141 0.075553 0.13014501 0.17992899 0.116573304 0.08909802 0.15898043
0.015218435 -0.017918421 0.0906614 0.11189639 0.1793947 0.20825374 0.11118797 0.14567737
0.21615891 0.030803395 0.06932542 0.09466086 -0.05352201 -0.05976194 0.044723228 0.049358726
-0.040646292 0.02611807 0.0047143754 0.06238796 0.009349445 0.054059956 0.17920911 0.045662314
0.13197567 0.22981726 0.111151926 0.08470757 0.12426574 0.13272364 0.05388245 0.007569933
-0.03205371 0.09148122 0.014393876 -0.013530022 0.028455254 0.06349169 -0.019659415 0.07968491
0.179678 0.20895454 0.031868584 0.142251 0.14879993 -0.045262884 0.08635879 0.101255916
0.044184003 0.10662133 0.030483361 0.18429182 0.17779016 0.08371197 0.017349014 0.10612994
0.13528675 0.03137644 0.09873973 0.047399893 0.03232836 0.057064578 0.07133737 0.027604263
0.0036952514 0.064526804 0.00022663118 -0.028436106 -0.048805308 -0.027150778 0.054527797 -0.023112414
-0.0050654802 -0.024717676 -0.012409135 0.09545628 0.11142059 0.17821415 0.002653104 0.10792328
0.07344572 -0.06183229 -0.043803576 -0.015813706 -0.018621184 0.005665662 -0.009775238 -0.01953175
0.031779725 0.031793494 -0.00017057086 0.0027035642 0.037871987 0.20747255 0.2999994 0.25823152
0.18660797 0.27730247 0.2485597 -0.015296105 0.096768536 0.12261671 0.064845964 0.051732317
-0.035309438 -0.022753244 -0.0534997 -0.05642814 0.035034586 -0.069178715 -0.02952887 -0.029409451
-0.012420032 -0.00997201 -0.052433386 -0.013424878 0.031341735 0.043491486 0.0004902752 -0.035757195
-0.01970983 0.04998822 -0.012193482 -0.044086132 -0.06327144 -0.009885564 -0.0037629122 -0.009187842
0.018791974 -0.06289067 -0.04196044 -0.029993033 0.080019064 0.08448701 -0.013435405 0.07276487
0.044001535 0.04175159 -0.034608748 0.034974724 0.088565625 -0.014872245 0.04178905 0.12999462
0.017198935 -0.011145622 0.014287893 0.18542384 0.24957196 0.22747463 0.19039477 0.36241445
0.28235528 0.036156572 0.19469152 0.11852056 0.035272226 0.11050595 0.059240505 -0.0013461857
-0.01531442 -0.006180997 -0.025446873 0.00095263746 0.020767428 -0.054082707 -0.020435786 -0.05641707
0.058114383 -0.045692004 0.04842505 -0.05090897 -0.034934998 0.03288831 0.15872937 0.18169318
0.06505651 0.17435667 0.23967487 0.20798391 0.041719053 0.15292594 0.17041896 0.08954909
0.06416365 -0.03138647 -0.049131643 0.040358342 -0.032730453 0.035886496 -0.019125748 -0.04273277
0.00615887 -0.036287747 0.013346841 0.02652249 -0.039714217 -0.019066771 -0.007074046 -0.0091938535
-0.032650873 0.024999423 -0.031316016 0.016582787 -0.028989663 0.03887691 0.04302556 -0.0031933698
-0.05843944 -0.024411963 0.0731598 0.21503146 0.19418895 0.1489476 0.27277032 0.30184358
0.09328925 0.123006344 0.18970929 0.12451608 0.17213155 0.16631433 0.12507597 0.10226288
0.112938754 0.034470614 0.11851663 0.08652342 -0.041456006 0.022361148 -0.01027075 0.058583416
00000000: 9e07 043e 1279 253e 393e fc3d 483c 073d
00000010: b1a7 6bbb 3e7a ba3d 10a4 70bd 6687 bfbc
00000020: 6903 07bb 32a0 a43d e07a 323d a6b2 d7bb
00000030: fdce 023d 53df 68bc 96de bcbc 4d55 1ebc
00000040: d2d7 68bd c024 19bc 88bb 9a3d bc44 053e
00000050: 4e3f 383e fcbd ee3d 0679 b63d c4cb 223e
00000060: be56 793c a7c9 92bc afac b93d ef29 e53d
00000070: 3fb3 373e 7840 553e 85b6 e33d 732c 153e
00000080: c358 5d3e 6757 fc3c 7cfa 8d3d 8edd c13d
00000090: e539 5bbd f0c8 74bd b42f 373d 602c 4a3d
000000a0: ba7c 26bd 90f5 d53c 0c7b 9a3b 848a 7f3d
000000b0: 6a2e 193c f96d 5d3d 9882 373e 6808 3b3d
000000c0: a124 073e 3755 6b3e 9fa3 e33d 2a7b ad3d
000000d0: 097f fe3d b5e8 073e d8b3 5c3d 330d f83b
000000e0: c04a 03bd 825a bb3d 4bd4 6b3c 07ad 5dbc
000000f0: fe1a e93c ee07 823d c80c a1bc d831 a33d
00000100: 82fd 373e 2ef8 553e a288 023d 3faa 113e
00000110: 025f 183e 9365 39bd e1dc b03d 435f cf3d
00000120: 49fa 343d 495c da3d 3eb8 f93c ffb6 3c3e
00000130: a00e 363e 2e71 ab3d 851f 8e3c a75a d93d
00000140: 9c88 0a3e 9584 003d 0e38 ca3d 6426 423d
00000150: be6a 043d 8cbc 693d 5419 923d 5622 e23c
00000160: 082c 723b a126 843d d8a3 6d39 d6f2 e8bc
00000170: 13e8 47bd 4f6b debc 8a58 5f3d 3f56 bdbc
00000180: 54fc a5bb b97c cabc af4f 4bbc 957e c33d
00000190: 7a30 e43d c57d 363e b3df 2d3b e106 dd3d
000001a0: b66a 963d db43 7dbd 616b 33bd bf8b 81bc
000001b0: 748b 98bc 05a7 b93b 5228 20bc 0c01 a0bc
000001c0: 752b 023d e539 023d 44db 32b9 482e 313b
000001d0: a81f 1b3d af73 543e 8599 993e ec36 843e
000001e0: 2916 3f3e 97fa 8d3e 6f86 7e3e 849c 7abc
000001f0: 952e c63d 781e fb3d f6cd 843d 44e5 533d
00000200: a1a0 10bd 0365 babc 8022 5bbd 3121 67bd
00000210: 6d80 0f3d 92ad 8dbd 87e6 f1bc 17ec f0bc
00000220: 647d 4bbc a461 23bc 64c4 56bd 05f4 5bbc
00000230: 3160 003d 2124 323d d085 003a 2376 12bd
00000240: 8276 a1bc 73c0 4c3d 2cc7 47bc a993 34bd
00000250: 7594 81bd 10f7 21bc 319b 76bb 9a88 16bc
00000260: a0f1 993c d3cc 80bd b6de 2bbd f3b3 f5bc
00000270: 09e1 a33d 8707 ad3d 2c20 5cbc c005 953d
00000280: f43a 343d b703 2b3d e7c1 0dbd a841 0f3d
00000290: e561 b53d b7aa 73bc ff2a 2b3d 4f1d 053e
000002a0: c8e4 8c3c 209c 36bc c417 6a3c bfdf 3d3e
000002b0: cb8f 7f3e 1cef 683e d9f6 423e 638e b93e
000002c0: df90 903e ea18 143d 375d 473e e8ba f23d
000002d0: 9c79 103d f250 e23d 2ca6 723d 7f72 b0ba
000002e0: 55e9 7abc f689 cabb f675 d0bc 6bba 793a
000002f0: 7420 aa3c d485 5dbd f368 a7bc 9615 67bd
00000300: 5909 6e3d 8a27 3bbd 5859 463d ed85 50bd
00000310: 0018 0fbd e4b5 063d f489 223e c70d 3a3e
00000320: 593c 853d 8e8a 323e 546d 753e bcf9 543e
00000330: 99e1 2a3d 9e98 1c3e 4f82 2e3e 8365 b73d
00000340: 3b68 833d 198f 00bd 433e 49bd ca4e 253d
00000350: 5e10 06bd b8fd 123d 9aad 9cbc 8f08 2fbd
00000360: 59d0 c93b 76a2 14bd b5ac 5a3c b145 d93c
00000370: 60ab 22bd eb31 9cbc 66cd e7bb d1a1 16bc
00000380: ecbc 05bd 97cb cc3c 3945 00bd a0d8 873c
00000390: bb7b edbc 653d 1f3d 923b 303d db47 51bb
000003a0: 325e 6fbd 99fb c7bc ced4 953d 3531 5c3e
000003b0: 78d9 463e b885 183e 8da8 8b3e 3e8b 9a3e
000003c0: 6f0e bf3d c0ea fb3d 2743 423e 4902 ff3d
000003d0: 4143 303e 4e4e 2a3e ea13 003e 336f d13d
000003e0: 6f4c e73d 0f31 0d3d d9b8 f23d 3133 b13d
000003f0: c6cd 29bd ba2e b73c a646 28bc 2af5 6f3d

layers.1.layers.0.bias f4 [4]
-0.029828891 -0.03786374 0.057103045 0.008863136
00000000: b85b f4bc 0217 1bbd e2e4 693d b036 113c

layers.2.layers.0.weight f4 [100, 4, 5, 5]
-0.021020329 -0.006872705 -0.004695224 0.066692665 0.036002144 0.080174446 0.043028653 -0.039504427
0.0887156 -0.008801007 0.042945728 0.006676643 0.044464633 0.0034687333 0.077877365 -0.070937425
0.07669091 0.20276183 0.1393733 -0.11180076 -0.023511916 -0.102080084 0.020970957 -0.02419418
0.034530785 0.046338446 0.08036239 -0.08319503 0.06470638 0.060253583 -0.050002884 -0.0230541
-0.054915514 -0.006834194 -0.048902597 0.029893734 -0.07864028 0.077283524 -0.048336662 -0.0005980879
0.08319213 -0.08803574 -0.07115507 0.07926505 0.004299894 0.030026622 -0.06329341 0.098017104
0.090477385 0.05909901 0.007539772 0.027788136 0.007394971 -0.02869064 -0.0030577525 0.0701632
0.048419975 -0.013736705 -0.03206006 -0.10206707 -0.021379089 0.041230954 -0.045000855 -0.033657026
-0.038719293 0.0054886895 -0.045375433 -0.08549041 0.026978958 -0.006792071 0.053508066 -0.009674487
-0.11975758 -0.018072179 0.021788066 -0.036465637 0.016748024 -0.0070186905 -0.042438876 0.09052797
0.00046342026 -0.009656195 0.0062874556 0.041301105 0.06933824 -0.07849271 0.008072626 -0.09367538
0.053573005 -0.035275415 0.0051487624 -0.048294976 -0.07523103 0.013198674 -0.09932832 -0.06148832
-0.00069565914 -0.06561868 0.034169145 0.023316639 -0.018532453 0.032173652 0.028654478 0.070743844
0.041030698 0.025048692 -0.001835462 0.096280515 -0.07549097 -0.027684415 -0.064572796 0.14969832
-0.00083827757 -0.064128734 -0.03348391 0.09265431 0.018324506 0.058228064 0.025497068 0.03804849
0.06826778 -0.12053504 -0.049310915 0.008794523 -0.07367772 -0.011619404 0.059411295 0.08319088
0.050774284 -0.07624261 -0.06979009 0.0032284856 0.008074641 -0.032135084 -0.028167203 -0.058832552
0.059888862 0.05563364 0.09307272 0.029825352 0.078196846 0.012261972 0.07154707 -0.0696009
0.060724728 0.09902132 -0.029380962 0.08779038 0.02272217 0.034931548 -0.0029563282 0.09644637
0.099326216 0.0021021839 0.06944452 -0.090460174 -0.014136713 0.021443985 0.08078259 -0.039326176
0.038024828 -0.05618995 -0.015614622 0.04208823 0.03589929 -0.0018862687 -0.096881315 0.08962576
0.068681955 0.06695951 0.10111429 -0.007508037 -0.07737464 0.059960812 0.016208457 0.07132018
-0.066258185 0.013788009 -0.041712236 0.06802033 0.02048804 -0.07555654 0.0060749124 0.039665833
0.041183352 0.0385372 -0.0124437185 -0.02376036 -0.09695611 0.023701554 0.030481245 0.06253101
0.093325 -0.026145533 0.040547542 0.07066603 -0.07848939 0.0954983 0.08190716 -0.023964057
0.118883215 0.023584545 0.042324945 0.122606836 -0.051181857 0.12917519 0.05988117 0.024258163
0.18279152 -0.024765003 0.02679891 -0.148878 -0.017739594 0.07051381 -0.09850311 0.037832726
-0.09456401 0.04857243 -0.08068591 -0.06640854 0.08011034 0.021718789 0.016119119 0.02094658
0.11177314 0.0007127896 0.068107165 0.013184167 -0.03470911 0.08658024 0.053986438 0.039850898
-0.019817159 0.06406634 0.016414583 0.09727425 -0.044439197 0.0068442672 -0.017851487 0.08709846
0.026062287 -0.08918669 -0.057292927 0.030988313 -0.043971337 0.003805779 0.0012486354 -0.025059737
0.081525154 0.033897854 0.0028907927 0.07569076 -0.0148586305 -0.075493254 0.0715145 -0.054765042
00000000: d332 acbc 6e34 e1bb 65da 99bb 2a96 883d
00000010: fc76 133d 8032 a43d d03e 303d 65cf 21bd
00000020: 86b0 b53d 1932 10bc dce7 2f3d bec7 da3b
00000030: 8c20 363d b053 633b 2b7e 9f3d a447 91bd
00000040: 2010 9d3d cca0 4f3e e0b7 0e3e ccf7 e4bd
00000050: 109c c0bc 5d0f d1bd 49cb ab3c df32 c6bc
00000060: 2770 0d3d 62cd 3d3d 0995 a43d 2862 aabd
00000070: c784 843d 76cc 763d d3cf 4cbd f4db bcbc
00000080: 17ef 60bd 60f1 dfbb 174e 48bd b4e3 f43c
00000090: 280e a1bd d346 9e3d aafc 45bd 00c9 1cba
000000a0: a360 aa3d 154c b4bd c0b9 91bd b755 a23d
000000b0: 20e6 8c3b 64fa f53c fa9f 81bd 31bd c83d
000000c0: 354c b93d ce11 723d 3110 f73b f2a3 e33c
000000d0: 8351 f23b a208 ebbc 9364 48bb b9b1 8f3d
000000e0: 0654 463d eb0f 61bc 6951 03bd 8a08 d1bd
000000f0: 3323 afbc cae1 283d d152 38bd f3db 09bd
00000100: 1f98 1ebd 77da b33b 97db 39bd 9915 afbd
00000110: fa02 dd3c 0590 debb 462b 5b3d bd81 1ebc
00000120: 7643 f5bd 1b0c 94bc e37c b23c fe5c 15bd
00000130: 2733 893c 0bfd e5bb 63d4 2dbd ba66 b93d
00000140: 37f7 f239 0435 1ebc 0007 ce3b 592b 293d
00000150: 3501 8e3d c9c0 a0bd 0c43 043c e1d8 bfbd
00000160: 5e6f 5b3d f47c 10bd f3b6 a83b f4d0 45bd
00000170: ba12 9abd 403f 583c a56c cbbd 2ddb 7bbd
00000180: e55c 36ba 1663 86bd f2f4 0b3d 8902 bf3c
00000190: 5fd1 97bc 85c8 033d ccbc ea3c 26e2 903d
000001a0: ce0f 283d ea32 cd3c e393 f0ba b82e c53d
000001b0: 029b 9abd 6dca e2bc be3e 84bd 844a 193e
000001c0: dbbf 5bba ed55 83bd 6d26 09bd 8bc1 bd3d
000001d0: 461d 963c 8d80 6e3d 3adf d03c bcd8 1b3d
000001e0: facf 8b3d 13db f6bd 3efa 49bd e716 103c
000001f0: 58e4 96bd 505f 3ebc 4259 733d fb5f aa3d
00000200: b2f8 4f3d 1625 9cbd 1bee 8ebd 0095 533b
00000210: 804b 043c 14a0 03bd e8be e6bc 67fa 70bd
00000220: 064e 753d 1ae0 633d e99c be3d 4c54 f43c
00000230: ab25 a03d 70e6 483c 4587 923d eb8a 8ebd
00000240: 7eba 783d b1cb ca3d 58b0 f0bc 71cb b33d
00000250: d823 ba3c 6214 0f3d f5be 41bb ad85 c53d
00000260: 8b6b cb3d cbc4 093b ee38 8e3d 2f43 b9bd
00000270: ac9d 67bc 4cab af3c 5871 a53d 7c14 21bd
00000280: ecbf 1b3d 6f27 66bd 79d4 7fbc b564 2c3d
00000290: 220b 133d ad3c f7ba b669 c6bd b68d b73d
000002a0: 20a9 8c3d 1122 893d 0215 cf3d fb05 f6bb
000002b0: 9876 9ebd 7899 753d 99c7 843c 5110 923d
000002c0: 5fb2 87bd 1ae7 613c 73da 2abd 3e4e 8b3d
000002d0: 89d6 a73c 63bd 9abd 0f10 c73b a478 223d
000002e0: e0af 283d 2fd9 1d3d bde0 4bbc 16a5 c2bc
000002f0: ed90 c6bd c329 c23c ceb3 f93c 4210 803d
00000300: 2d21 bf3d 282f d6bc 2e15 263d 5ab9 903d
00000310: 0cbf a0bd 9d94 c33d f1be a73d 4550 c4bc
00000320: 0b79 f33d 6034 c13c ec5c 2d3d 4b19 fb3d
00000330: 11a4 51bd 8046 043e f545 753d 0eb9 c63c
00000340: b32d 3b3e fadf cabc 6389 db3c 7973 18be
00000350: a052 91bc 8b69 903d 00bc c9bd 7df6 1a3d
00000360: c7aa c1bd e2f3 463d a83e a5bd 3301 88bd
00000370: e410 a43d 9aeb b13c 3e0c 843c 2a98 ab3c
00000380: 51e9 e43d 80da 3a3a c57b 8b3d 6802 583c
00000390: 242b 0ebd fb50 b13d e220 5d3d b23a 233d
000003a0: 9857 a2bc 3735 833d e077 863c b937 c73d
000003b0: e005 36bd e045 e03b 483d 92bc ad60 b23d
000003c0: 9480 d53c 83a7 b6bd fdab 6abd 34db fd3c
000003d0: 4a1b 34bd 606a 793b 40a9 a33a 144a cdbc
000003e0: a9f6 a63d 7ad8 0a3d 7473 3d3b c203 9b3d
000003f0: 9d71 73bc 359c 9abd 3276 923d 4f51 60bd

layers.2.layers.0.bias f4 [100]
0.035840496 -0.033087328 0.06207458 0.07767708 -0.0132673625 0.053277843 -0.056312922 -0.028890528
0.053644978 -0.09023133 -0.027629646 -0.022359356 -0.07703539 -0.06273504 -0.04184924 -0.02096581
-0.07758328 0.0017129332 -0.065849945 0.08757852 -0.07974706 -0.01976613 0.07008098 -0.009855696
0.096420646 0.026459647 -0.062375017 0.05410363 -0.055351734 -0.08123158 -0.06713546 0.08990143
0.07073698 -0.10336779 0.020773873 0.039057065 0.07558412 0.004224564 0.031971 -0.037135545
0.032535806 0.09257486 -0.053246118 -0.013956776 0.06316666 -0.05060859 0.0026557709 0.09325227
0.032236945 0.09513639 -0.054699376 -0.08714694 0.0030450737 -0.09906787 0.009059186 0.017602408
0.008218709 0.10945804 -0.0018888462 0.039953604 0.044855982 -0.08808329 0.05501757 -0.05878506
0.023415603 0.094904356 -0.01811223 0.042971373 0.004221471 -0.027890017 0.09109839 0.074232824
-0.021802945 0.01885897 0.07058246 0.0074006766 0.047108702 -0.04372056 0.06405078 0.009372031
0.050121475 -0.10287876 -0.0471723 -0.015193531 -0.08335968 -0.0008357265 0.09422122 0.047306914
0.046504047 -0.028425932 -0.06346185 0.06621715 -0.016901398 0.09018346 0.08844594 0.010174518
0.01333857 -0.04860743 0.05311632 -0.011691684
00000000: 7ccd 123d 9486 07bd ea41 7e3d 2915 9f3d
00000010: 5a5f 59bc de39 5a3d 61a8 66bd d4ab ecbc
00000020: d6ba 5b3d 34cb b8bd 9157 e2bc f82a b7bc
00000030: bbc4 9dbd 3b7b 80bd 1c6a 2bbd 7ec0 abbc
00000040: fce3 9ebd 8084 e03a 56dc 86bd 5e5c b33d
00000050: 6d52 a3bd 94ec a1bc 9e86 8f3d c979 21bc
00000060: 3078 c53d e7c1 d83c f27c 7fbd c59b 5d3d
00000070: 80b8 62bd be5c a6bd 517e 89bd 3e1e b83d
00000080: 8dde 903d 7eb2 d3bd f82d aa3c 4dfa 1f3d
00000090: d9cb 9a3d 366e 8a3b 06f4 023d 711b 18bd
000000a0: 4444 053d e397 bd3d 9a18 5abd f6aa 64bc
000000b0: 865d 813d f44a 4fbd 710c 2e3b 0cfb be3d
000000c0: e30a 043d ded6 c23d 740c 60bd 187a b2bd
000000d0: dc8f 473b 18e4 cabd fb6c 143c ed32 903c
000000e0: c4a7 063c 892b e03d 2993 f7ba 64a6 233d
000000f0: e8ba 373d 0365 b4bd 1a5a 613d 9ac8 70bd
00000100: 14d2 bf3c 375d c23d 1960 94bc c002 303d
00000110: 4454 8a3b 9b79 e4bc cb91 ba3d 6107 983d
00000120: 179c b2bc 207e 9a3c 898d 903d 6081 f23b
00000130: 0ef5 403d 5414 33bd 0e2d 833d 268d 193c
00000140: 2d4c 4d3d 19b2 d2bd be37 41bd 4aee 78bc
00000150: 7bb8 aabd a814 5bba 0ef7 c03d e5c4 413d
00000160: 077b 3e3d 80dd e8bc 49f8 81bd db9c 873d
00000170: cd74 8abc 1bb2 b83d 2523 b53d 06b3 263c
00000180: 048a 5a3c 9618 47bd 8090 593d 7a8e 3fbc

layers.3.layers.0.weight f4 [100, 100, 1, 1]
0.060458653 0.03411863 -0.05559317 0.06683952 -0.01653067 0.08084921 -0.0025118217 0.01743865
-0.002134785 0.06434988 -0.07083323 -0.06627618 -0.06070323 -0.009228788 0.065519385 0.0005287081
0.06423449 0.054643564 0.07600344 0.076644294 -0.0025196895 -0.069570936 -0.036199763 0.082154
-0.09110965 0.03484144 -0.07118182 -0.027613245 -0.010974906 -0.046619046 -0.06463912 -0.095702745
-0.057823624 -0.040480353 0.04686492 -0.010527991 0.03256973 -0.02200906 0.016414344 0.034560032
-0.08942775 -0.03952838 -0.06389417 0.07825386 -0.05374947 -0.03510292 -0.08402681 0.0743952
-0.06963972 -0.099936046 -0.08810977 -0.06772144 0.0063770413 -0.07368265 -0.067438036 -0.0760337
0.06740638 0.059486814 -0.07795503 -0.053856578 -0.022742167 -0.035617948 -0.07915436 0.08398753
-0.043898392 -0.044851124 -0.0029563531 0.05655261 0.021204874 -0.05176387 0.012777887 -0.07913794
0.059474684 -0.018234111 0.044949748 0.01137656 -0.0550058 0.064231105 -0.020505585 -0.0743715
0.06498719 -0.052887715 0.069428034 0.05419887 0.022618994 -0.0030396804 -0.047059085 0.07131959
0.0012615696 -0.047719657 -0.077050306 -0.079186976 0.031474598 0.0970672 -0.0026698932 0.0018564314
-0.08910463 -0.04393324 0.07458418 -0.09769485 -0.0094849765 -0.035720516 0.027692791 -0.05723139
-0.068087295 0.005605459 -0.062125254 0.05100438 0.03447297 0.0145308 -0.0864155 -0.071213946
-0.0802422 -0.07298777 -0.09089723 -0.0036328807 -0.036078513 0.07168395 -0.05684595 -0.07300701
-0.038809802 -0.07317283 -0.09208472 -0.073314145 0.09587199 0.08327566 -0.07447927 -0.059323814
-0.012631615 -0.017587828 -0.0773607 0.074540175 0.062826514 -0.070947975 -0.006596136 0.005514733
0.07921442 0.0689023 0.061902653 0.02300521 -0.029068995 0.0031729266 0.040265642 -0.088145114
-0.066985264 0.0074944315 -0.032222874 -0.03641202 0.021775592 0.075797446 0.069920845 -0.013838677
-0.076625 0.027322687 0.025352553 -0.074518606 0.03487917 -0.042752415 -0.058205605 -0.04215756
-0.09506716 -0.051746976 0.07560857 -0.07898279 -0.011129275 -0.022258382 -0.028203752 0.08620314
0.08023207 0.037521526 -0.065578975 0.057455443 -0.07062973 -0.011188049 -0.021935493 -0.012448944
-0.034690842 -0.054301094 0.0489778 -0.058808703 0.046150364 -0.014303908 0.041373342 -0.00845848
0.058430336 -0.015070058 -0.083076954 -0.0854271 0.0005567819 0.0526487 -0.016528951 0.01488332
0.04798962 -0.05040203 0.03903302 0.01474961 0.016203124 0.08423636 0.013470351 0.03693155
0.07014694 0.09979573 -0.083318666 0.021315584 0.08505555 -0.06647579 -0.035802938 0.021884529
0.0970825 -0.07917269 0.036688864 -0.019067071 0.0359348 -0.097088516 0.02906777 -0.065433346
-0.0011269309 0.037781365 0.059316665 -0.016919449 0.071608715 0.02500511 -0.07235301 -0.028684799
-0.00636226 -0.05178776 -0.082204714 -0.03918426 -0.010674189 -0.087302364 -0.073948376 -0.016488312
-0.033376154 -0.07644573 0.03815535 -0.047283124 0.03556524 0.03566294 0.02884525 0.039473042
0.008058921 0.0071429876 0.0631844 0.0025997586 -0.10286481 0.09880777 0.04782853 -0.05627834
-0.08361493 -0.03144622 0.04870822 0.06365329 -0.022204222 -0.061591268 -0.040370025 -0.014687577
00000000: 7ea3 773d fabf 0b3d aab5 63bd 29e3 883d
00000010: 546b 87bc 4594 a53d 609d 24bb 80db 8e3c
00000020: c0e7 0bbb dfc9 833d 0311 91bd cebb 87bd
00000030: f3a3 78bd 5834 17bc 072f 863d 0099 0a3a
00000040: 5f8d 833d eed1 5f3d b1a7 9b3d aff7 9c3d
00000050: 6021 25bb 357b 8ebd 3446 14bd 5b40 a83d
00000060: b297 babd e6b5 0e3d c6c7 91bd 2c35 e2bc
00000070: 18d0 33bc 9df3 3ebd 8461 84bd cdff c3bd
00000080: 77d8 6cbd bace 25bd 6ef5 3f3d 987d 2cbc
00000090: d667 053d 584c b4bc 6077 863c d28e 0d3d
000000a0: e525 b7bd 83e8 21bd f2da 82bd 8f43 a03d
000000b0: 6728 5cbd 14c8 0fbd 4016 acbd 835c 983d
000000c0: 459f 8ebd 45ab ccbd e572 b4bd 8ab1 8abd
000000d0: 80f6 d03b eee6 96bd f41c 8abd 8eb7 9bbd
000000e0: 5b0c 8a3d 72a8 733d e3a6 9fbd b798 5cbd
000000f0: c84d babc 20e4 11bd ae1b a2bd a701 ac3d
00000100: cdce 33bd d0b5 37bd 60bf 41bb b6a3 673d
00000110: d8b5 ad3c 5a06 54bd 585a 513c 1313 a2bd
00000120: ba9b 733d b45f 95bc 3a1d 383d c064 3a3c
00000130: c34d 61bd 998b 833d 54fb a7bc 1650 98bd
00000140: 0118 853d caa0 58bd 4930 8e3d a2ff 5d3d
00000150: 784b b93c 6035 47bb 07c1 40bd 0110 923d
00000160: 405b a53a b075 43bd 8dcc 9dbd c82c a2bd
00000170: 82eb 003d 2bcb c63d 60f9 2ebb 8053 f33a
00000180: 7d7c b6bd 57f3 33bd 97bf 983d 3d14 c8bd
00000190: e066 1bbc ad4f 12bd fedb e23c 766b 6abd
000001a0: 5a71 8bbd 00ae b73b 0d77 7ebd f8e9 503d
000001b0: 8733 0d3d 9812 6e3c 9cfa b0bd 9ed8 91bd
000001c0: 0656 a4bd 9d7a 95bd 5428 babd a015 6ebb
000001d0: 10c7 13bd 09cf 923d 4dd7 68bd b384 95bd
000001e0: 07f7 1ebd a3db 95bd ea96 bcbd ba25 96bd
000001f0: 8958 c43d 6e8c aa3d 9688 98bd 87fd 72bd
00000200: d5f4 4ebc 5914 90bc 496f 9ebd 85a8 983d
00000210: 30ab 803d 2c4d 91bd 6624 d8bb efb4 b43b
00000220: 2b3b a23d a61c 8d3d a38d 7d3d 6c75 bc3c
00000230: 1a22 eebc e0f0 4f3b 96ed 243d 6d85 b4bd
00000240: 922f 89bd d993 f53b 22fc 03bd c524 15bd
00000250: ba62 b23c b13b 9b3d a932 8f3d 9ebb 62bc
00000260: 91ed 9cbd d4d3 df3c 28b0 cf3c 369d 98bd
00000270: 76dd 0e3d 281d 2fbd 0069 6ebd 68ad 2cbd
00000280: 92b2 c2bd a3f4 53bd aad8 9a3d bbc1 a1bd
00000290: 9057 36bc 3657 b6bc 8e0b e7bc 468b b03d
000002a0: b650 a43d 2cb0 193d 454e 86bd 6656 6b3d
000002b0: 52a6 90bd 144e 37bc 10b2 b3bc a8f6 4bbc
000002c0: fc17 0ebd d36a 5ebd f29c 483d 65e1 70bd
000002d0: 2a08 3d3d f05a 6abc 1877 293d 7095 0abc
000002e0: a654 6f3d 68e8 76bc 4024 aabd 67f4 aebd
000002f0: 00f5 113a 2aa6 573d b967 87bc 2bd9 733c
00000300: c490 443d 5c72 4ebd 17e1 1f3d 59a8 713c
00000310: 6abc 843c 1d84 ac3d bfb2 5c3c 8945 173d
00000320: 33a9 8f3d b461 cc3d faa2 aabd 059e ae3c
00000330: 9b31 ae3d 7624 88bd 1aa6 12bd 2f47 b33c
00000340: 31d3 c63d 4b25 a2bd 1047 163d 8c32 9cbc
00000350: 5e30 133d 58d6 c6bd 881f ee3c eb01 86bd
00000360: 87b5 93ba a2c0 1a3d 08f6 723d a89a 8abc
00000370: 97a7 923d 84d7 cc3c d12d 94bd 62fc eabc
00000380: 817a d0bb 671f 54bd f25a a8bd ad7f 20bd
00000390: cbe2 2ebc 95cb b2bd 3f72 97bd 7f12 87bc
000003a0: 6fb5 08bd 948f 9cbd c948 1c3d f3ab 41bd
000003b0: dbac 113d 4e13 123d e04c ec3c 7cae 213d
000003c0: 9109 043c b90f ea3b d366 813d b660 2a3b
000003d0: c9aa d2bd ba5b ca3d d9e7 433d 1e84 66bd
000003e0: 4e3e abbd c0cd 00bd 4582 473d a85c 823d
000003f0: a1e5 b5bc 2047 7cbd 0a5b 25bd 2aa4 70bc

layers.3.layers.0.bias f4 [100]
-0.073355116 -0.016564405 -0.056565765 0.05018555 0.051072437 -0.100923285 -0.00820249 0.083062515
0.018211266 -0.0182178 0.09890373 -0.0054054675 0.09060473 0.07217299 0.043326702 0.05909273
-0.07152004 0.08352682 -0.074899025 0.016153846 -0.0117733 0.101940125 0.015340409 0.07144885
-0.09814767 0.07271181 -0.01684959 0.05593115 -0.030587325 0.079324126 0.076657064 0.07535778
-0.004412121 -0.036306497 -0.03857344 0.04195281 0.00944189 -0.04599041 -0.016801134 -0.059166905
0.065440565 0.062918566 0.091412514 -0.058741834 -0.019004313 0.0620163 -0.0031561032 0.10169323
-0.053319253 0.038724273 -0.007003054 -0.0041309977 0.031606447 -0.033031654 -0.036177136 -0.069525465
-0.07775306 -0.048607208 -0.004622223 -0.06750867 0.008801854 0.07395244 -0.07454144 -0.018968625
-0.050743263 -0.06014281 0.11233326 0.084323935 -0.022095155 0.054939844 -0.051367793 0.07348499
-0.009839287 -0.0680952 0.08586249 -0.01874874 -0.059614096 0.10818268 0.031784408 -0.07280609
0.12041784 0.02540923 0.10194069 -0.08305635 0.045108087 0.0076036383 -0.018975971 0.058871448
0.13251622 -0.018348666 -0.07670435 0.029056022 -0.07233922 -0.013907874 -0.061714567 0.08961111
-0.024307638 -0.046655983 0.064646795 -0.009886113
00000000: 353b 96bd 13b2 87bc 81b1 67bd 5d8f 4d3d
00000010: 5531 513d deb0 cebd bd63 06bc ae1c aa3d
00000020: cb2f 953c 7f3d 95bc 0a8e ca3d 5920 b1bb
00000030: f98e b93d 6fcf 933d 5777 313d 380b 723d
00000040: 1979 92bd 1c10 ab3d a964 99bd 1255 843c
00000050: cde4 40bc fcc5 d03d 5756 7b3c c653 923d
00000060: a501 c9bd eee9 943d 2708 8abc 1018 653d
00000070: 4592 fabc b074 a23d 61fe 9c3d 2e55 9a3d
00000080: 8e93 90bb 1fb6 14bd 2fff 1dbd b6d6 2b3d
00000090: 28b2 1a3c 7160 3cbd 88a2 89bc ff58 72bd
000000a0: b405 863d 73db 803d 7c36 bb3d 479b 70bd
000000b0: efae 9bbc ce04 7e3d a0d6 4ebb 8a44 d03d
000000c0: 4a65 5abd 589d 1e3d e079 e5bb 525d 87bb
000000d0: c375 013d 334c 07bd 7a2e 14bd 5e63 8ebd
000000e0: ff3c 9fbd 5a18 47bd 0476 97bb fc41 8abd
000000f0: a735 103c 6074 973d 2fa9 98bd 1764 9bbc
00000100: 2bd8 4fbd 4f58 76bd fb0e e63d 07b2 ac3d
00000110: e600 b5bc 9a08 613d 0967 52bd 4c7f 963d
00000120: f634 21bc 7f75 8bbd acd8 af3d f596 99bc
00000130: e92d 74bd e28e dd3d 5e30 023d 5c1b 95bd
00000140: a19d f63d 0427 d03c 48c6 d03d 7319 aabd
00000150: 42c3 383d f127 f93b 7f73 9bbc 3023 713d
00000160: 55b2 073e f14f 96bc 2c17 9dbd e506 ee3c
00000170: 9626 94bd dadd 63bc 6ac8 7cbd 0886 b73d
00000180: d020 c7bc 581a 3fbd 8a65 843d 5df9 21bc

layers.4.layers.0.weight f4 [10, 100, 1, 1]
0.0129944235 0.05249951 -0.008581513 -0.052852426 0.0012882673 -0.08872636 0.079404466 0.002964718
-0.025772642 -0.12716144 -0.06628769 -0.06536127 -0.021054694 -0.06127086 0.07580197 -0.112462066
0.075385615 0.16950245 -0.055633463 0.057946768 0.017598866 -0.026035108 -0.0779887 -0.08191981
0.06354071 0.026072547 0.061526846 0.16736513 0.037107445 -0.088804066 0.13544637 0.092785716
-0.082855046 0.020948365 0.027351813 -0.09570324 -0.033419743 0.19164999 -0.080844045 0.072214745
0.057678167 -0.12873653 -0.1267443 -0.15960702 -0.019369788 -0.11713478 0.016271234 0.04100697
0.0807954 -0.07094094 0.06822661 -0.14115301 -0.019979654 -0.117457636 0.041651223 0.04173777
-0.068038784 -0.16593139 -0.08385166 -0.0630275 0.0373144 0.12346856 0.26301888 -0.018295027
-0.072301865 0.021652265 -0.16940044 -0.1418161 0.020865621 -0.021456169 -0.057585 0.091513
0.07665796 -0.017704353 0.03871813 0.0036108475 0.024989508 -0.043434504 0.15854841 -0.069342375
-0.026110163 0.04486335 -0.06813715 -0.010448612 0.07255442 0.089463025 0.055222556 -0.13222107
-0.01986457 0.093937375 0.05058821 -0.104826234 -0.07789339 -0.124508716 -0.087303735 -0.0206751
0.027562128 -0.04086128 0.060997844 -0.032406844 -0.052435458 0.08805472 0.11289754 -0.06554971
0.052464634 -0.06969076 -0.19884852 -0.070972554 -0.047445428 0.180334 0.055159863 0.054188926
0.06698181 -0.14015771 -0.099489234 -0.024568167 -0.019643812 -0.037036803 0.10581731 -0.08218071
-0.029281827 0.18939805 -0.038155008 0.10011582 0.06030238 -0.0493808 -0.1186593 0.04178609
0.09952596 0.06718451 -0.17044744 0.061947785 -0.10305341 -0.07849394 0.0076193945 -0.03539536
-0.019730851 -0.20982334 0.043776922 0.014929128 -0.012512699 -0.0092953835 0.07123606 0.017135834
0.10386576 -0.001762882 -0.09972336 0.12887783 0.00014372119 0.08989592 0.09719623 -0.047664378
-0.08242668 -0.073699124 -0.06095393 0.042199455 -0.091380425 0.1363369 -0.08451552 0.011899054
-0.1304661 -0.10370473 -0.080364555 0.15975538 0.061918233 -0.05154161 0.22518481 -0.0017830227
-0.10494372 0.009256526 -0.0016939892 -0.08847099 0.10912463 0.056097522 0.06504315 0.07845218
-0.19226137 -0.08544114 -0.20358716 0.06695755 -0.09659518 0.017291382 -0.06491938 0.015569724
0.044348083 -0.028452134 -0.040308535 0.028722841 0.21964547 -0.09257513 0.0661746 0.14833076
-0.10477691 -0.078086324 0.06513695 0.092283234 0.080206804 0.0024076223 -0.09133313 -0.00030057805
0.013571642 0.056361135 0.020074382 -0.07008224 -0.0317966 -0.058780886 -0.06101717 0.047139965
-0.03211239 0.13785225 -0.011613691 0.049880963 0.072069205 -0.034230158 -0.15690714 0.1378696
-0.066056244 -0.0030060606 0.10812864 -0.07844977 0.040607277 0.067733675 -0.023608353 0.052286886
0.047219858 0.08602499 0.17013857 -0.078448065 0.030066803 -0.10436414 -0.06521338 0.043419372
0.14367881 0.010101348 -0.12575193 -0.0010928884 0.07231296 -0.01375229 -0.01878319 -0.06636751
-0.041493095 -0.1711597 -0.09406826 0.08856709 -0.08024703 0.049243603 -0.022344075 0.12881118
0.048121024 -0.061990533 -0.09751072 -0.09390021 -0.0050038924 -0.062130176 0.11347897 0.055139687
00000000: 90e6 543c ba09 573d 7999 0cbc c97b 58bd
00000010: 14db a83a 2ab6 b5bd cf9e a23d b74b 423b
00000020: 2621 d3bc 9c36 02be d7c1 87bd 21dc 85bd
00000030: e57a acbc 27f7 7abd 103e 9b3d 8352 e6bd
00000040: c663 9a3d 0d92 2d3e eadf 63bd 9759 6d3d
00000050: 7f2b 903c 9447 d5bc 8ab8 9fbd 93c5 a7bd
00000060: a221 823d 1896 d53c 9303 7c3d c461 2b3e
00000070: fafd 173d e8de b5bd 74b2 0a3e 7006 be3d
00000080: e8af a9bd e89b ab3c e910 e03c 0f00 c4bd
00000090: 24e3 08bd e53f 443e 9091 a5bd 53e5 933d
000000a0: f13f 6c3d 82d3 03be 42c9 01be 0670 23be
000000b0: 64ad 9ebc 5ce4 efbd 404b 853c edf6 273d
000000c0: 0f78 a53d 7c49 91bd 65ba 8b3d 6a8a 10be
000000d0: 5fac a3bc a18d f0bd 799a 2a3d 39f5 2a3d
000000e0: eb57 8bbd ebe9 29be 6bba abbd 9014 81bd
000000f0: fcd6 183d 16dd fc3d 69aa 863e 74df 95bc
00000100: 0013 94bd 1760 b13c 4f77 2dbe 3d38 11be
00000110: 61ee aa3c d9c4 afbc 40de 6bbd 2b6b bb3d
00000120: d9fe 9c3d b808 91bc e796 1e3d f8a3 6c3b
00000130: ccb6 cc3c 61e8 31bd 845a 223e 6003 8ebd
00000140: fbe4 d5bc a2c2 373d 7d8b 8bbd a830 2bbc
00000150: 6997 943d 6438 b73d 0c31 623d f664 07be
00000160: 06bb a2bc 3d62 c03d 9535 4f3d 23af d6bd
00000170: 9286 9fbd 6dfe febd 4dcc b2bd d45e a9bc
00000180: f9c9 e13c 285e 27bd e0d8 793d 0abd 04bd
00000190: 90c6 56bd 0856 b43d d336 e73d ed3e 86bd
000001a0: 28e5 563d 07ba 8ebd f29e 4bbe 0f5a 91bd
000001b0: 2356 42bd 7aa9 383e 4fef 613d 35f5 5d3d
000001c0: c22d 893d 8185 0fbe 03c1 cbbd 2e43 c9bc
000001d0: 0fec a0bc e7b3 17bd bfb6 d83d 5c4e a8bd
000001e0: 71e0 efbc 90f1 413e 6d48 1cbd 8609 cd3d
000001f0: a1ff 763d 8643 4abd a603 f3bd e427 2b3d
00000200: 44d4 cb3d 0898 893d c689 2ebe f6bc 7d3d
00000210: ab0d d3bd 6ec1 a0bd 1dac f93b bafa 10bd
00000220: 98a2 a1bc eedb 56be 6e4f 333d 4d99 743c
00000230: 1002 4dbc aa4b 18bc 36e4 913d 7360 8c3c
00000240: 92b7 d43d 8110 e7ba c33b ccbd 8df8 033e
00000250: ddb3 1639 5a1b b83d d10e c73d b93b 43bd
00000260: 52cf a8bd 91ef 96bd d4aa 79bd 56d9 2c3d
00000270: a925 bbbd e69b 0b3e 7916 adbd 40f4 423c
00000280: e898 05be 2563 d4bd 2c96 a4bd ea96 233e
00000290: f99d 7d3d 4c1d 53bd d996 663e 50b4 e9ba
000002a0: bcec d6bd afa8 173c d808 deba 4730 b5bd
000002b0: bc7c df3d 84c6 653d 5835 853d 89ab a03d
000002c0: 2ae0 44be c4fb aebd 2779 50be 0a21 893d
000002d0: b2d3 c5bd a8a6 8d3c 74f4 84bd 2818 7f3c
000002e0: 56a6 353d 7314 e9bc 901a 25bd 2a4c eb3c
000002f0: beea 603e 0898 bdbd 8c86 873d 05e4 173e
00000300: 4795 d6bd b9eb 9fbd 8566 853d fefe bc3d
00000310: 7743 a43d 33c9 1d3b dd0c bbbd e796 9db9
00000320: 985b 5e3c efda 663d 0873 a43c 4787 8fbd
00000330: 273d 02bd 3ac4 70bd 24ed 79bd d615 413d
00000340: 4888 03bd 2429 0d3e 5a47 3ebc fb4f 4c3d
00000350: 0599 933d ec34 0cbd 44ac 20be b02d 0d3e
00000360: 7f48 87bd 5401 45bb 8c72 dd3d 46aa a0bd
00000370: d153 263d f4b7 8a3d 4e66 c1bc c62a 563d
00000380: 9c69 413d df2d b03d ce38 2e3e 61a9 a0bd
00000390: a84e f63c debc d5bd 988e 85bd 83d8 313d
000003a0: 8a20 133e 2080 253c 1dc5 00be 403f 8fba
000003b0: d118 943d 4951 61bc 34df 99bc b0eb 87bd
000003c0: aaf4 29bd 7d44 2fbe dca6 c0bd aa62 b53d
000003d0: 8e58 a4bd a9b3 493d ec0a b7bc 14e7 033e
000003e0: 8d1a 453d c9e9 7dbd b3b3 c7bd c14e c0bd
000003f0: b1f7 a3bb 367c 7ebd aa67 e83d 27da 613d

layers.4.layers.0.bias f4 [10]
-0.09271361 0.16629711 -0.010442516 -0.07700801 -0.069657065 -0.06631218 -0.06791324 0.06149276
-0.02123413 -0.027950084
00000000: a2e0 bdbd ca49 2a3e 1617 2bbc 60b6 9dbd
00000010: 5da8 8ebd aece 87bd 1916 8bbd d5df 7b3d
00000020: 33f3 adbc 93f7 e4bc
