Topics/Convolutional Network/output/fcnn.pth (torch, 95368 bytes, 10 tensors)

layers.0.layers.0.weight f4 [32, 1, 3, 3]
00000000: 230e 443e 6752 873e 56c6 653d ea29 e63c
00000010: 46f8 87be 8ab5 933e a22e 82be d5ad 8f3d
00000020: c267 bfbd 9b5a 863e 6416 b1bd d7fa 75bd
00000030: e89b a6be 9de4 15be f40e dfbd f637 9abe
00000040: 55cb 02bd a18a 81be 6506 93be b5f5 8ebd
00000050: 1b78 94be f40b a2be 7eea 51be 788d 843e
00000060: 809d 803e 2e9e 613e fa97 0b3e 8d2c 963e
00000070: 054e bc3e 7d5c 9b3e 907c 663d a70e 63be
00000080: dada 9f3e c9cd 6cbb b120 88be bf58 7d3e
00000090: 748f ca3e d796 5e3e b2eb a13e 6d6b e13e
000000a0: 2e80 a03d 39f8 0cbe 9429 133e f0c2 fbbc
000000b0: 4174 ba3e 3017 a03e 374e 5f3e 9573 5e3e
000000c0: 1425 663e e19b 25bd 91ab 69be ded7 bd3e
000000d0: b577 cbbc 3796 3f3d cd60 a53d 758b 133d
000000e0: a723 cb3d e22e ba3e 180e 743e b655 8fbe
000000f0: 0f2a 003d 7350 34be c644 403d a81c e3bd
00000100: 2e89 a13e 2664 c13e d1b7 7a3e 8bd8 49be
00000110: 1b21 333e fe05 4fbe 4b58 693e f276 79be
00000120: 8c00 b0bd 2c35 893e ba35 92ba bb61 283e
00000130: 40a6 903e c481 d43e 41d1 dabd 0c6e ffbb
00000140: 7e85 863e c85e ac3d 7dee 863d 5aa3 3ebe
00000150: a585 50be 0846 4d3d d8f9 7a3e 6fde 71be
00000160: 39f2 b03e 687f 783e d749 b23e c4f8 82be
00000170: 94ae a13e 6e01 07be f07e a9bd 5c6a 48be
00000180: 9f5a ca3e e0df 9a3e 5c82 56bc 12f7 803e
00000190: 29a9 8bbd 2388 3ebe 4846 aabe 202a 79be
000001a0: 2cc4 a0be b810 6fbe e9f1 b2bc 1e2a 5a3d
000001b0: 1293 ac3e 545d 2e3e 2a11 a33e 6615 06bc
000001c0: dc56 87be 5b28 3bbd 247e a2be 424a 0b3e
000001d0: bee5 8c3e 80d1 6f3e 934f 76be 1bdd ce3e
000001e0: b505 383e 2775 3a3e b5cd 7e3e 188a fabd
000001f0: 4a6f 7abe 954d 12be c148 e93e 1fe3 7c3e
00000200: 0b32 8bbd aad6 8f3e b0b9 37be 0057 5b3e
00000210: 3b20 c139 c78f 973e 5ccb 153d d225 6fbe
00000220: 603a 95be 72da 87be a19b 84be ea5a 8ebe
00000230: 9a14 0bbe 6ecc 5f3e 11cb bf3c a1b7 bb3e
00000240: ee2a 933e 9ece 15bd 8fbc 4f3d fbea 8bbe
00000250: d6e5 17bd 1650 2c3e 1476 7e3e 6d84 47be
00000260: 494d 473e a43f 703e f69b fc3e 5e9b cc3e
00000270: 5cd7 6fbe c487 463d d9a9 bc3e f556 6b3e
00000280: ed4a eb3e bb1b 593e 1d79 b3bd 0fb8 273d
00000290: 7ea9 7a3e a589 ab3b 2972 973d 5a4f f63e
000002a0: 0b27 d13c bb73 893e e2f8 dd3e 93d5 363e
000002b0: 7894 063f f185 923e 9073 943e d898 ea3e
000002c0: 5d51 ef3e ccf1 ef3e 7bc9 013f 295e 013e
000002d0: 5eb3 543e 789d b23e 261f 82be db95 71be
000002e0: 1a52 aa3e e084 7cbc 27f2 343e 9d65 8dbd
000002f0: 59f8 9cbe 775f 90be 513c 2fbe 1cb8 29be
00000300: f893 9c3d abc8 673d cd36 38be aa01 f53d
00000310: 27aa 863e 1b6d d8bc dd28 e8bd e6a2 8c3e
00000320: 7291 8ebe ba44 0fbe 5a87 613c cce7 3cbd
00000330: 106c 68be b99a b8bd 6eb7 073d cc17 aabe
00000340: 5255 993e 6796 abbd 1cd1 f3bd 47f4 733e
00000350: 572f 373d 43c1 7fbe 46fc 43be c33e 693d
00000360: 058b 8c3e 8bfa 9c3e 5efd 97be ba86 b4bc
00000370: bf2a ab3e 4630 5cbe d112 58be 78f1 913b
00000380: 344b 52be a20d 9fbd 422d 1e3d 14da acbd
00000390: 9ffa 803e 9d81 113e 8579 483e 7581 173e
000003a0: ee47 5dbc 7d05 9a3e 2bf4 82bc 99d9 443e
000003b0: cffd c73e c5f1 51be 0566 4bbd de1d 7f3e
000003c0: e2aa 60be 91c7 a23e 4cb7 2bbe 37c8 2ebe
000003d0: a894 a8be c9b1 533c 2a7e bebd e7e5 f9bd
000003e0: 5e3d 333e 6329 3bbd 8d00 ef3b 3950 a7bc
000003f0: cf42 0bbe 5fdd 94bd 4333 023f a822 af3e
0.19146018 0.26430055 0.05609735 0.028096158 -0.26556605 0.2884944 -0.25426203 0.07015578
-0.09345962 0.26241 -0.08646849 -0.060053673 -0.32540822 -0.1463799 -0.10891524 -0.3012082
-0.031932194 -0.25301078 -0.28715816 -0.06980459 -0.28997883 -0.31649745 -0.20499608 0.25889182
0.25120163 0.22032997 0.13632193 0.29330865 0.36778274 0.30344 0.056271136 -0.22173558
0.31221658 -0.00361334 -0.26587442 0.24740885 0.3956257 0.21737228 0.31625134 0.44027272
0.07836948 -0.13766564 0.1437133 -0.030732602 0.3641682 0.3126769 0.2180718 0.21723779
0.22475082 -0.04043186 -0.22819354 0.37078756 -0.024837354 0.046774115 0.08075104 0.03602167
0.099189095 0.36363894 0.23833501 -0.2799508 0.03129011 -0.17608814 0.046940587 -0.1108945
0.31549972 0.3777172 0.24484183 -0.19711511 0.17493097 -0.2021713 0.22787587 -0.2436178
-0.08593854 0.2679838 -0.0011154928 0.16443531 0.2825184 0.41505253 -0.10684443 -0.007795101
0.2627372 0.084165156 0.06588457 -0.18617001 -0.20363481 0.050115615 0.2450937 -0.23620008
0.345598 0.24267352 0.3482196 -0.25580418 0.31578505 -0.13184139 -0.082761645 -0.19571823
0.39522263 0.30248928 -0.013092604 0.251885 -0.06819374 -0.1860662 -0.33256745 -0.24332476
-0.31399667 -0.23346221 -0.021843867 0.053262822 0.33705956 0.1702779 0.31849033 -0.008183813
-0.26433456 -0.045692783 -0.31736863 0.13602546 0.2751903 0.23419762 -0.24053793 0.40403065
0.17970927 0.18208753 0.24883159 -0.122333705 -0.24456516 -0.14287408 0.4556332 0.24696015
-0.06796654 0.28093463 -0.17941928 0.21419907 0.00036835842 0.2960188 0.03657089 -0.23354271
-0.291461 -0.26533848 -0.25899985 -0.27803737 -0.13582078 0.21855327 0.02341226 0.36663535
0.2874369 -0.036574 0.050716933 -0.27327713 -0.037084423 0.16827425 0.2484973 -0.1948411
0.19463076 0.23461777 0.4933774 0.39962286 -0.23421997 0.04846932 0.36848333 0.2298239
0.459556 0.21201985 -0.08763335 0.040947016 0.24478719 0.0052349144 0.07394821 0.48107415
0.025531312 0.26846108 0.43353945 0.1785491 0.52570295 0.28617814 0.28994417 0.45819736
0.46741763 0.46864164 0.5069806 0.12633575 0.20771548 0.34885764 -0.2541439 -0.23592322
0.33265764 -0.015412539 0.17670499 -0.06904147 -0.30658224 -0.28197834 -0.17112853 -0.16574138
0.0764541 0.056587856 -0.17989655 0.11963208 0.2630169 -0.026419213 -0.11335919 0.27468032
-0.2784534 -0.13991061 0.0137651805 -0.046119496 -0.22697473 -0.09013886 0.033133917 -0.3322128
0.29947907 -0.08378296 -0.11905119 0.23823653 0.04472288 -0.24976067 -0.19139203 0.05694462
0.27449813 0.306599 -0.2968549 -0.022036899 0.3343105 -0.2150279 -0.21100928 0.004453834
-0.205365 -0.07766272 0.03861738 -0.084400326 0.2519121 0.142096 0.19577606 0.14795478
-0.013505919 0.30082312 -0.015985569 0.19223632 0.39060828 -0.20502384 -0.04965784 0.24913737
-0.21940187 0.31792882 -0.16769141 -0.17068563 -0.32925916 0.012920805 -0.09301408 -0.122020535
0.17503878 -0.045693766 0.007293767 -0.020423995 -0.13599704 -0.07268786 0.5085947 0.34206128

layers.0.layers.0.bias f4 [32]
00000000: 807c a23e 031d 38be 15bf 05bd 72da 2ebe
00000010: 42e9 13b8 fa07 14b8 0fe0 01b8 959d 9cb8
00000020: 0795 653e 155a 6e3c 66fa a83d 66f2 7dbe
00000030: d961 3cbe ce09 813b 9350 9f3e 8732 d23e
00000040: 4ebf 98be 63b4 633e e344 7a3e 6942 973c
00000050: fc9b c4bd eb6c d23d fd16 49be 5095 53be
00000060: 7745 613e ff90 88be 7c3b 173c 8216 953e
00000070: 96f1 263e 5b3b 49b7 b927 a33d e237 a73d
0.3173561 -0.17979817 -0.032652933 -0.17075518 -3.526477e-05 -3.529338e-05 -3.0964668e-05 -7.4680116e-05
0.2242013 0.014547844 0.08250885 -0.24799499 -0.18396701 0.0039379364 0.3111616 0.41054174
-0.29833454 0.22236781 0.2444034 0.018464284 -0.09600064 0.10274681 -0.19637676 -0.20662427
0.21999155 -0.26673123 0.009230491 0.29118735 0.16303095 -1.1994353e-05 0.07966561 0.08164956

layers.1.layers.0.weight f4 [4, 32, 3, 3]
00000000: fc87 27bd 71a5 cfbc 5ff6 97ba 4595 513c
00000010: 17d1 ca3b b56e 87bc 5398 21bd afc6 8dbd
00000020: d483 c7bd 8a0d a43c 4aa6 d73c b270 59bd
00000030: 5e1c 3fbd ed3c 06bd 3312 55bd 9bfb fc3c
00000040: 645f 613c d4e9 763c fa3d 8abd d7ca f2bd
00000050: d7df 5c3b 12dc cdbc 8d75 92bd a44c 5fbd
00000060: 7855 0abd fb31 8cbd 8ea7 e9bc 00f2 b13c
00000070: d3f1 8abd 12d0 88bd 696f e53c 760c 81bc
00000080: 9199 34bd 61e2 543d 0f33 c83a e7f8 2d3b
00000090: b17e 783d a261 493d 88f8 afbc 19de 043e
000000a0: 5fd3 333d 2564 74bd 887c ea3d 528f f93c
000000b0: 9388 223a b7b7 8c3c 36cd 283e af05 3fbc
000000c0: 5a0e c33d 4a36 ea3d 5270 a3bd 394e 1d3e
000000d0: a2e5 843d de12 3dbd b617 19bc d11f 303d
000000e0: 4923 e2bc 9e84 7e3d ecba ce3c 95ba 703c
000000f0: 80f1 d93d a696 613d fc11 003d fbe2 c43d
00000100: b008 d53c a9bd c3bc adf8 b1bc 433b 9bbc
00000110: eec2 5ebd 0657 dd3b fcd1 02bc 0ea2 bb3c
00000120: c90d d13d 20d1 893c 7be8 dfbd 9e73 be3d
00000130: 6a47 2abd c847 b5bd c3e6 d03c c5c9 e9ba
00000140: ac60 733b b60c 743d 94ab 393a 4d41 ad3b
00000150: 2f6f 3fbc 0ec6 c8bc 655f 74bd d58e 8e3c
00000160: d502 37bd 6e11 5cbd e4f3 5ebc 0e66 bc3c
00000170: 3606 afbd d2ef d63c 6b37 a73d 3419 70bd
00000180: 3486 533d 49e8 c1bc a7cd 1abb ea72 5a3d
00000190: 2c82 003d 5963 2c3c 62b9 4a3c b9a8 69bd
000001a0: 343f 903c 0826 63bd f3a6 8a3b 4bcf e8bc
000001b0: 0327 e63a 59b2 423c ccfe ddbb 71e2 7dbd
000001c0: cc47 9cbd be75 94bd 4c2b 1abb 53c9 3fbd
000001d0: 90b4 7bbd 8b78 0abd 71bd f23c fbdb c9bd
000001e0: 5c4b 40bd b813 963c c7fa bebd 7bc5 6dbd
000001f0: 8d91 91bd 98db 4cbb a325 7ebc cd67 163d
00000200: 6536 a2ba ac62 cb3d 85d5 59bc 4a2d e4bc
00000210: e051 c23d 02c7 b03d e3b9 3cbd b728 acbd
00000220: 6c8f 06be 694a 2dbd 2f8d febd 7086 92bd
00000230: 926e 0c3d 824a 90bd de68 1fbd 8cb0 37bd
00000240: 2c2e bbbc 11e1 48bc d4ed dfbc f700 8a3b
00000250: ffa6 153c 39c9 c53b 314a 473d fbea b8bb
00000260: 8765 123d 9be2 5f3e 8be0 703c 9e09 f2bd
00000270: 0acb 473e 02e2 65bd 2b49 03be 455c 373e
00000280: e8c3 39bd c273 30bd 84c6 313e a624 97bd
00000290: 8b58 33be 2c61 dc3d 1576 afbd 9c4b b0bc
000002a0: 6d65 353d da90 adbd d254 96bd cc7c 713e
000002b0: 9ef7 373e 1e14 57be 3558 603e cd25 123d
000002c0: 5b04 58be 5498 873e 2429 303d c887 19bd
000002d0: d538 303c 245e c23d 385e ed3c ba0f bb3d
000002e0: 0cfb 523d 2a12 54bd bdc4 843d b1af 28bd
000002f0: 1ff5 b1bc c308 88bc e08f c8bd aa43 70bd
00000300: 8f06 8abc 019e 31bd 890a 923c 2b62 4dbd
00000310: 20d9 2e3d 0ddf 6d3d 5e08 eabc 2683 843c
00000320: a65d c43c 2243 22bd 950f 443d a62f 643c
00000330: 49ae 1a3d b2c8 c93b ec54 5b3d 8d77 613d
00000340: 694c 39bd e536 efbc 7951 643d 920c 4a3d
00000350: 89f9 3f3d 7fff 1a3d 0e80 f3bc 2ea6 9d3b
00000360: 5615 3fbd a968 c83d e3af 9bbc 1522 41bd
00000370: 92d3 a73d cc61 72bc 2050 a43d fe36 88bc
00000380: 9b56 8b3b 214f 0abc c927 6abd b5f5 62bd
00000390: a50b 1dbd 7bed f1bc 23a9 29bd 0940 de3c
000003a0: 7458 06bc 1bac 4e3d a097 a43d 0dfe 513b
000003b0: 16a3 75bd b513 3c3d bd82 95bd 593b 5bbd
000003c0: 2cbf 30bb 8be4 a6bd d745 8d3c 3ef7 1c3d
000003d0: 9d61 bdbd 16fb 233d aab9 48bc 18ae 07bd
000003e0: eebb 763d d9b5 36bd 1012 82bd 9612 67bd
000003f0: 7064 2e3e 9a67 9f3b fc91 4dbe 78fe f63d
-0.04090117 -0.025347443 -0.001159381 0.012791936 0.0061894762 -0.016532281 -0.03945191 -0.069226615
-0.09741941 0.020025987 0.02632441 -0.05308599 -0.046657912 -0.032772947 -0.05201931 0.030881694
0.013755653 0.015070397 -0.06750102 -0.11855095 0.0033702755 -0.025129352 -0.07151327 -0.05451645
-0.033772916 -0.068454705 -0.02852228 0.02172184 -0.067844056 -0.06680311 0.028007226 -0.015753012
-0.044091765 0.051973704 0.0015274006 0.0026546062 0.060667697 0.049165376 -0.021480814 0.12975349
0.04390275 -0.059665818 0.11449534 0.030463848 0.0006200161 0.017177446 0.16484532 -0.01165907
0.09524222 0.11436136 -0.07980408 0.15361871 0.064891115 -0.04616057 -0.009344032 0.042999092
-0.027604716 0.062138192 0.025235616 0.014692922 0.106417656 0.05507531 0.03126715 0.096136056
0.02600512 -0.023894148 -0.021725023 -0.018949157 -0.05438512 0.006754759 -0.0079846345 0.022904422
0.102077074 0.016823351 -0.10933014 0.09299396 -0.041572012 -0.08851582 0.02550066 -0.0017836621
0.0037136478 0.059582435 0.0007082757 0.0052873255 -0.011684223 -0.024508502 -0.059661288 0.017402092
-0.044680435 -0.05372756 -0.013607953 0.022997882 -0.085461065 0.026237402 0.08164867 -0.058617786
0.051641658 -0.023670333 -0.0023621114 0.053332247 0.03137414 0.010521733 0.0123733 -0.057045672
0.017608263 -0.05545619 0.0042313277 -0.028419157 0.0017559234 0.011883342 -0.006774759 -0.06198353
-0.07630882 -0.0724902 -0.0023524342 -0.046822857 -0.061451495 -0.033806365 0.029631348 -0.09856411
-0.04694687 0.01831995 -0.09325176 -0.05804966 -0.0710784 -0.0031258818 -0.015511903 0.036720086
-0.001237583 0.099309295 -0.013295536 -0.027853627 0.09488273 0.08631708 -0.046075713 -0.08406203
-0.13140649 -0.04230729 -0.124292724 -0.07154548 0.034285136 -0.07045461 -0.03891837 -0.044846103
-0.022849165 -0.012260691 -0.027335085 0.004211541 0.009134053 0.0060359505 0.04865474 -0.005643246
0.035741355 0.21863787 0.014701973 -0.118182406 0.19511047 -0.05612374 -0.1282088 0.17906292
-0.045352846 -0.043079145 0.17360884 -0.07380037 -0.17514245 0.107607216 -0.08567444 -0.021520428
0.04428618 -0.08474894 -0.07340397 0.23582762 0.17965552 -0.21003768 0.21908648 0.03568058
-0.21095411 0.26483405 0.043007985 -0.037483007 0.010755737 0.09490612 0.028975591 0.09133859
0.05150895 -0.051775135 0.06482837 -0.041183177 -0.021723328 -0.01660574 -0.09793067 -0.05865828
-0.01684883 -0.043363575 0.01782729 -0.05014245 0.042687535 0.058074046 -0.028568443 0.016175818
0.023970436 -0.039614804 0.047866423 0.013927376 0.037763868 0.006157958 0.053547785 0.055045653
-0.045238886 -0.02920098 0.05574176 0.049328394 0.046868835 0.037841316 -0.029724147 0.00481107
-0.046651207 0.09785587 -0.019004768 -0.047151644 0.08194651 -0.014793824 0.08023095 -0.016627785
0.0042522675 -0.008441717 -0.05716685 -0.055410106 -0.038341183 -0.029532185 -0.041421067 0.027130144
-0.0081998 0.0504571 0.08036733 0.0032042295 -0.059969984 0.04591723 -0.07300327 -0.053523395
-0.0026969416 -0.0814906 0.017245216 0.038321726 -0.09247134 0.040034376 -0.012251297 -0.033125013
0.060237817 -0.044607017 -0.063511014 -0.05641421 0.17030501 0.004864645 -0.2007522 0.12060255

layers.1.layers.0.bias f4 [4]
00000000: cb93 8fbd 956b 7abd 7eb7 ab3c 49fc 663d
-0.07010611 -0.061137754 0.02096152 0.05639294

layers.2.layers.0.weight f4 [100, 4, 5, 5]
00000000: dc91 51bc 8732 9b3d 811e c53d 060e 53bb
00000010: 5c0f b03b c8f0 2ebd 57b8 2d3d 4771 393d
00000020: a796 c8bc 7b68 0f3c e4b4 8abc 6ff6 99bd
00000030: f860 85bd de3a 05bb d4d5 fa3b a25d 283a
00000040: 57c1 c2bd ebf9 843d 81ab bdbd 737d d9bd
00000050: 9d20 973d c161 14bd d1bc f9ba f385 0a3d
00000060: 1d51 a93d c8ba c6bd 1860 1fbc a201 813d
00000070: 1880 99bd 8b1f b63d a3e6 403c 58c9 d5bd
00000080: e37a cb3d 5bbc 54bd 8c5b 2e3d dbf2 b7bd
00000090: 2d26 bc3d b101 a1bd da41 823d e6c9 163d
000000a0: 9a73 313d cec8 993d efcf 873d 1809 013d
000000b0: 36ca 043a 3188 f73c 5d9c 9abd ccb7 dbbc
000000c0: 00fe efbd 28ce 163d 2cee 55bc c074 36bd
000000d0: ef8f 3ebd ac59 803d c3e1 cb3d 5930 9dbd
000000e0: 8ae4 5c3d e167 b43d 1244 cd3c 2757 8a3c
000000f0: c83a 173d 2fdf a2bd bde4 543d e8c8 2dbd
00000100: 19e5 8dbd 238a 513d 22d8 f73c 75f9 643d
00000110: f4ca 8cbc 9f11 fc3c 804e 87bc e844 11bb
00000120: 6355 563b 0f8e 1fbd bec4 ad3d 3c8b d5bd
00000130: cf8d 5ebd ff0d 9d3c eef2 03bc cf33 c83c
00000140: cc76 75bd dfa5 fd3d 4a42 a43c 1006 1ebd
00000150: a716 b7bc fe97 01bb bbfb a43c ed42 943d
00000160: 07ff c03d 78f9 0f3c 5eed c93c f1ff aabd
00000170: b096 9a3d a7cb 93bd 76ba 2ebd cb9d 40bc
00000180: 8106 293d bea3 99bd aa92 81bd dd11 19bd
00000190: 2def 8bbd d444 a23d 4133 903d 70fa 4cbc
000001a0: 2354 403c ae6c c43d 5861 4bbd 347c 91bd
000001b0: 9887 aa3b a3ac 5b3d db1c 7b3c 11b1 df3b
000001c0: 9117 50bd 5896 d43b a1d2 84bd 9e88 343d
000001d0: 4b49 5ebd 9c2b 673c 7fc9 ec3d a505 13bd
000001e0: f7f7 c8bc d7fa a5bc 760f 773d 27e0 8e3d
000001f0: c61d f8bc 611a 49bd a133 adbd 1ba6 473c
00000200: 3ef8 7cbc 563c a4bd 7179 693c d8fe 44bd
00000210: c190 393c 7615 80bd 4932 94bd 8e48 41bd
00000220: 9ee1 8a3d e2e9 92bd 6190 833d ba6b 46bb
00000230: 8fb9 04bc 7210 efbc 8a8e d13b 62d5 103d
00000240: f435 763d 9ed5 88bd 1782 03bd 4262 a03d
00000250: f905 af3d 27ec 53bd f00c 03bd 6423 d73c
00000260: 87ac 3f3d 86fc 983c faea a23d 1ef9 8abd
00000270: 6a9e 1bbc 2cab ffbc 839f 943d b1da 3cbd
00000280: c1fe 8e3d 7bc5 5abd 3504 e73c 3d21 28bd
00000290: 20d0 a03d 300e b33d cb65 c53c d451 1f3d
000002a0: 8edf 98bd 0b20 253b 19ee b7bd 89ea 82bd
000002b0: 07bd 1d3d fc2e 1cbd 5a57 b8bc cd3a ec3c
000002c0: 14c5 3abd 0a90 8c3c 223b d1bd 2bc2 7b3c
000002d0: f008 c7bd 71d8 70bc d245 b53d 74df 763d
000002e0: bb9c c73b 2783 143d ecc4 25bd f8d3 45ba
000002f0: 12b1 a0bd 34b3 8e3c 6c22 07bd 11cd 1a3d
00000300: a7c5 6d3d ce68 c43d 2497 ce3d 99c2 5a3d
00000310: b626 bd3d 94b4 a83d 34d3 c53d bbd7 c23d
00000320: 22bb 93bd 2793 c83c 0056 923d 6911 8dbd
00000330: 787f 25bd 6a51 b93d 1058 dcbc 7a18 cdbd
00000340: 3d76 29bd b58b 183d 224f bfbd 07fb 3abd
00000350: 2577 c13c fbf6 f1bc a52f 16bd 57f1 7c3d
00000360: 15d2 eb3c ae34 ff3b a0cb 74bd fca2 9ebd
00000370: 2662 96bd 4c64 8bbd 3ce8 f03d 2f8f b73d
00000380: def6 4c3d 75c5 193d 7329 10bd 2e80 9fbd
00000390: fbaf 443d 28f6 b73d 416b 2fbc f575 04be
000003a0: 0eaf c3bd 3d53 b63d 01ec dcbb eb15 debd
000003b0: c4fb 08bd 966f 0d3d cb08 443d 3616 a73d
000003c0: 56d9 1fbd 45ee 96bd a9aa 6d3c 80f8 c73c
000003d0: 2d58 663d b4ba a9bd 26c8 9c3d faf3 9fbd
000003e0: 919c 13bd dc85 eabd 385e d53c ebec 9f3d
000003f0: 12d4 91bc 2baa 493d c81a ca3b e181 433d
-0.012791123 0.07577997 0.09624959 -0.0032204404 0.0053729247 -0.042710096 0.04241213 0.045274045
-0.0244859 0.008752937 -0.016931958 -0.075177066 -0.06512636 -0.0020329277 0.007654885 0.0006422644
-0.09509533 0.064929806 -0.092612274 -0.10619631 0.07379267 -0.036226038 -0.0019053464 0.03381915
0.08267424 -0.097035944 -0.0097275 0.062991396 -0.07495135 0.08892735 0.011773738 -0.10438794
0.09935548 -0.051937442 0.042567775 -0.08981868 0.09186969 -0.07861651 0.063602164 0.03681364
0.043323137 0.075090036 0.06631457 0.031502813 0.0005065532 0.030216308 -0.07549355 -0.02682104
-0.117183685 0.0368177 -0.013057273 -0.044544935 -0.046523985 0.062671036 0.0995517 -0.07675237
0.05392889 0.08808876 0.025056873 0.01688726 0.036921293 -0.07952725 0.051975954 -0.042427927
-0.069284625 0.051157128 0.030254427 0.055901963 -0.01718662 0.030770121 -0.016516924 -0.0022166315
0.0032704703 -0.038953837 0.08484791 -0.104269475 -0.054334458 0.019171713 -0.008053524 0.024438767
-0.059927747 0.12385153 0.02005114 -0.03858 -0.022349669 -0.0019774432 0.020139566 0.072393276
0.094236426 0.008787505 0.024649318 -0.08349598 0.075482726 -0.07216578 -0.04265829 -0.011756371
0.04126597 -0.075019345 -0.06326802 -0.03737055 -0.068327285 0.07923284 0.07041026 -0.012510881
0.01173881 0.095910415 -0.04965338 -0.07103768 0.0052041523 0.053631436 0.015326704 0.006826528
-0.050803725 0.006487649 -0.06485487 0.0440756 -0.054269116 0.014109518 0.1156187 -0.035894055
-0.024532301 -0.020261211 0.06031748 0.069763474 -0.030287635 -0.049097423 -0.08457113 0.012185599
-0.015440045 -0.08019321 0.014250145 -0.0480946 0.011326016 -0.06254093 -0.07236154 -0.047188334
0.06781314 -0.07173516 0.064240225 -0.0030276612 -0.008100881 -0.029182646 0.006395166 0.035359748
0.060110047 -0.06681369 -0.032106485 0.07831241 0.08546061 -0.051738884 -0.03199476 0.026261993
0.046795394 0.0186751 0.079549745 -0.067857966 -0.009498218 -0.03120955 0.07256987 -0.046106998
0.06982184 -0.05341099 0.028200248 -0.041047323 0.07852197 0.087429404 0.02409639 0.038896397
-0.07464515 0.00251961 -0.089809604 -0.0639239 0.03851035 -0.038130745 -0.02250259 0.028836632
-0.045598105 0.017158527 -0.10216357 0.0153661175 -0.097185016 -0.014700041 0.08851208 0.060271695
0.006091682 0.03625789 -0.040471002 -0.00075465394 -0.078462735 0.017419435 -0.03299181 0.037793223
0.058049824 0.095903024 0.100874215 0.05340824 0.09235899 0.082375675 0.096594244 0.095138036
-0.07213427 0.02448423 0.071453094 -0.06888086 -0.040404767 0.090487316 -0.02689746 -0.10014434
-0.041372526 0.03724261 -0.09341265 -0.045649555 0.023616383 -0.029536715 -0.03666653 0.061753597
0.028786698 0.0077882623 -0.059764504 -0.077459306 -0.07342939 -0.068062395 0.11763045 0.08962857
0.05004012 0.037541825 -0.03519578 -0.0778812 0.04801939 0.089824975 -0.010706724 -0.12935622
-0.095548734 0.08902595 -0.006742001 -0.10844024 -0.033443227 0.034530245 0.047859948 0.08158533
-0.039025627 -0.07369665 0.014506021 0.024410486 0.056236435 -0.08287564 0.07655363 -0.07810207
-0.036037985 -0.11451313 0.026045904 0.078088604 -0.017801318 0.04923455 0.0061677434 0.047731284

layers.2.layers.0.bias f4 [100]
00000000: 4ede 4e3c c536 5d3b 3cef ba3c 97d1 78bb
00000010: 5732 cebd 3f03 c7bd 09d9 143d 3d7d c8bc
00000020: 0e9b a9bd 90a9 68bc 4ff8 99bd 7d41 8b3d
00000030: 5874 0c3d 70dc 913d f458 82bd d9fc 723d
00000040: 5c18 7a3d 9bfb acbd baa5 123c 09c2 713b
00000050: 6d70 0ebd d550 a73d 25c7 6abd e8a2 9fbd
00000060: 6124 a2bd e254 753c a280 b0bd 128d c6bd
00000070: 6630 a13c 8aca a6bd dbac ee3c c455 1cbc
00000080: 672d 3d3d b956 053d 5270 97bd 8d96 443d
00000090: 1eb3 f13d 7bd8 bebd ca64 a1bd b677 8f3d
000000a0: 9a8c c73b 9000 133d 58cd b23d 2045 5e3d
000000b0: 5279 873d bf3d 3dbc b7e9 d03d f46d 51bd
000000c0: ef93 c93d 08fb acba 9b1f b7bc 5eec 15bb
000000d0: f502 a93d 5447 b13d 3e62 0a3c f02a 163d
000000e0: 4953 093d 291d 473d cab6 ad3d fac7 3fbc
000000f0: f025 4bbd cc21 6f3d a680 5d3d 00d6 47b9
00000100: 01c3 04ba 1800 94bd e950 6abd 4e80 513d
00000110: 2ff2 553b ece7 633d 665c 443d e2a4 0ebc
00000120: 8982 1d3d 3f5f a3bd b915 b93d 3367 8b3d
00000130: 3adf c8bd 5e81 553d c93f 4f3d b084 55bd
00000140: 2fa7 273c 9a42 863d 2f79 5cbd c9f2 5abc
00000150: faee 9abd 5667 893d a5b3 80bd ea3d a13d
00000160: 5858 68bd 87ad 2bbd fa66 cd3d b68b 64bd
00000170: 3ebc c83d e265 8f3d 5c5b e93c 0958 b7bc
00000180: 2f06 363d 805f 85bb 53b2 133c 7735 e13d
0.012626244 0.003375457 0.022819154 -0.0037966722 -0.10068195 -0.09717416 0.036339793 -0.02447378
-0.082815275 -0.014200583 -0.07518064 0.067996 0.03429064 0.07122123 -0.06364623 0.059323166
0.061058387 -0.084464274 0.008950645 0.0036889336 -0.034775186 0.08169714 -0.057318825 -0.07794744
-0.07917095 0.014973851 -0.08618285 -0.09694876 0.019676398 -0.081441 0.029135158 -0.0095419325
0.046185877 0.03255341 -0.0739447 0.04799514 0.11801742 -0.09318634 -0.07880552 0.07005255
0.006089759 0.03588921 0.087305725 0.05426514 0.06614937 -0.011550366 0.102008276 -0.05113025
0.09842669 -0.0013197372 -0.022353938 -0.0022876482 0.08252517 0.08656183 0.008446274 0.036662042
0.033526693 0.048611794 0.0848213 -0.011705393 -0.049596727 0.05838184 0.054077767 -0.0001905784
-0.0005064458 -0.072265804 -0.05720607 0.05114775 0.0032645573 0.0556411 0.04793968 -0.008706303
0.038454566 -0.07977151 0.090373464 0.06806793 -0.09808202 0.052125327 0.05059794 -0.052128494
0.010232731 0.06555672 -0.053826507 -0.013363549 -0.075651124 0.06709163 -0.062842645 0.07873137
-0.056724876 -0.041913535 0.10029407 -0.0557973 0.09801529 0.070018545 0.028485946 -0.022380846
0.04443949 -0.0040702224 0.009014684 0.10996526

layers.3.layers.0.weight f4 [100, 100, 1, 1]
00000000: 0f59 f8bc dbda 81bd e056 5cbd 4087 aebc
00000010: 266e 863b 7bde 0ebd b4cf 4a3d 8b5a 9f3c
00000020: e76e 73bc 1ff1 8e3d 30d9 96bd 40c8 853d
00000030: 242e 1d3d a38d 823d eb51 ae3d f081 8abc
00000040: 7c86 60bc d1a1 b53c 83eb 75b9 e7d1 523c
00000050: b330 bbbd 37f2 19bc 2af4 59bc b8c5 85bb
00000060: 02a0 413d 83d6 bcbc 192d 63bc 134a 8f3c
00000070: 03d4 15bd 4827 94bc 5f32 bfbc c054 0b3e
00000080: 34d0 573c f19f 623c 3278 c9bd 96f6 e8bc
00000090: ec5f 81bd 0fbb 77bd 3f77 86bd a6c6 b9bd
000000a0: 7a1d b9bd 299f 0ebd 7495 b6bc 829d 683c
000000b0: 3260 5c3d 776a 853d e35e 66bd 32ef b7bc
000000c0: 4a08 773d f5c2 fdbb f037 dfbd 18b2 36bc
000000d0: 8fc6 08bc 6b1b c03d 6d1b 75bc 8504 963d
000000e0: 4ba8 083e eab3 80bd 48a2 5ebd 7556 84bd
000000f0: 9510 b0bd 29b0 cbbd 90e0 ae3d 00f1 7d3b
00000100: bd67 c2bc 9503 98bd 0a3f b83d a22e 19bd
00000110: 2053 0f3d 2e28 773d b478 9d3d 444f 4abd
00000120: 3533 8f3d ca1f ab3d 7fab 83bd 2c2b 4fbd
00000130: ea90 243d 5090 4d3d a729 c5bd f0f6 51bd
00000140: 6861 663d 4fa0 1cbc 59cd 62bc c787 8e3d
00000150: 34da 14bd 172a 78bd fabd 88bd 6f88 ebbc
00000160: b552 82bd c713 023d 3039 14bd d036 adbd
00000170: f4a2 5b3d d812 813c af81 a0bd 6027 b43c
00000180: 88be 87bd 18d9 6fbc 5b1e cc3d 5cfa 6d3d
00000190: fbf6 723d 3f8b 56bd b844 a93d bff6 c73d
000001a0: 89cb 78bc b5fe fbbc 761e a83d 2029 8bbd
000001b0: 0676 ba3c 0675 9b3d 6aa6 173d 406c a8bd
000001c0: 9634 17bd 644d 72bd 369e 323c 4745 a03d
000001d0: bd63 b8bc 6370 79bd e413 bebc c9c3 8dbd
000001e0: af2e b53b 1c08 82bd 11f2 3abd ef76 573c
000001f0: aa7b 3e3b 8057 c03c cfa0 bdbc eaef 2a3d
00000200: 31b1 193d 525d 4a3d f014 203e 7f5e 0f3d
00000210: 21fb 263d 3a66 363d de9c 71bd 0017 c13d
00000220: 399a 74bd 42b8 963d 4e7b 193a 4c31 d33c
00000230: 612a 9e3b 4055 fd3d 49f6 8dbd 823e eb3c
00000240: 0dac f1bc f99a a03c 2d2c d13c 7007 afbd
00000250: 41b3 ca3d 68f4 1e3d 5134 b9bd 83bb 8ebd
00000260: 787b 473d 5973 163e d83a 063d 9834 c9bd
00000270: 8145 293b adcb 7d3d 6089 9c3c 4064 ee3d
00000280: c0da b33a ae69 4bbd af9a 79bd ba69 153d
00000290: 6ca1 a83d 7271 363d 6718 cdbc 6cf0 653d
000002a0: b6f7 cb3d 7521 83bd e9ed 81bc 502a 8fbd
000002b0: e3fb 24bc 7232 f13d 699e 2e3d 7089 5bbc
000002c0: 7225 b0bd f0df 97bd 74ac b43b a226 633d
000002d0: 2794 7bbd 367b ce3d eeb4 c63d 429b a23b
000002e0: ecd7 0f3d 58c5 d33b 67b5 613c da1f 993d
000002f0: ba5e ccbd c64a f6bb 0fb7 433b d30e c5bd
00000300: 3c92 e93b e206 96bd 0d9f dc3d ae70 c7bc
00000310: 8dc7 87bd 2194 c23d 2f26 dfbd 1b52 11bc
00000320: bca3 453d 28b2 d93d 7a4d 20bd c3f8 b43b
00000330: 6532 803d 90bc adbc bc13 9abd 64b5 16bd
00000340: 9491 053d 4a8b 51bd fd9e 76bd 1fc3 e0bd
00000350: 244e 00bc 70ea 8b3d 4e47 013e ce7e 2d3d
00000360: 7fb6 1f3d 0323 133c 5736 013c 65f3 3abd
00000370: 4cd1 c03d aa85 983d e61b 5c3d 87ae 5f3d
00000380: 3a12 98bd ccb0 a73d bd6e 233b 1c79 e9bb
00000390: 0083 12bc fe50 ea3c 41e9 2abd cf3b d1bc
000003a0: 97c5 ab3d d555 93bd 79f6 223d fe50 983d
000003b0: 289f 3ebd 3de0 653c a174 48bd ad36 c53d
000003c0: 3604 983d 7d3c 7dbd 238e 0b3d c0d9 97bd
000003d0: 21fe 98bd 974c fb3d 0d05 af3d 3f5f a33d
000003e0: d392 563c a5b1 273d d8ae dfba d82d 11bd
000003f0: a931 d03b b0e5 d83c 5e52 1b3d 121b 2abd
-0.030315904 -0.063405715 -0.053793788 -0.021304727 0.004102486 -0.034880143 0.049514487 0.019452354
-0.014857984 0.06979584 -0.07365644 0.06532335 0.03837408 0.06374671 0.08511718 -0.016907662
-0.013703939 0.022171887 -0.00023452756 0.012867427 -0.09140148 -0.009396127 -0.013302842 -0.004082408
0.047271736 -0.023051506 -0.013865733 0.017491376 -0.036579143 -0.018085137 -0.023339448 0.13606548
0.013172198 0.013832078 -0.098373786 -0.028437894 -0.06317124 -0.060481127 -0.06565713 -0.09071092
-0.09038825 -0.034819756 -0.022288062 0.014197709 0.053802676 0.06514447 -0.056242835 -0.022452924
0.06031064 -0.007744188 -0.10899341 -0.011150859 -0.008348121 0.093802296 -0.014960152 0.07325081
0.13345449 -0.06284316 -0.054353982 -0.06461803 -0.08596913 -0.09945709 0.08538926 0.0038748384
-0.023731107 -0.07422558 0.08996399 -0.03739799 0.034991384 0.060341053 0.07689038 -0.049392
0.06992189 0.08355673 -0.06429195 -0.05057828 0.040177263 0.050186455 -0.09627085 -0.05126089
0.056245238 -0.009559705 -0.013842904 0.06959491 -0.036340907 -0.060587015 -0.0667686 -0.02875158
-0.06363431 0.031757142 -0.03618735 -0.0845772 0.0536222 0.015756056 -0.07837235 0.021991432
-0.06628138 -0.0146391615 0.09966727 0.05810009 0.05931757 -0.05237889 0.0826506 0.0976386
-0.015185245 -0.030761102 0.08208935 -0.06794953 0.022761356 0.0759068 0.03702394 -0.08223772
-0.036915384 -0.059155837 0.010901978 0.078257136 -0.022508496 -0.060898196 -0.023202844 -0.06922109
0.0055292468 -0.06349203 -0.04564101 0.013150915 0.0029065409 0.023479223 -0.023147969 0.041732706
0.0375225 0.049405403 0.15632987 0.035002228 0.04076684 0.044531085 -0.05898749 0.09428215
-0.05971739 0.07359363 0.00058548606 0.025780343 0.0048268293 0.12369776 -0.06931741 0.02871633
-0.029500986 0.019605147 0.02553376 -0.085463405 0.09897471 0.038807303 -0.09043182 -0.06969359
0.048701733 0.14692439 0.03277096 -0.098244846 0.002582878 0.06196182 0.019108474 0.11640215
0.0013721809 -0.04966133 -0.060938533 0.03647778 0.08233914 0.044541784 -0.02503605 0.056137487
0.099593565 -0.06402866 -0.015860515 -0.06990492 -0.01006982 0.117772 0.04263154 -0.013399467
-0.08600892 -0.074157596 0.005513722 0.055456765 -0.061420586 0.10082094 0.09702478 0.004962356
0.03511803 0.006462734 0.01377616 0.07476778 -0.09979005 -0.007516238 0.002986375 -0.09621968
0.007128028 -0.073255315 0.10772524 -0.024345722 -0.06629858 0.095009096 -0.10895955 -0.008869673
0.048251852 0.10629684 -0.039136387 0.005522819 0.06259612 -0.021208078 -0.07523295 -0.03679408
0.032609537 -0.051158227 -0.060210217 -0.109747164 -0.00783113 0.06831825 0.12624857 0.04235726
0.0389924 0.008980515 0.007886491 -0.045642275 0.0941492 0.074473694 0.053737544 0.0546098
-0.074253514 0.08188018 0.0024937831 -0.007125033 -0.008942366 0.028603073 -0.041726355 -0.025541214
0.08387297 -0.071941055 0.039785836 0.07437323 -0.046538502 0.014030513 -0.04893935 0.09629569
0.07422678 -0.061825264 0.0340711 -0.074145794 -0.07470346 0.12270468 0.08545885 0.07977151
0.013096529 0.0409409 -0.0017065657 -0.03544411 0.006353576 0.026476711 0.03792035 -0.041529723

layers.3.layers.0.bias f4 [100]
00000000: 01f0 323d 1278 60bd 3377 bb3d 1fb7 87bd
00000010: f99d 5c3d 07e3 7cbd 95d9 f9bb ce1d 0b3d
00000020: 2b3f c2bd ebca a9bd 7821 f7bd afe1 2f3d
00000030: 1514 2bbd b095 9a3c 36cc 9739 3a86 863d
00000040: 8d91 47bd 7448 8cbd 93a5 06bd 7ee9 c43d
00000050: 5e3d d73b 2434 a43d cbce 02bc 3b37 1b3d
00000060: 1ebb e13d 94ce 543d abfb e13c e465 a7bc
00000070: c225 a43d ccdf 033e d433 b03d 7aae fa3c
00000080: 3da0 423d ff24 cdbc 35c8 babc d458 c13d
00000090: 1b78 a03d ea79 77bd 37e6 b2bd ad29 adbd
000000a0: 5c15 82bc 2c96 233d 95a0 48bd a29b d6bc
000000b0: 611c 0f3d 0656 893c 03aa 91bd 50a1 96bd
000000c0: 8633 053d 7574 c83d afb5 cb3b 1fbf d23d
000000d0: f5ad 6fbd 315f a73d 8f96 173d d3c8 85bd
000000e0: 4915 9a3d 9d82 89bd 4b64 5b3d 9398 e73d
000000f0: 37ae 9fbd 378a 21bc e1ac c03c 17db 523d
00000100: 40b8 0d3e 4f36 2cbd 5299 b63d d32d 82bb
00000110: 4b84 97bd fdbf 723d 2377 ea3a 89bc be3d
00000120: 490f cd3c cd07 83bd df14 72bc 737b 19bd
00000130: f6d2 8bbd 3c62 c4bd e819 783c 025b 6abd
00000140: 2cfc 4d3c 99e3 8f3b 633a 64bd 3de7 ba3d
00000150: 6173 823d 39c7 aabb 9f8c d63d abfd b6bd
00000160: e0d5 c33d 7f96 86bd 0adb fcbc 6bdf 21bd
00000170: 3749 60bc dc85 993d c8c2 013e 4ff4 ccbd
00000180: 42d8 883c 2306 4abd 48d1 1c3d 5683 993c
0.043685917 -0.054802008 0.09153595 -0.066267245 0.053861592 -0.061739948 -0.0076248148 0.03396397
-0.094847046 -0.08290657 -0.120669305 0.042939838 -0.0417672 0.018870205 0.00028953113 0.065685704
-0.048722792 -0.06849757 -0.032872748 0.096148476 0.006568595 0.080177575 -0.007983874 0.03789447
0.11022018 0.05195482 0.027585825 -0.020434327 0.08015014 0.1287834 0.086036354 0.030600775
0.047516096 -0.025042055 -0.022800544 0.09440771 0.07835408 -0.060419 -0.08735316 -0.08455215
-0.015879326 0.039938137 -0.048981268 -0.026197258 0.034939174 0.016764652 -0.07112505 -0.07354987
0.03251984 0.097878374 0.0062167267 0.1029036 -0.058515508 0.08172453 0.03700882 -0.06532445
0.07523591 -0.06714366 0.053562444 0.11308398 -0.07796901 -0.009859613 0.023519935 0.05147847
0.13839817 -0.04204398 0.08915962 -0.003972748 -0.0739828 0.059265126 0.0017888289 0.09313304
0.025031703 -0.06397972 -0.014775484 -0.037471246 -0.06827347 -0.09589049 0.015142895 -0.057215698
0.0125723295 0.0043911454 -0.055719744 0.091261365 0.06369663 -0.0052117375 0.1047604 -0.08935102
0.09562278 -0.065716736 -0.030866165 -0.03951971 -0.013689331 0.07496235 0.1267196 -0.10007536
0.016704682 -0.04932226 0.038285524 0.018739384

layers.4.layers.0.weight f4 [10, 100, 1, 1]
00000000: 9157 403d f34c 023c 5aa1 89bd 9676 2c3e
00000010: 1446 d23d cafb a23d 329b 6f3d 2b95 58bd
00000020: 8a8a bebd 7098 c6bd e807 8f3d 8ab5 8ebd
00000030: 1094 713d 14bc 063c c3cf ffba 64f2 abbd
00000040: ece6 be3d fc5b f03d 416d fcbd 1e03 f8bd
00000050: e25e c33d 88da 64ba 7aef 443e 78cb 64bb
00000060: c6e6 2dbe f404 f03c 45dd 623d f48c 623d
00000070: c3a4 7d3d b2b3 55be 5f9c 80bd 89a0 8c3d
00000080: 2534 a6bd cd4a e7bd 25de 073e f7c6 c93c
00000090: 98ff 3a3c dcde d43d 620b 30bd 61e0 a83d
000000a0: bad2 9e3c 8f20 e03d 67ed 72bc 005d 54bd
000000b0: ce64 1e3d 55db 3ebe c49d 3ebd 5666 543d
000000c0: f477 08bd 6e76 0abd 49ab ce3c 56fa 2dbe
000000d0: 7ea1 a3bd 4f26 843d 2e8c 53bd 2981 f53d
000000e0: 5eea a43c d43c 4c3d 74dd dc3c 92d0 88bd
000000f0: 44a8 9ebd 2a3d c4bc 288f 2ebd 3192 fabd
00000100: de8f 28be f5a5 903c c197 353c d147 fd3d
00000110: f950 143c e016 36be 348d 2a3b 9d30 4a3e
00000120: 000a 063e e761 d53c 9a75 15be 2662 88bc
00000130: 3d01 ecbd f859 bdbd 7292 5ebd cafd 3bbd
00000140: 4493 9b3d 8942 cfbb 307b ccbd 3d69 653d
00000150: 94bc 4a3d 5dd1 c5bd 3acb 9dbc 2eff 91bd
00000160: 9859 52bd e4a3 59bc 5616 75bd 3b13 c63d
00000170: 5e4a 09be 0403 2b3d 7ee9 8dbe b5e1 21bc
00000180: fe9e e6bc 207e bfbb 2f81 1c3e 9e27 633d
00000190: 07c6 813a f156 94bd 1592 c73d 0cb1 15be
000001a0: 2979 8f3c 47de ba3c 6f4d 993c a08b 213d
000001b0: 5e7f 94bd be97 43bc 5447 0a3d 6441 3f3d
000001c0: 5b19 853d cbcd 65be 95c7 32bb 609b 333e
000001d0: 5035 403d e975 82bd 031b e9bc 4d1c e03d
000001e0: acdd 5fbe a6d8 4f3d 0416 04bd 0bf2 aebc
000001f0: 7778 f3bc 3d73 083e fde5 a0bd e47b 2a3d
00000200: ff11 c43d b44e 153e a46c 7fbd cab1 fabb
00000210: 5847 28bd 03cc 09be 7c3d a3bb ebf8 90bc
00000220: 55e3 953d 783f 97bc 8498 063d 6c5c dc3c
00000230: ba50 ecbd dd30 403d fc83 76bc f0c4 1b3d
00000240: d278 bc3d bfcb 583c fe67 adbd 2ce6 d9bc
00000250: 40f7 11be 0ba4 043d 2395 263d d85a d23c
00000260: fab5 9cbc ac49 14bb 92bc 8ebd 8710 15be
00000270: e088 3cbe 592a e23c 6f31 a4bd 735e cb3d
00000280: e096 c3bd 3ec8 07bd 2986 e1bc 4188 393e
00000290: 8e2b 443e 7177 88bd f997 aa3c 51b9 59be
000002a0: e9c5 e5bc 3af0 d0bd ff5b 11bd 0dfa 52be
000002b0: 708b a8bd f4c9 29bd 1058 153d 6a84 9d3d
000002c0: ae80 87bd 9bb7 1c3c 19eb 583d eae2 02bd
000002d0: 2f8f 8f3d c154 ebbd 1d66 4dbd 4b17 893d
000002e0: 10bd 143e 0cfb 29bd 482d e23d 2544 83bd
000002f0: e625 6cbd 5865 e2bc a9f4 d73d e6ba d5bd
00000300: 21cd ef3d 0c9b ddbc 7c42 4b3e fdf6 233d
00000310: 50cf 93bb bd7e 933d c5d4 21be 37f5 bc3c
00000320: c3cf 6f3d ccd1 dbbd 03dd fb3d c2f9 9fbd
00000330: 7586 14be a9a1 4b3d 56bc e33d 3d6c ecbd
00000340: 0951 993d 3002 a93d f907 6a3d b7b6 8dbd
00000350: 399c 063c f606 9fbd 9979 023c d2cf b13d
00000360: 1b53 f1bd 487f 1e3e 6e6a 5bbd 1dc2 f0bc
00000370: 2f12 44bd 42ae a1bd a858 a4bd 25dc e33b
00000380: 306e d7bd 9811 ed3d fb30 a5bd f23c b5bd
00000390: ea21 393d cf8d babc 5171 383e e2bc f9bb
000003a0: 7421 4d3d 0049 5e3e 7c00 2bbd a439 eebc
000003b0: d94f 123c 422a b5bd 3adb f13d bd5a 06be
000003c0: ab77 c3bd 300a 083e 32b3 743c 4292 47bd
000003d0: 92d0 20bd 663f c03c 6d39 643c 46a9 b53d
000003e0: e27a 223d dd78 513b c12d 93ba ca45 d2bd
000003f0: 1602 913d 7a5b 3cbe 3726 1a3d d1c3 c2bd
0.04695851 0.007952916 -0.067202285 0.16842112 0.102672726 0.07958181 0.058497615 -0.052876633
-0.09303768 -0.09697044 0.0698393 -0.069682196 0.058979094 0.008223552 -0.0019516874 -0.08395842
0.093213886 0.117362946 -0.12325526 -0.121099696 0.09539582 -0.00087300735 0.19231978 -0.0034911316
-0.16982564 0.029299237 0.0553868 0.055310205 0.061924707 -0.2086933 -0.062798254 0.06866557
-0.081154145 -0.11293564 0.13268335 0.024631007 0.011413477 0.103940696 -0.042979605 0.08245922
0.019387592 0.1094371 -0.014827109 -0.051846504 0.038670354 -0.18638356 -0.046537176 0.051855408
-0.03331752 -0.03380435 0.02522816 -0.16990027 -0.079897866 0.06452619 -0.051647358 0.11987526
0.020131286 0.049862698 0.026961066 -0.06680407 -0.07746938 -0.023954947 -0.042616993 -0.12234915
-0.16461131 0.01765726 0.011083544 0.123672135 0.0090525085 -0.17782164 0.0026024105 0.19745107
0.13089752 0.02604766 -0.14595643 -0.016648363 -0.11523674 -0.09245676 -0.05433888 -0.04589633
0.07596448 -0.0063250703 -0.09984434 0.056008566 0.04949625 -0.096590735 -0.019261945 -0.0712875
-0.051354975 -0.0132837035 -0.059835754 0.09671637 -0.13407275 0.041750923 -0.27717203 -0.009880473
-0.028151985 -0.0058438927 0.15283655 0.055457704 0.0009900936 -0.07243145 0.0974466 -0.1461832
0.017513828 0.022811068 0.018713681 0.039439797 -0.07250856 -0.011938034 0.03375943 0.04669322
0.06498977 -0.22441785 -0.0027279605 0.1753974 0.046925843 -0.06370146 -0.028455263 0.10942898
-0.21861905 0.05074372 -0.03224756 -0.02135565 -0.029720528 0.1332521 -0.07856367 0.041622058
0.09573745 0.14580804 -0.062359467 -0.0076505886 -0.041083664 -0.1345673 -0.0049816947 -0.017696818
0.07318751 -0.018462881 0.032860294 0.026899539 -0.11538835 0.0469216 -0.015046116 0.03802961
0.09202732 0.013232171 -0.084671006 -0.026599012 -0.14254475 0.032383006 0.04066957 0.025678083
-0.019129742 -0.002262692 -0.06969561 -0.14557086 -0.18411589 0.027608084 -0.08017241 0.09930124
-0.095502615 -0.03314995 -0.027529793 0.18118383 0.1915724 -0.06663407 0.02082442 -0.21262099
-0.028048472 -0.102020696 -0.035488125 -0.206032 -0.082297206 -0.041452363 0.036460936 0.076912716
-0.066163406 0.009565259 0.05295858 -0.031954683 0.07009732 -0.11490775 -0.05014621 0.06693896
0.14525247 -0.041499183 0.11043793 -0.06409482 -0.05765333 -0.027636215 0.10544712 -0.10436039
0.11709047 -0.027051471 0.1984958 0.04003047 -0.0045107976 0.07201908 -0.15803821 0.023066146
0.058547746 -0.10733375 0.12298014 -0.078113094 -0.14504416 0.049714718 0.111199066 -0.11544082
0.07486159 0.0825237 0.05713651 -0.06919616 0.008215957 -0.077649996 0.007963561 0.08682217
-0.11783429 0.15478241 -0.053568296 -0.029389435 -0.047868904 -0.07894565 -0.08024722 0.0069537335
-0.105190635 0.11575621 -0.08065983 -0.08849515 0.04519836 -0.022772698 0.18011977 -0.0076213935
0.05008073 0.21707535 -0.04174851 -0.02908022 0.00893017 -0.08845951 0.11809392 -0.13120551
-0.09544309 0.13285136 0.014935302 -0.048723467 -0.03926141 0.02346773 0.013929707 0.08870177
0.03966797 0.003196291 -0.0011228846 -0.102672175 0.07080476 -0.1839427 0.0376341 -0.09510005

layers.4.layers.0.bias f4 [10]
00000000: c5d0 4c3b 7afe 3b3d 7ff8 02bd fa43 61bc
00000010: 19a3 123d bf75 3bbc 9cae 1dbd 5fd8 fe3c
00000020: 562d 04bd 683e 813d
0.0031252366 0.045896985 -0.031975266 -0.013749117 0.035800073 -0.011441647 -0.0384966 0.031109033
-0.0322698 0.06310731
