Topics/Convolutional Network/output/fcnn.pth (torch, 141128 bytes, 10 tensors)

layers.0.layers.0.weight f4 [4, 1, 3, 3]
00000000: 8343 4f3e b72a 43be e963 11be d3cd 2b3e
00000010: 1f02 a83e cfbe ef3e 5f99 a13e a640 343f
00000020: 0776 353f 8eff ab3d 81b8 3b3f 55ba 513f
00000030: 3d5d 583f 62c1 793f 05d9 4a3f 995a ca3e
00000040: d862 583f 5bd9 6f3e 4a67 44be 018b 7f3c
00000050: c44a 523d 42ee 44bc 203c 0f3e 041d 0f3e
00000060: 0790 95be 3cb9 11be d840 9dbe ebdb 45be
00000070: 9b65 fdbd 5905 e73e 61c3 113e ce72 b93e
00000080: 1947 0b3e f667 3a3e 0930 743e 048a 68bd
0.20240597 -0.19059263 -0.14198269 0.16777734 0.32814118 0.46825263 0.31562325 0.70411146
0.7088322 0.083983526 0.73328406 0.81924945 0.8451727 0.97560704 0.79237396 0.39522246
0.84525824 0.23422758 -0.19180027 0.015597106 0.051340833 -0.012019696 0.1398778 0.13975912
-0.29211447 -0.14230818 -0.30713534 -0.19322173 -0.12372895 0.45121267 0.14234687 0.36220402
0.1360134 0.1820372 0.23846449 -0.056772247

layers.0.layers.0.bias f4 [4]
00000000: 5461 833e b4d3 ceb8 c66c a1be 7a70 dc3d
0.25660193 -9.862278e-05 -0.315283 0.10763641

layers.1.layers.0.weight f4 [9, 4, 3, 3]
00000000: 08f2 a43d 6151 b83d 355b d83c 4e5f 14be
00000010: 16e0 c6bc 26d5 54bd 39eb 533d 2b77 46bd
00000020: 5ef8 babd a2e2 0fbe f2c9 0dbe c0e5 d2bd
00000030: 2471 1abe 7711 bebc 7358 383e 4768 8e3d
00000040: 5555 dbbd 3785 933c c6ac 90bd 611c 1f3e
00000050: 3d21 9abc ab05 e2bd 411b 623d 0a4e 17bc
00000060: 4ca7 99bc 04da 84bd 03c5 42bd 0e1d 26bc
00000070: 62b9 233e cdd1 bbbc 1c31 053d cef2 debd
00000080: 107f 5b3c caa6 f03d 511f 0d3e b030 043d
00000090: 0968 043e ad9b 9cbb 79c6 01be df9b ac3d
000000a0: 6e13 913c 0cd9 253e 7afb 913e beff b23e
000000b0: 4f2f 993e 219f 1f3e fc24 153e 93ff 003e
000000c0: ca14 c13d edc0 b73d fdbd 30be aead 533e
000000d0: 7aed 703e 0d57 da3e cbf9 043e 7384 07be
000000e0: 6c23 cbbd c104 213b da60 0f3e db3f 063e
000000f0: 9ce2 2e3c a4a8 f23d 520d 8c3d afa8 a03d
00000100: 5f03 d83c f667 94bd 19d1 123e 95e8 923d
00000110: 309d eebd d980 063e 9f37 8ebc 970e dc3c
00000120: 9b02 7a3e 19d0 6b3d 1f35 453e ead0 073e
00000130: 6e01 a83e 1807 813e 2b53 a33d 8e4c 233e
00000140: 5760 243e 43aa 213e fc8c 53bd 0138 4ebd
00000150: cbb8 9d3e 5e74 d43e c13e cf3e 6eec bb3e
00000160: 3d3e da3e a939 123f 1f64 c9bd 2b06 d5bc
00000170: 01d1 683d f5e7 0abe febc 97bd 717a 0dbe
00000180: a174 c93d 9889 e03b 255b 313a 623f a53d
00000190: fd7b 12be 743b 11be cfc7 f23d 79b7 6d3e
000001a0: 50b6 423d 8ac6 00be 7a68 233e 73dd 863d
000001b0: f718 473e 33c4 aa3d 7bff ac3d aad3 fe3d
000001c0: c7d6 9cbd d1be c7bd cc63 48bd 6996 3abe
000001d0: 9d64 6fbe 94ab 943d 243e e13d 0de6 8d3e
000001e0: b18a da3d 3ca1 e13d a564 1abd fe50 69be
000001f0: 2cd1 83be efe6 8abd e64c 6abd 3531 d23d
00000200: f661 7a3d 5f4d 1bbe a4fc 28be 5144 b93d
00000210: bea8 673d 764d ffbd f924 6a3d 340b 3f3e
00000220: dd68 2f3c 4ce4 093e 0c32 c5bc 90aa e93d
00000230: b61f 963c b357 48bc 9459 09be c992 88bd
00000240: 6cd4 753d 8513 b4bd 47d0 20be c130 c2bd
00000250: d690 f23d 5fbc 24bd 0db3 1fbe c2a4 eebd
00000260: c419 13be e367 0fbc 934d 453d a62f 44bd
00000270: bf10 20be 3d00 0b3d 544f a43d 82f9 883d
00000280: 120a f6bd cc59 183e 545e d03d aab1 cabc
00000290: 6263 4b3d 391e 013e 58df 6ebd 55e3 2abd
000002a0: 8625 2abe d475 9abc 069a 1f3d 6569 c03d
000002b0: 2025 193d 582f 13be 1857 283e 32e6 163d
000002c0: e009 d2bc 6ac4 11be 4e57 ca3c af97 bebd
000002d0: e2e2 aabd 512d 5a3e 3c61 f73d 27eb ec3d
000002e0: 48e8 01bd 3104 093e 9f44 2e3e 7f8e 90bd
000002f0: 8421 4ebe ddae 8cbe 40ec 893e 159d f83e
00000300: b943 393d fe3b b33e 8387 9b3e 2278 683e
00000310: 06dd 843e dc65 11be 51a3 eebd 84ab d8bd
00000320: 2a44 883c de23 70bd 6bcf 4bbd 38b0 293e
00000330: beb2 cebd c622 b73d 7f76 f4bc a8b9 ad3d
00000340: 4ad7 8e3d 1968 2abd 8bef 533e d0f5 2f3e
00000350: 107b 9bbd e4f7 6f3e d535 833c a6a5 60bd
00000360: 4485 8b3e 237c 943e 72df 253e 69b9 9a3e
00000370: 13ea d2bc 5973 e53d 1475 c73c 3bd5 8a3d
00000380: 5d6b c93b 72a7 a93e 98c0 e23e e60e 253e
00000390: 2340 1a3f 59a3 043f 0410 c53c 196c 883e
000003a0: 612e 8b3e eb15 173e 403d 233e fe93 18ba
000003b0: edd3 f4bd f7ca 85bd 03c7 0c3e dc7c f13d
000003c0: 61b8 973d 310c d13c dd35 863d 1461 66bd
000003d0: c6fe 743e 706b e9bd 585e 653e 4196 9ebd
000003e0: a2f6 f3bc a692 d13b b844 f3bd c10e edbd
000003f0: 0457 853e 1f76 653e 5e94 283e 36b7 033d
0.08053976 0.08999897 0.026410678 -0.14489481 -0.024276774 -0.051961087 0.051737998 -0.04845349
-0.091294035 -0.14051297 -0.13846567 -0.102977276 -0.15082222 -0.023201687 0.1800249 0.06953483
-0.10709635 0.018007858 -0.07064204 0.1553817 -0.018814677 -0.11036237 0.055201773 -0.009234915
-0.018756531 -0.06486896 -0.047551166 -0.010138763 0.15988687 -0.02292719 0.032517537 -0.10886155
0.013396993 0.117505625 0.13781478 0.032272995 0.12930311 -0.0047793 -0.12673368 0.084281676
0.01770946 0.16196078 0.28512174 0.3496074 0.29918906 0.15588047 0.1456489 0.12597494
0.09427793 0.089723445 -0.17259975 0.20671722 0.2352809 0.4264454 0.12985913 -0.13234119
-0.099188656 0.0024569484 0.1400179 0.13110296 0.010674145 0.11848572 0.06838478 0.07844674
0.026368795 -0.072463915 0.14337577 0.07173268 -0.11651075 0.13135089 -0.017360507 0.026862426
0.24415056 0.057571504 0.19258545 0.13263288 0.3281359 0.25200725 0.079748474 0.15947172
0.16052376 0.15787606 -0.051648125 -0.05034638 0.30805048 0.4149503 0.40477565 0.3670382
0.4262561 0.5711923 -0.0983355 -0.026003918 0.056839947 -0.13565047 -0.07409094 -0.13816239
0.09836698 0.00685234 0.0006765596 0.0806873 -0.1430511 -0.14182836 0.11854517 0.2321452
0.047537148 -0.12575737 0.15957823 0.06585207 0.19443117 0.08338203 0.084471665 0.124427155
-0.07658153 -0.09753192 -0.0489233 -0.1822144 -0.23378225 0.072592884 0.109981805 0.27714577
0.106709845 0.11017081 -0.03769364 -0.22784802 -0.25745523 -0.06782328 -0.057202242 0.10263292
0.06112858 -0.15166233 -0.16502625 0.090462334 0.05655741 -0.124659464 0.057164166 0.18656617
0.010706154 0.13465995 -0.024071716 0.11409485 0.018325668 -0.01222794 -0.13413078 -0.06668622
0.060017034 -0.087927856 -0.15704452 -0.09481955 0.118440315 -0.040218707 -0.15595646 -0.11652519
-0.14365298 -0.008752796 0.048169684 -0.047897004 -0.15631388 0.033935774 0.08022943 0.06688215
-0.120136395 0.14878005 0.10174242 -0.02474292 0.049655326 0.12609185 -0.058318466 -0.041720707
-0.16615877 -0.018855013 0.038965248 0.093951024 0.03738892 -0.14373529 0.16439474 0.036840625
-0.025639474 -0.14235082 0.024699833 -0.09306275 -0.08344056 0.2130635 0.12079093 0.11568289
-0.03171566 0.13380505 0.17018364 -0.07058429 -0.20129973 -0.2747716 0.26938057 0.48557344
0.0452306 0.35006708 0.30376825 0.22702077 0.25949878 -0.14199013 -0.11652244 -0.10579589
0.016634066 -0.058627956 -0.049758356 0.16571128 -0.10092686 0.089421794 -0.02984166 0.08482677
0.06974657 -0.04160318 0.20696847 0.17183614 -0.07591832 0.23434407 0.01601688 -0.054845475
0.2725011 0.2900096 0.16198519 0.30219582 -0.02574638 0.112036414 0.02434782 0.06778952
0.006146832 0.33135563 0.44287562 0.16118965 0.60254115 0.5181175 0.024055488 0.26644972
0.27183822 0.14754455 0.15941334 -0.00058203924 -0.11954484 -0.06532853 0.13747792 0.11791393
0.07408214 0.025518509 0.06553242 -0.056244925 0.23925313 -0.11397445 0.2239927 -0.077435024
-0.02978069 0.0063956557 -0.118783414 -0.1157508 0.2604295 0.22408341 0.16462848 0.032157145

layers.1.layers.0.bias f4 [9]
00000000: 22ae ca3d 8a76 91bd 9bb3 6cbd c02e f63d
00000010: 28cc 8c3d 21a9 82bc 8fe1 2f3e 44db 09bc
00000020: 3b4e 4f3d
0.098964944 -0.07102688 -0.057788473 0.120206356 0.06874877 -0.015949788 0.17175888 -0.008414093
0.050611716

layers.2.layers.0.weight f4 [100, 9, 5, 5]
00000000: 31e3 443b ab1d 96bc def9 13bd 3107 d93c
00000010: 6963 11bd 858b 103d 603b 5cbd 43aa e2bc
00000020: f22c 383d a0de 01bd f5cc 413c a0a2 d93a
00000030: 1fbd 5bbd 0402 46bd 0b21 5dbd 8de3 5fbd
00000040: caf5 5fbd 2a16 423d 6f3f 713d 29af 4fbc
00000050: 4e37 433d 4e5b 323d 544d 443d 6bdd 2b3d
00000060: f78f 84bc 347e ae3c 1445 0bbd f855 fabc
00000070: 75d5 483d b6e0 4e3d e584 f23a c725 5f3d
00000080: 3ac9 713b 9c6d 7fbd f7c4 f7bc d48a 1b39
00000090: dc7d 58bd ec1e 5d3d f600 ec3c ebb0 12bb
000000a0: 8bc6 463d 9042 3abd 52da f1bc 6e7a e3bb
000000b0: 231f 65bd 7414 493c cd21 863d e54e 5c3d
000000c0: 5946 0a3d 8782 4fbd 9dba 033d eee4 a9bb
000000d0: ec53 ca3b 35c2 6abd d8fa 1cbc a269 17bd
000000e0: 4405 e5bc 1359 7bbd 9449 4f3c 6272 1ebd
000000f0: 914a 0a3d f069 493d 65f8 cbbc 516a 0ebd
00000100: bf95 0abd 90ce fc3c 5300 7c3d c42a b6bc
00000110: b99f 88bd 28da 543d 3ef7 f23c 0df5 ac3c
00000120: 37b0 85bd 6165 debb aa35 933c a3c9 59bd
00000130: 80f0 1abd f314 68bc b670 e23c e378 bebc
00000140: 8cb8 59bd dece 763c 2de5 23bd 7f3f c13c
00000150: fad6 2c3d 48be e83b 88e3 323d 1ab1 083c
00000160: 9608 5bbd 11ec b1bc a71c 67bd afc9 963c
00000170: 0dbc 693d b419 12b9 ddc9 5d3c 865e d43c
00000180: 60b4 aa3c c7b6 3dbc 5f1e 5d3d 2648 0b3d
00000190: 8235 bb3c be11 13bd 0b90 1e3d 4742 ffb9
000001a0: 21a2 0d3c 4025 7bbd e476 223d 7ad5 433c
000001b0: d0f4 8e3c 5ccd 47bd 289f 5cbb 4b26 2abd
000001c0: d2bc 83bd 11c5 d53c 26fa 6abd 84b3 043d
000001d0: 3e44 7c3c 6e40 363a 49c8 a03b 6c9f 75bc
000001e0: 5bf7 7abd 2d02 d5bc e5c9 113d e153 473d
000001f0: 0a4c bf3b cd4e fe3b d8ac 12bd 892b 0ebb
00000200: 5494 2cbd bd20 f4bc 344c 873d 4ff4 4fbb
00000210: cb75 5e3c cc15 013c e20d 6fbd 9e0f 32bd
00000220: 48a0 ca3b d502 0dbb 54bf a739 cbb3 e1bc
00000230: 082e 87bd 3cbb 1c3d 4538 a03c 4e17 3e3d
00000240: 504f 483c ec79 bc3c 7ba4 4fbc b27e 4ebc
00000250: 1aee 943c 796b 9b3c 4128 80bd c9ad f43c
00000260: 979a f1bc 124f 2ebd c063 bdbc c608 44bc
00000270: 24d7 26bc 1cb4 4b3d 693d 86bd 3ba9 53bd
00000280: aa44 18bd 5fe7 f13c 5696 5bbc e8f5 43bc
00000290: 4b0e 0ebd 60ba 393c 655c 063d cac7 86bd
000002a0: 33f7 253c 5907 133d e55f 443d fe86 253d
000002b0: cca1 f1bc 1db8 51bd c999 9d3a 0b17 9bbb
000002c0: 05c0 e4bc 0235 80bd b49f 7bba 9483 27bb
000002d0: c516 853c 2a0c 893c 0239 16bd 7db8 053d
000002e0: 42ca 86bd 4cbc 773d 1706 85bd cf30 553d
000002f0: 557d f33c fc29 623d 9f6a aebc d823 3a3d
00000300: f354 e13c 40bc 6dbd c29c f1bc 3a08 4a3c
00000310: a970 1bbc 15f5 5f3d e322 dbbc e464 3fbc
00000320: bc38 51bc f870 f5b8 6b90 28bc 8ec6 56bc
00000330: 199d 4bbc 7717 723c 7d78 2cbd f6ed 70bc
00000340: bebd 73bd 6165 04bb d1d3 e7bb 1d68 1d3c
00000350: f273 17bd 956a bb3c f3c2 853d a0c7 d5bc
00000360: 5eb0 2abd 572d cb3c 6c49 fc3c 8f14 1bbd
00000370: 0d53 a43c 4fde 70bd 8024 f53c b703 7cbc
00000380: e0d6 533d c1eb 293d 8058 85bd 0e40 75bc
00000390: 6b3a fbbb ad06 4cbd 5625 eb3c 9d5a 533d
000003a0: 79b3 17bc 962a 89bc f9df 2ebd b881 82bd
000003b0: 0e5c 6d3c 85e2 e63c 39cd 89bb dec3 423d
000003c0: 0fdf 7d3d 4631 5a3d cf45 febc be2b f8bc
000003d0: f777 d6bb 4b9e 97bc 321b abbc f823 013c
000003e0: 6a1f e6bc 0514 c7bc e70d 7cbd 1136 113c
000003f0: ba1c 2cbd d4a2 64bd 4bc4 b0bd 4760 1cbb
0.0030042643 -0.018324694 -0.036126964 0.026492687 -0.035495196 0.035289306 -0.053767562 -0.027669078
0.04496474 -0.031706452 0.011828651 0.0016604252 -0.053647157 -0.048341766 -0.05398659 -0.05466037
-0.054677762 0.04738442 0.058898386 -0.012676039 0.047660165 0.043544106 0.04792531 0.041959208
-0.016181929 0.021300413 -0.034001425 -0.030558571 0.049031693 0.05050727 0.001850274 0.054479387
0.0036893622 -0.06236039 -0.030245287 0.0001483367 -0.052854404 0.053984568 0.028809052 -0.0022383283
0.04852919 -0.045473635 -0.029523049 -0.006942085 -0.055937897 0.012272943 0.06549416 0.053786177
0.033758495 -0.05066159 0.03216039 -0.0051847612 0.006174555 -0.057314117 -0.00958129 -0.036965974
-0.027956612 -0.061364245 0.01265182 -0.038683303 0.03376252 0.049173295 -0.024898717 -0.03476936
-0.033834215 0.030860215 0.061523747 -0.02223719 -0.0667109 0.051965863 0.02965891 0.021112943
-0.06527751 -0.0067869877 0.017969925 -0.05317081 -0.037827015 -0.014165151 0.027641635 -0.023251003
-0.053154513 0.015063969 -0.04001348 0.023589848 0.042197205 0.0071027614 0.043674022 0.008343006
-0.053474985 -0.02171901 -0.05642381 0.018406717 0.057064105 -0.0001393322 0.0135368975 0.025923979
0.020837963 -0.011579222 0.053984042 0.034004353 0.022852663 -0.035905592 0.03871159 -0.0004868677
0.008644612 -0.06131482 0.039664164 0.011952752 0.01745072 -0.04877983 -0.00336642 -0.041540425
-0.06432499 0.026094945 -0.057367466 0.032397762 0.01539713 0.000695235 0.0049066884 -0.014991622
-0.061271053 -0.026002014 0.035592932 0.048663978 0.005837922 0.0077608586 -0.035809368 -0.002169343
-0.042133644 -0.029800767 0.066063315 -0.0031731313 0.013577889 0.007878732 -0.05836285 -0.043471925
0.006183658 -0.002151658 0.00031995273 -0.027551552 -0.06600577 0.038264498 0.019558081 0.046408944
0.012225941 0.023007356 -0.012673493 -0.012603449 0.018179942 0.018972145 -0.06257678 0.029868023
-0.02949266 -0.042555876 -0.023118854 -0.011964982 -0.010183129 0.049732313 -0.06554682 -0.051675063
-0.03717486 0.029529272 -0.013402542 -0.011960484 -0.0346816 0.011335939 0.032802958 -0.065810755
0.010129738 0.03589568 0.047943015 0.04041194 -0.029496096 -0.051200975 0.0012023981 -0.0047329715
-0.027923593 -0.062601104 -0.0009598688 -0.0025560604 0.016246209 0.016729433 -0.03667546 0.032646645
-0.06581546 0.06048231 -0.06495302 0.0520485 0.029722849 0.05521582 -0.021291075 0.04544434
0.027506327 -0.058040857 -0.029493693 0.012331063 -0.0094873095 0.054677088 -0.026750034 -0.011681769
-0.012769874 -0.000117035524 -0.010288338 -0.013108863 -0.012427592 0.014776102 -0.042107094 -0.014705172
-0.059507124 -0.0020202028 -0.007074811 0.009607342 -0.03697581 0.02287797 0.06531324 -0.026096165
-0.041672103 0.024801893 0.030796729 -0.037861403 0.020059133 -0.05880576 0.029924631 -0.015381745
0.051718593 0.041484598 -0.06511021 -0.014968885 -0.007666876 -0.049811054 0.028704327 0.051600087
-0.009259098 -0.01674394 -0.042694066 -0.06372398 0.01448728 0.028184185 -0.0042053727 0.047550075
0.061980303 0.053269647 -0.031039147 -0.030294295 -0.0065450626 -0.018508097 -0.020886991 0.007882111
-0.028091151 -0.024301538 -0.061536696 0.008862988 -0.042019583 -0.055819348 -0.0863119 -0.0023861097

layers.2.layers.0.bias f4 [100]
00000000: 13e2 523d 30af 843d c631 1bbd 535e 48bd
00000010: 8a11 433d c10b 70bd 1ca3 04bd 262f 9e3d
00000020: 6c7b d83c 9b71 503d 31cb 1dbd 38a0 2fbc
00000030: 4371 0b3d bead e3bc d692 a5bc f178 673d
00000040: 54d1 153d 02c7 f93c 3cdd 693c 4e97 b13c
00000050: 3321 a3bc ea62 123d d0cc 7fbd 06c8 513d
00000060: fc4f 733d a85e 66bd cdfb 2cbd 2ef9 783d
00000070: 1ece 28bd 95f4 3a3d ed03 323c 6583 9dbb
00000080: 0d53 59bd 5a2f 1bbd aa6d 433d c82f 0fbd
00000090: 58b8 543d eaef a63c d568 24bc 894c 993c
000000a0: c61b 9e3c cc34 993b 4f94 703d fc16 e23c
000000b0: 1e05 873d e962 223d 6dfe 0c3d 9a7e 24bd
000000c0: 0509 183c 1250 a03d 06de d8bb 134f ba3c
000000d0: 3956 1f3d c167 fe3b 0315 123b e598 593d
000000e0: 0c92 203d 0e3a ebbb c1fc c9bb 831f 30bc
000000f0: c757 2bbc 22ff 76bd 8475 813d 4909 103d
00000100: bc19 663d 7399 1c3d 8acc 26bd a61c 943c
00000110: 466a 01ba 7ea0 26bd 6a32 55bd f487 1b3c
00000120: 7407 1e3d fb7c 4fbc 8864 003c 0047 88bb
00000130: 7409 d1bc 5094 e33c 3242 5fbd fa83 d0bc
00000140: c1ac 1dbd 284b 8e3d 4075 18bd bf1e 78bc
00000150: cbdc 5abc f95a 4fbd 159a b93d daea 103c
00000160: d2c3 33bd 105e 8d3b ed1b 883c 9c1e a93c
00000170: 662b 633d 2a87 7dbc 5a11 5dbd 9414 823d
00000180: e3ad 5c3d c4a2 cabc 0ebb 433d 2a61 5abb
0.051485132 0.06478727 -0.037889265 -0.04891808 0.04762415 -0.05860496 -0.032382116 0.077238366
0.02642604 0.050889593 -0.038523857 -0.0107193515 0.03404356 -0.027792808 -0.020211618 0.056511823
0.036576584 0.030490402 0.014273938 0.021678593 -0.019913292 0.035738863 -0.062451184 0.051216148
0.05940245 -0.056242615 -0.042232323 0.06078451 -0.041212194 0.045643408 0.010865194 -0.004806923
-0.05305772 -0.037886955 0.047712006 -0.034957677 0.051933616 0.020378072 -0.0100347595 0.018713253
0.019300353 0.0046754833 0.058735188 0.02759885 0.06592773 0.03964511 0.034422327 -0.0401598
0.009279494 0.07827772 -0.006618264 0.022742784 0.038900588 0.0077638333 0.0022290356 0.053124327
0.03920178 -0.0071785515 -0.006164164 -0.0107497005 -0.0104579395 -0.060301907 0.063212425 0.035165105
0.056176886 0.038232278 -0.040722407 0.018080067 -0.00049367954 -0.0406804 -0.05205003 0.009492863
0.038581327 -0.012664075 0.0078364685 -0.0041588545 -0.025517203 0.027780682 -0.05450649 -0.025453556
-0.03849483 0.06947929 -0.037221193 -0.015144049 -0.013358305 -0.050623868 0.09062592 0.0088450555
-0.04388792 0.0043141916 0.016614879 0.020644478 0.05546131 -0.01547412 -0.053971626 0.06351581
0.05387677 -0.024735816 0.04778581 -0.0033322074

layers.3.layers.0.weight f4 [100, 100, 1, 1]
00000000: 7db8 9b3d d7a1 a33c 494d 82bd 7cd5 7f3c
00000010: a56d c83c ab15 373d d5a7 95bc 0929 653d
00000020: b097 64bd 2d4e 633d 6ea1 51bd 30fc efbc
00000030: 15df 953d 8ca2 ccbd 50c1 1abd d7de b1b9
00000040: 89c3 b43a 3fbd 81bd ad95 97b9 54ea 973c
00000050: c202 86bc 327b 073d 0903 803d 25b8 0b3c
00000060: 0bbf ae3c 0d98 c53c a152 f33c dfc2 c33d
00000070: 9472 ac3d 7504 423c aff1 d2bd a03c 66bd
00000080: b218 733c 4d6f 85bc b67c 933d 1b85 94bd
00000090: 1a03 b73d 058e a03b 6594 5abd b8b0 bc3c
000000a0: 9ca7 acbd c57c c63d dade 45bd c0b3 3d3c
000000b0: 51ba acbd d3f3 a43d c94c 1cbd c417 96bd
000000c0: 2d1b bb3d 4dfc b8bc 05bd 5dbd c366 65bd
000000d0: 1884 423c e0a8 7b3c c02c 97bd 3cfc b83d
000000e0: 1329 9abd 619f 50bd 6fbe 07bd 2008 b83d
000000f0: 7ff1 9cbd c9c3 0b3d 20f8 be3b 7ed4 543c
00000100: 3896 77bd 139b fdbc 7129 8dbd b09d b2bd
00000110: 099b c1bc f274 35bd 1964 b03d edd8 853c
00000120: f605 55bd a1df a93d 1237 38bd 97c9 603c
00000130: c4ef 70bd ba01 8f3d f135 c5bb d4ae 8abd
00000140: 98bd 6b3d 46d6 2c3d 813a 0dbd a1ee 793d
00000150: dc4a 95bc 8faf babc d648 74bc 6a30 86bd
00000160: 61cf ae3d 786b 85bc c313 353d d0a4 c03d
00000170: 80f7 c63d 7cfe 3b3d 0dea 86bd 28db b13c
00000180: 5703 b1bd 1b18 98bd 268e e3bc 4ae7 0ebd
00000190: 88fb 9e3c 0a5a 5a3b c1fb afbd c97e ab3d
000001a0: 9e9d 2fbd 561f ca3d c0b1 b4bd 4ce9 50bb
000001b0: c57c 52bc d2eb d8bc aec1 abbd 645a 89bc
000001c0: cd19 31bb efb5 933d fb49 97bd 80d7 b73d
000001d0: fcf3 d23c bb9a acbd 150f cabc 895d 043d
000001e0: 530c 1fbd 60b5 64bd ec35 e73c 202d 16bd
000001f0: 88b6 a23d fde1 593c 6ab2 d43b b4ac 68bd
00000200: 02b4 7bbd 4ecf 753d 5874 823d 4b73 a13d
00000210: 2b76 b3bd acfb b6bc 3b25 4bbd a01b cbbd
00000220: ab78 243d 24b6 85bd 4540 083d 2179 afbd
00000230: 6f1c 89bd f736 893d 0606 323d bc77 c63d
00000240: 7cf2 9abd 4620 b0bd daca c0bd efa2 f63c
00000250: 7387 adbd 2b8f ad3d 42d4 623d cd93 723d
00000260: 986c 913d 02d8 b83d dafc 1e3d 662c 80bc
00000270: b6db b7ba 1af3 433c b5cb 36bd 268f 55bd
00000280: a6f4 a0bc 2c4f 99bd 11d3 c33d 4e9d e83c
00000290: 3768 c2bd 573c 39bd b364 4a3d fa66 52bc
000002a0: 04a6 163d fc0c a83d 1e88 033d 8e34 b7bb
000002b0: 6edc cdbc d760 5dbd 4240 993b 7bfb babd
000002c0: 22c5 ac3c 5c2b a13d a8e1 673c 0095 39bb
000002d0: 1b2c aebd 1018 12bd 7800 1ebd eb08 bd3d
000002e0: 1e2c 0d3d a892 57bd f1ec 633d 3bf0 183d
000002f0: b844 60bd 546e bcbd 3865 9ebd 0a75 2cbd
00000300: 9331 393d 1a71 e63b 0698 4cba 9286 10bc
00000310: 4030 b63a 3e7e 6bbd 7cf3 bdbd 20c2 823c
00000320: ac36 7cbd c2cb fdbc 191f d33c d55e 98bd
00000330: 0d7b bc3d 41ea 923d ce1b 04bd f4e3 4f3b
00000340: 86e6 d83d 3596 e4bd a824 9a3d f373 02bc
00000350: abe1 9d3d bb64 6bbc bd6d 583c ba29 c9bd
00000360: 011b 993d dd7b bf3d b2e2 c83c cbb9 813d
00000370: 4f79 193d ac6b 8cbc 881d 6a3d 28c3 4fbd
00000380: d841 443d 5c59 44bd 5cfc bebd 5a95 143c
00000390: bc27 e7ba 793e 49bc d89b 253d 7f2e a13d
000003a0: 13ba b6bd f671 93bd a862 d7ba 8912 dc3b
000003b0: 706f b0bd 281e 4c3c ccac 2bbb 1aad 853d
000003c0: 34b9 a93d 7834 c53d e4f6 803d 2eff 9bbd
000003d0: 5db9 5b3d f0ba 543d 3d7f 10bd 24c1 cdbc
000003e0: 9fe7 f3bb 724d e63b ec94 5f3d 8ef8 db3d
000003f0: a245 3d3d 674d 10bc c08a b8bd 9c58 063d
0.07603548 0.019974632 -0.06362397 0.0156148635 0.024466345 0.0446984 -0.018268505 0.055947337
-0.055808723 0.055494476 -0.051179342 -0.029295057 0.0731794 -0.09991941 -0.037782013 -0.000339261
0.0013791184 -0.06334924 -0.00028912482 0.018544354 -0.016358737 0.033076473 0.06250579 0.00852779
0.02133133 0.024120355 0.029702486 0.09558653 0.084202915 0.011841883 -0.10300004 -0.05621016
0.014837431 -0.016288424 0.07201521 -0.0725195 0.089361385 0.0048997425 -0.053364176 0.023033485
-0.084304065 0.09691767 -0.04830823 0.0115785 -0.084339745 0.08054318 -0.038159166 -0.07328752
0.09136043 -0.022581244 -0.05413534 -0.056006204 0.011872314 0.015360087 -0.07381582 0.09032485
-0.075273655 -0.050933246 -0.033140596 0.08985925 -0.07663249 0.034122262 0.0058279186 0.012990115
-0.060445994 -0.030957734 -0.0689267 -0.08721483 -0.023633497 -0.04430098 0.08612842 0.01633879
-0.052007638 0.08294607 -0.044974394 0.013719938 -0.05882241 0.06982751 -0.006018393 -0.06771627
0.057553858 0.042196535 -0.03447962 0.06101859 -0.018224172 -0.022788791 -0.014909944 -0.06552203
0.08535648 -0.016286597 0.0442083 0.094064355 0.09715176 0.045896992 -0.065876104 0.021710947
-0.08643215 -0.07426473 -0.027777743 -0.034888543 0.019407049 0.0033317828 -0.0859294 0.08373792
-0.042874925 0.09869258 -0.088229656 -0.0031877337 -0.01284713 -0.026479635 -0.08386551 -0.016766734
-0.0027023435 0.072124355 -0.073871575 0.0897665 0.025751106 -0.0842795 -0.024665395 0.032315765
-0.038830113 -0.055837035 0.028223954 -0.03666413 0.07944971 0.013298509 0.006490995 -0.056805328
-0.061450966 0.060012154 0.06369847 0.078833185 -0.08762773 -0.022336803 -0.049596053 -0.099173784
0.04015414 -0.06528881 0.033264417 -0.085680254 -0.066948764 0.06699937 0.043462776 0.09690806
-0.075657815 -0.08599906 -0.09413691 0.03010699 -0.084731005 0.08474573 0.055378206 0.059222985
0.07100791 0.09025575 0.038815357 -0.01564617 -0.0014027271 0.011959815 -0.044627864 -0.05213847
-0.019647907 -0.07485804 0.09561742 0.028395321 -0.09492534 -0.04522356 0.04941244 -0.012841934
0.03677942 0.082056016 0.032112233 -0.005590982 -0.025129523 -0.05404743 0.0046768496 -0.09129997
0.021090094 0.07869598 0.014152922 -0.002831757 -0.08504506 -0.03566748 -0.038574666 0.092302166
0.0344659 -0.052630097 0.055645887 0.037338477 -0.054753035 -0.09200731 -0.0773415 -0.042103805
0.045213293 0.0070325257 -0.00078046357 -0.008821147 0.0013899878 -0.05749344 -0.092749566 0.015961707
-0.061575577 -0.030980948 0.025771664 -0.07439963 0.092031576 0.07173587 -0.03225308 0.0031721564
0.10590844 -0.11161462 0.07526523 -0.007962215 0.077090584 -0.014367278 0.013209757 -0.09822412
0.07475854 0.09349797 0.02452216 0.06334265 0.037469205 -0.017141186 0.05715707 -0.050723225
0.047914356 -0.047936782 -0.093254775 0.009068811 -0.0017635743 -0.012282961 0.040431827 0.078701966
-0.089222096 -0.07199471 -0.00164326 0.0067160768 -0.08615005 0.012458362 -0.0026195524 0.06527157
0.08287278 0.09629148 0.06297091 -0.07617031 0.053643573 0.05193609 -0.035277594 -0.02511651
-0.007443383 0.007028275 0.054585382 0.107407674 0.046208985 -0.008807517 -0.090108395 0.03279935

layers.3.layers.0.bias f4 [100]
00000000: b903 85bd 592d 0b3d cd00 4dbd 7fd2 c93c
00000010: 7fc8 0abd d4f5 90bd 6595 9c3d dc91 a03d
00000020: d84a 7bbd 0952 6f3d da93 093d bf55 a4bd
00000030: c676 88bc 3742 b53d 8d02 97bd de56 d43d
00000040: 2603 b93d 1b74 9abd c367 b83d f148 d93c
00000050: e23e a7bd c61a 64bc 5063 5cbd 9b9e 0f3d
00000060: 9595 a0bd 9068 e73c d44b 0dbd 7473 123e
00000070: 7691 9bbd 39d4 38bd c2eb c03c 99c7 ac3d
00000080: a6bc 93bd f235 203d a134 e03d 1c35 24bc
00000090: d53d 1d3d 49b3 87bd fc8d 09bd 9854 603d
000000a0: f382 b13d b06e 45bc 1ce3 983d bae2 263d
000000b0: 3fff f33c a82e 1f3e 9e74 393c 3d0d 033e
000000c0: e8e9 90bd de9b 963d c04d a1bc 02b7 a2bd
000000d0: d89d 5ebc ed2e b53d f499 ce3d 4883 193d
000000e0: f80c f23d 20c2 6dbd c1ae 8a3d c993 323d
000000f0: f5f4 34bd c786 59bd 4817 3f3d 8ae4 d93d
00000100: dfcb c3bc 8491 b23b 24bc 8bbd 1622 b2bd
00000110: d73b 153d 8b40 13bd 38b4 c63d 0667 0c3e
00000120: 9a6d c43d 4200 3dbd bb4e b8bd 28e0 9abd
00000130: 9b3e cabd 48ae ddbc 0e56 10bc 9f34 cc3d
00000140: e08a 603d dcee 9c3b aa2a c03a bb39 a4bd
00000150: 26c0 ad3d 5c69 15bc 64c2 d43d 287f e13b
00000160: 55f1 23bc 98c8 73bd e1bb 493d 04ac 6abd
00000170: be12 f8bc 40f4 d4bc 24f0 bf3d 3820 88bd
00000180: efed 1a3d e838 74bd 2209 0abd fdf2 74bc
-0.06494851 0.033978794 -0.05004959 0.024636505 -0.033882614 -0.07078138 0.07645682 0.078403205
-0.061350673 0.058427844 0.033588268 -0.08024167 -0.016658198 0.0885052 -0.073735334 0.10368131
0.09033804 -0.075416766 0.09004166 0.026524039 -0.08166291 -0.013922399 -0.05380565 0.035063367
-0.078410305 0.028248101 -0.034496143 0.14301854 -0.07596104 -0.045124266 0.023549918 0.08436508
-0.07213716 0.039113946 0.10947538 -0.010022428 0.038389046 -0.06625993 -0.033582672 0.054768175
0.08667555 -0.012050316 0.07465193 0.040743567 0.029784797 0.15545142 0.011319308 0.12798019
-0.07075864 0.07353948 -0.019690394 -0.07945062 -0.013587438 0.08846841 0.10087958 0.037478715
0.1181888 -0.05804646 0.06771613 0.04359797 -0.04417892 -0.05310705 0.046653062 0.106392935
-0.023900924 0.0054494757 -0.06822994 -0.086979076 0.03643402 -0.035950225 0.09702343 0.13711175
0.09591217 -0.046142824 -0.08999392 -0.07562286 -0.09875222 -0.027060643 -0.00880958 0.09970974
0.05481994 0.0047892164 0.0014661152 -0.08018824 0.08483915 -0.009119358 0.103886396 0.0068816133
-0.0100062685 -0.059517473 0.04925144 -0.057292953 -0.030282374 -0.025995374 0.09371975 -0.0664677
0.037824567 -0.059624583 -0.033700116 -0.014950511

layers.4.layers.0.weight f4 [10, 100, 1, 1]
00000000: 57c4 c7bd 0984 72bd bda4 c83d b694 2f3d
00000010: 8b34 a1bc a905 223d d5ea 2f3d 5018 8bbc
00000020: 4214 d6bc 222d f43c 2bf2 44bd 6c94 dcbd
00000030: 3ce6 133d 426d 65bd 6220 193d f1b1 2d3e
00000040: 483f bebd e2be 6dbc 3c13 64be 2f4e 10be
00000050: 1cad 81bd 7032 813d a838 a83d dde3 213d
00000060: bde0 593c df16 743d 853a e53d 1318 32be
00000070: aee5 8dbc fe48 e6bd e4e9 abbd 4207 8dbd
00000080: 83a2 55bd 8758 72bd 4af9 093e da75 6bbd
00000090: 7058 49be e13c 6dbd 00ce c4b9 3ee6 fdbc
000000a0: 2b9e 4dbc 695a 8a3d 507a d43d 3c6a 563d
000000b0: d21e adbd 1bc5 87be 2ba9 383d 432d 02be
000000c0: 4048 8d3c c47d 0dbe d32b 2abd bd27 fe3d
000000d0: d55b 563e 51c9 ab3d 4b53 193e 6c46 153c
000000e0: e3bd 30bc c704 01be ef79 cdba c6c9 bbbc
000000f0: 5822 b3bd f576 d5bd 6cf1 453b 26d4 08be
00000100: 683b f63d f727 643d 85e7 8cbd 690d 8c3d
00000110: f081 ca3d c1e2 d33d 3804 43bd 23ff 0dbe
00000120: cceb 65bd 5935 013e d194 603d 0ec3 86bd
00000130: 6401 c93c 4001 15bb a169 33bd 5556 823d
00000140: 7f1c e13d 4cce bb3c 3f1c 1d3d 8832 a23c
00000150: 2424 b3bc 27ff f5bd 4474 0fbd 6ea7 1fbd
00000160: 97e8 2fbe c239 0abd 3c18 383e 3dcd 283e
00000170: 3dfb 05be 5aec 1ebd 75f3 06be 8e93 ffbd
00000180: f1b3 f3bb f77f d53d 3d69 7a3c 0fd6 7e3d
00000190: 20b4 8fbd 9c92 56bd 9917 f5bd 0c9b 923d
000001a0: f757 16bd 9dd6 01be 22e4 b93d fbc5 2c3e
000001b0: 4408 98bd d38a 4fbd 04ac e9bd 72e1 963d
000001c0: d2ed b03c 5663 ddbd d250 fa3c e558 eabd
000001d0: e6f5 9abd 51f3 88bd c6e1 173e c455 003e
000001e0: ebe4 b9bd 7f9e d0bd a9f4 bbbd 32d3 c83d
000001f0: 15e7 06be 2299 c83b 7deb 48be 3ac4 4d3e
00000200: 75aa bf3d 44d9 b23d 66a2 c2bc da22 083e
00000210: a2ad 653d 06d2 5dbd 7a02 edbd 1ad6 583d
00000220: 09e6 c33b ac89 02bd 009a 66bb 0420 29bd
00000230: 17f7 a6bd 82f2 313d 591f 523d f0bb 353c
00000240: a617 cebd 2507 833e d6a8 72bd f2e4 543e
00000250: 687d aabc 8c6b e53c 8cfb efbc 010b 4abd
00000260: efb1 153c da35 b03d ab8c 95bc 386a 2abc
00000270: cbbf 063e ecbc 43bd 42ba 2dbb 347b 77bd
00000280: acd9 413d 0885 dc3c 5eae 053e 90f5 a33d
00000290: 5796 c7bd bcdc 05bd d065 8abb 54f2 583d
000002a0: be0c 9abd f297 b8bc d5ac 983d 47fa 153e
000002b0: 9660 d7bc 7dd6 46be 02ae b33d 2b50 8c3d
000002c0: 7ee9 033c 27bc c83d edbb 12be 9eaf 1a3e
000002d0: 2633 fbbd 430f 7cbd 1ff4 cfbd 4bde 823d
000002e0: acb9 ed3d a58d e7bc 1bc8 4d3d 0c27 abbb
000002f0: 458b eebd a9c4 16bd 1e9e bcbd 512e 04be
00000300: 4ab2 bcbd e3df c9bd 0b8d de3d e05f 8bbd
00000310: c1a6 f03c 43f8 bd3b 1721 63bb a367 32be
00000320: ce85 2ebd 9eaa 0a3d 6468 f93b 5fd1 1dbc
00000330: 5d11 ffbc 2093 1fbd ccbb c7bc 0ec9 1c3d
00000340: 136c 69bd 97f8 d63b bc86 123e 77ff 643c
00000350: 2f7e 04bd 8cf4 80b9 902d 583d e995 49bd
00000360: e93a d2bd dfb5 283e 2044 3e3d be5b ed3d
00000370: 9a2f 3bbc 53e4 b83d 7d7b 833d b0eb 0cbe
00000380: 6542 813d bc28 8abd e561 22be da39 edbb
00000390: 5649 0fbd 649a 243d 7772 04bd 1c17 043c
000003a0: 398a 9fba ff27 0cbd 406e 333d 3ca4 163d
000003b0: 76cf 16be 57e0 7cbb 588c 133c 50ba 3fbe
000003c0: 1088 413e 78eb f6bc 6021 10be 3d8d a63c
000003d0: a3ae 6d3d 9bb0 c83d fc9b 173e 1ac5 d03b
000003e0: 30b7 32bd 3fc2 3a3e 6a45 c1bd 481f b3bd
000003f0: f5ef 3d3e a907 9fbd 889d 0a3e 8a3b 7fbd
-0.09754246 -0.05920795 0.09797046 0.04286643 -0.019678375 0.03955618 0.042948563 -0.016979367
-0.026132707 0.029806677 -0.048082512 -0.10770497 0.03610824 -0.0560124 0.0373844 0.1696241
-0.09289414 -0.014510842 -0.22272962 -0.14092325 -0.06331846 0.06308448 0.08213931 0.039523948
0.013298211 0.059592124 0.11192802 -0.17391996 -0.017321434 -0.11244391 -0.083942205 -0.0688615
-0.052156936 -0.059166458 0.13474002 -0.05748544 -0.19662642 -0.057919387 -0.00037537515 -0.030993577
-0.012549917 0.067555256 0.10374892 0.052347407 -0.08453144 -0.26517567 0.045083206 -0.12712578
0.017246366 -0.13817507 -0.0415457 0.12409923 0.20933469 0.083880074 0.1497318 0.009111028
-0.01078746 -0.12599479 -0.0015676598 -0.022923362 -0.08746785 -0.1042308 0.0030203713 -0.13362178
0.120230496 0.055702176 -0.06880096 0.06838495 0.09888065 0.10345984 -0.047611445 -0.13866858
-0.056133077 0.12618007 0.054829422 -0.065801725 0.024536796 -0.002273634 -0.043801907 0.06364123
0.10991763 0.022925518 0.038357016 0.019799486 -0.02186782 -0.12011557 -0.03502299 -0.038978033
-0.1717857 -0.03374649 0.17977995 0.16484542 -0.13084121 -0.03879962 -0.13178809 -0.12479316
-0.007437222 0.10424798 0.01528388 0.06221586 -0.07016778 -0.05238591 -0.119673915 0.07158479
-0.036704984 -0.12679525 0.09076716 0.16872399 -0.074234515 -0.050669502 -0.114097625 0.07367219
0.021597777 -0.108099625 0.030556116 -0.114427365 -0.07566433 -0.06687034 0.1483222 0.12532717
-0.09076866 -0.10186481 -0.091775246 0.09805907 -0.13174088 0.0061217705 -0.19621082 0.20094386
0.09358684 0.087328464 -0.023759078 0.13294545 0.056073792 -0.054155372 -0.11572738 0.05293856
0.00597835 -0.031869575 -0.0035187006 -0.041290298 -0.081525974 0.043444164 0.051299427 0.011092171
-0.10063104 0.25591388 -0.059243046 0.2079046 -0.020811751 0.028005384 -0.029294752 -0.0493269
0.009136661 0.08604021 -0.018255552 -0.010401301 0.131591 -0.04778759 -0.0026508723 -0.06042023
0.04732673 0.026918903 0.13054797 0.08005822 -0.09745472 -0.03268121 -0.004223563 0.052965477
-0.07521962 -0.02253339 0.0745484 0.14646254 -0.026291173 -0.19417758 0.08773424 0.06851228
0.008051274 0.09801512 -0.143295 0.15106055 -0.12265615 -0.061537992 -0.10153984 0.06390055
0.1160768 -0.028265784 0.050239664 -0.0052231606 -0.11647657 -0.036808643 -0.09209846 -0.12908293
-0.092136934 -0.09857156 0.108667456 -0.06805396 0.02937639 0.0057974174 -0.0034657174 -0.17422347
-0.042608075 0.03385412 0.0076113213 -0.0096324375 -0.03113621 -0.03895867 -0.02438154 0.03827768
-0.056987833 0.006560396 0.1430921 0.013976923 -0.0323469 -0.00024596264 0.052777827 -0.04921523
-0.102651425 0.16475628 0.046451688 0.11589764 -0.011424923 0.090279244 0.06420038 -0.13761783
0.06311492 -0.06746051 -0.15857656 -0.0072395625 -0.034982048 0.0401863 -0.032335725 0.00806215
-0.0012171931 -0.03421783 0.043806314 0.03677772 -0.14727578 -0.0038585865 0.0090056285 -0.18723416
0.1889956 -0.030141577 -0.14075232 0.02033102 0.058027875 0.0979931 0.14805597 0.0063711526
-0.043631732 0.18238162 -0.09437068 -0.08746201 0.18548568 -0.07765133 0.13536656 -0.06231264

layers.4.layers.0.bias f4 [10]
00000000: 680e 93bc bfa8 0a3e c5c6 453d 4ce3 41bd
00000010: 0fcf 90bd eb49 d9bc 0e11 2dbc 5833 583d
00000020: c9e5 afbd 104e 07bc
-0.017951205 0.13540934 0.048285265 -0.047335908 -0.07070743 -0.026524505 -0.010563148 0.05278334
-0.0858875 -0.008258358
