Topics/Recurrent Neural Network/output/rnn_wave_finetuned.tar (torch, 31618 bytes, 15 tensors)

rnn.w_in_hidden f4 [32, 1]
00000000: e929 ddbd 8372 143d 49cd 0ebf ff9d 573b
00000010: d670 8bbd 61b0 87bc e59b 11be 2a3a 383e
00000020: e083 80bc 4523 8b3d 4009 ddbe 7f8c aabd
00000030: 7d95 ebbe e670 093e f383 89be bda8 8fbe
00000040: 9489 763e f23c ec3e c4eb 613e 86a7 9dbd
00000050: 628f a63e 899b b43e 9014 a2be 7b75 073e
00000060: 7559 3a3e aa8b ae3c d8b8 e53e e522 efbe
00000070: 0420 963e 8d1d d0bd 1fe5 14be b2ef 093e
-0.10799009 0.03624202 -0.5578199 0.003290057 -0.06808631 -0.016563596 -0.14219625 0.17990938
-0.015687883 0.067938365 -0.4317112 -0.08327579 -0.46012488 0.13421974 -0.26858482 -0.28058425
0.2407592 0.46140248 0.22062594 -0.07697968 0.32531267 0.35274914 -0.31656313 0.13228409
0.18198188 0.021306831 0.44867587 -0.4670631 0.293213 -0.10161886 -0.14540528 0.13470343

rnn.w_hidden_hidden f4 [32, 32]
00000000: 8beb 25be 1990 4ebe 5cea bebd 8adb 6ebd
00000010: 2d56 d3bd 2a0b 343e 58d0 663e 3d41 c9bd
00000020: 5052 183c 44f1 c6bd eecd d73d 2481 89be
00000030: 8523 c1be b042 61bd 6235 093e d8c9 f73d
00000040: c234 a8bd ecdb 66bd 4f65 173e 13f5 333e
00000050: f7a7 223d 0da3 d93c 3f66 2c3e 522b d5bd
00000060: ae38 3c3d acf9 5dbe 2200 68be 3cc3 1cbc
00000070: 3523 7a3d be87 9a3e 9e78 2fbe 34b6 733d
00000080: eb73 bc3d 4284 9e3d 127c eabc 645e dfba
00000090: ae99 e03d 5488 323e 6628 47be 7c9b 873c
000000a0: e848 8e3d c5a1 2b3e ec72 873d 730d 823e
000000b0: cac0 11be 4957 2abe d3a7 8cbc 5d2e 11be
000000c0: 9902 71be 7250 b23e 239f c83d 6492 34be
000000d0: 208b 16be d394 afbd 2445 aabd c7b9 a5bd
000000e0: b6df d93c 1a50 27be e70d 113a 79f1 cb3c
000000f0: b5bf 063e a7ad 9d3d 12cb 3fbe ca97 07be
00000100: c9ed 1cbc bde5 9a3d fbf7 26be 2d76 983c
00000110: 374b 2a3e daf1 5a3e cee2 473e 9daa 2cbe
00000120: 4d70 2cbe 867c 4b3c 60e7 13be 68fb 85be
00000130: 7289 333e 53a0 0f3e eab3 a3bd 3a66 80ba
00000140: ea65 d5bd 0b88 113d d73a 543e 88a6 18be
00000150: ebbc 4cbe ec7e bfbc 0a6f 7e3c 88bb 2b3d
00000160: 8f88 053e 46d4 f6bd 59d0 19be 8539 fb3d
00000170: b0a7 08bd e1a6 27bc 33fc 00be 8376 c5bc
00000180: b17a 1dbd fc83 76be a78d 38bd 5df8 863d
00000190: 16db ebbd 9c61 453a 1f56 2c3e 335d 73bd
000001a0: 60fd a03b 8e20 b2bc defd 033d e617 a23d
000001b0: f27a bc3e ae95 043e 3090 513e 0b29 393d
000001c0: 5696 863b 80d0 06be 851c 323e 0034 96ba
000001d0: f612 7d3d cf04 673c eb02 fdbd 24c8 18be
000001e0: 5dec a73c 89f5 8e3d af93 8d3e 2e1b 31be
000001f0: 79de e33d ea68 65be b975 d73c 6462 e9bc
00000200: e477 0bbd d42a 0ebd 0c70 22be 884c 1cbe
00000210: 409b e2bc 80d2 153b 0f77 a4bd 3261 883d
00000220: 8fed 22be c076 43bc 2131 1f3e 34ac 93bd
00000230: 0576 233e 1a1d 833d e65c 23be 960f e53d
00000240: e81b a7bc d59d a1bd b1c0 103e e647 12be
00000250: e864 9b3c 6099 17bd a944 013e 4c1f 4a3d
00000260: 26f6 ad3d e4b6 7f3d 4c1f 2ebd 0447 18bd
00000270: b72c 15be 262b c43d b3b9 0f3e 42b7 f73d
00000280: fe68 d7bd 9d82 293c 3681 bcbd 876a 45be
00000290: 40f6 d2bd 49a3 593d a149 74bd 8c4e b3bc
000002a0: 40af f33b 6d4e 153e b926 00be 2611 b3bd
000002b0: 0c98 453e 846c 073e 3b19 1cbd 2403 4f3e
000002c0: e94b 2b3e 6a6c 6ebc 4269 f43d 0023 0fbd
000002d0: cb96 d5bc fb94 aa3d 5be8 893d 40c6 b83c
000002e0: f38c c7bc 0d58 a2bd cea8 7c3e a165 7ebe
000002f0: d87d af3d 818d 483c 3696 043e 8b84 4fbd
00000300: 6789 30be 6799 153e 0217 b0be 062a 2ebd
00000310: 94f0 72bd d7cf 95bc 7718 9a39 11cc 6a3e
00000320: 30c9 b43c 4d35 333e 3af9 8abd 65ac 83be
00000330: d058 2fbe b10c 4fbd 2492 28be d2e4 01be
00000340: 255e 343e 36cd 8b3e 42db 9f3c 005e 9439
00000350: 041e d63c 2dd3 6bbd 78cc dcbc 5fb0 15be
00000360: 60e1 f83d 9779 07bd 19ab 4e3d 70fc c0bc
00000370: 14f2 6e3e 4c94 1ebd 7e94 b2bd 55e0 5abd
00000380: 52d9 07be 1782 5b3e 3483 82bd fc79 f5bd
00000390: 2c92 d0bd a88c 0f3e ef3a 253d 6032 653e
000003a0: de51 833d 9dab 27bd e7f2 81bd bdbd f53d
000003b0: 533f 82bd 478f a33d eb18 a5bd 3118 c8bd
000003c0: b720 5fbe 66a0 f13d 7177 d4bd 7864 21be
000003d0: 06aa a2bc 9359 15be 5baa 04bd 8871 4f3d
000003e0: 2081 733c ae6c 0cbd e290 38be cb0e 073e
000003f0: fa01 843d ab88 7c3e d2c9 9ebd 7e48 563d
-0.16203134 -0.20172156 -0.09322044 -0.058314838 -0.10319171 0.17582384 0.22540414 -0.09826896
0.009296969 -0.097139865 0.10537325 -0.2685634 -0.37722412 -0.05499524 0.1339927 0.120990455
-0.08213188 -0.056362078 0.1478474 0.17573957 0.039710965 0.026567006 0.16835879 -0.10408653
0.04595249 -0.21677274 -0.226563 -0.009568032 0.061068732 0.30181688 -0.17135856 0.059499934
0.09201797 0.0774007 -0.028623614 -0.001704168 0.10966812 0.17434818 -0.19449005 0.016553633
0.069474995 0.16760929 0.066137165 0.25400886 -0.142337 -0.16634859 -0.017169869 -0.14177842
-0.23536147 0.34827 0.09795978 -0.17633969 -0.1470151 -0.08573308 -0.08313969 -0.08092075
0.026595932 -0.1633915 0.00055333826 0.024895417 0.13159068 0.07699137 -0.18729809 -0.13241497
-0.009578177 0.0756335 -0.16305535 0.018611038 0.16630255 0.21381322 0.19520113 -0.16861959
-0.16839714 0.012419825 -0.14443731 -0.2616837 0.175329 0.14026003 -0.079933 -0.0009796091
-0.10419829 0.03553013 0.2072557 -0.14907277 -0.19993941 -0.02337595 0.015529403 0.04192689
0.13040374 -0.12052207 -0.15020885 0.1226683 -0.033363044 -0.010232658 -0.12596206 -0.024104362
-0.038447086 -0.24073786 -0.045056965 0.0659034 -0.11516397 0.00075294985 0.16829728 -0.059415054
0.004913017 -0.021744039 0.03222453 0.079147145 0.3681255 0.12947723 0.2046516 0.045205157
0.004107277 -0.13165474 0.17393692 -0.0011459589 0.06178566 0.014100268 -0.12354072 -0.14920098
0.020498449 0.06980426 0.27651736 -0.17295524 0.11126418 -0.22403303 0.026301252 -0.0284893
-0.034049883 -0.034708813 -0.15863055 -0.1526357 -0.02766192 0.0022861063 -0.08030521 0.066591635
-0.15910934 -0.011930168 0.15546085 -0.072105795 0.1596299 0.06402035 -0.15953407 0.111846134
-0.020399049 -0.07891432 0.14136006 -0.1428524 0.018969014 -0.037011504 0.12623848 0.049346253
0.08494215 0.062430277 -0.042510316 -0.0371771 -0.14567839 0.095785424 0.14035682 0.120955005
-0.105180725 0.010346082 -0.092043325 -0.19278918 -0.10300875 0.053134236 -0.05964053 -0.02188804
0.007436663 0.14580698 -0.12514772 -0.08743505 0.19296283 0.13224989 -0.03811 0.20216042
0.16728176 -0.014552215 0.11934139 -0.034945488 -0.02607288 0.08329197 0.067337714 0.02255547
-0.024359202 -0.079269506 0.24673769 -0.24843456 0.08568925 0.012240768 0.12947926 -0.050663512
-0.17239915 0.146093 -0.34392554 -0.042520545 -0.059311464 -0.018287582 0.00029391397 0.22929408
0.02206859 0.17500801 -0.067858174 -0.25717464 -0.17123723 -0.050549213 -0.16461998 -0.12684944
0.17614038 0.27305 0.01951373 0.00028298795 0.02613736 -0.05757444 -0.026952967 -0.14618061
0.12152362 -0.03307494 0.05045614 -0.023557872 0.23334533 -0.038715646 -0.08719729 -0.053436596
-0.13266495 0.21436344 -0.06372681 -0.11986157 -0.1018413 0.140185 0.040339407 0.22382498
0.06412099 -0.040935148 -0.06345158 0.1199908 -0.063597344 0.07986312 -0.08061393 -0.09770239
-0.21789823 0.11798172 -0.10374344 -0.15760982 -0.019856464 -0.14584951 -0.032389026 0.05064538
0.014862329 -0.034283333 -0.18024018 0.13189237 0.064456895 0.2466151 -0.07753338 0.052315228

rnn.bias_in f4 [32]
00000000: 332b 183e df31 a93d 4738 433e 762a 86bd
00000010: 44b7 c7bd 4c19 393e ce59 993d cc07 523e
00000020: ea38 97bd 0e3b c2bd 63ae cabc 3844 0dbe
00000030: 18c1 3c3d f7a0 113e 264f 0f3d babd 743b
00000040: ed4d d43d f510 33bd a6d0 483e d4fe 33be
00000050: 2a2c 56be 67a1 53bd c594 133e 68ff 903c
00000060: 2865 b33d 0826 e0bd 9917 db3d 8cd2 903d
00000070: 4514 253e 6a04 143e 164e b43d 2aa6 5abb
0.14860229 0.08261465 0.19064437 -0.065510675 -0.09751752 0.18076056 0.07487832 0.20510787
-0.07383902 -0.0948392 -0.024741357 -0.13795555 0.046082586 0.1422156 0.03498759 0.003734453
0.10366426 -0.043717343 0.19610843 -0.17577678 -0.20915285 -0.051667597 0.1441222 0.017699912
0.087595284 -0.10944754 0.1069786 0.07071409 0.16121013 0.14454809 0.08803956 -0.0033363202

rnn.bias_hidden f4 [32]
00000000: 235b f4bb dc14 c6bd 3e0f b6bc 1d2c e13d
00000010: 1f2d 91bd ffdb 0d3e 791d 8dbd 6fed bcbb
00000020: 408f 763b d900 13be 0897 bdbb 36e3 2e3c
00000030: ce1c 20bd 2c9b c0bc 7915 073e 174d 1b3e
00000040: 2d92 d4bd ff38 1a3e 6882 ecbd 0a1b 1abe
00000050: 5618 693c 0a1a efbb 0c76 a9bd 0598 2ebe
00000060: e89a 47bd bf25 a23d c50b f8bd 306e a6bd
00000070: 45fa e63d 5876 dcbd cb1e 13be 030b 67bd
-0.0074571534 -0.09671947 -0.022224065 0.10994742 -0.07088684 0.13853453 -0.06890387 -0.005765609
0.0037622005 -0.14355792 -0.0057858266 0.0106742885 -0.03908997 -0.023511492 0.13191785 0.15166126
-0.10379443 0.15060805 -0.115483105 -0.15049377 0.014226994 -0.0072968053 -0.08274469 -0.17050178
-0.048731714 0.07917356 -0.1211162 -0.08126485 0.11278204 -0.1076476 -0.14367215 -0.056406986

linear.weight f4 [1, 32]
00000000: c1ba c439 f1ea 4bbe de56 afbe e236 623a
00000010: 34b2 2abe d09f 9bbc b130 adbe bf0c 0ebe
00000020: dc4a 8e3d 6634 14be fb21 d0be ab68 2b3e
00000030: 3e3b 813c b930 513e 53a6 c8bd 40fb 60be
00000040: d4b6 f13d a5b1 983e ae3d 3f3e 4a4f 34be
00000050: 9b35 853e 8886 683e 97d1 54be 74f7 b7bd
00000060: e678 363e cae8 28be 8170 803e c749 a2be
00000070: c500 fd3d 8af4 f8bd 4d29 253e c384 26be
0.00037523176 -0.19913842 -0.34245962 0.0008629394 -0.16669542 -0.018997103 -0.3382621 -0.1387205
0.06947872 -0.14473113 -0.40650925 0.16739146 0.01577532 0.20428742 -0.09797349 -0.21970844
0.1180245 0.29823032 0.18675873 -0.17608371 0.2601746 0.2270757 -0.20783077 -0.08982745
0.17819557 -0.16495052 0.25085834 -0.31696913 0.123536624 -0.12156017 0.16129036 -0.16261582

exp_avg f4 [32, 1]
00000000: 9db2 b138 eed1 a4b9 3635 9739 00d5 8bb9
00000010: 0000 0000 03a2 87b8 3cd4 db39 1798 1cba
00000020: 0000 0000 6180 12ba 63ab dfb9 dcbd a9b9
00000030: 28b9 813a 4552 8837 3dc7 d538 d424 0339
00000040: 2c88 1b3a d1df 7bba cbb5 a637 0000 0000
00000050: 5a85 8739 8acb 0aba 57b0 85b9 0000 0000
00000060: 04a4 123a 6dde 03b9 49ed 043a 9413 57ba
00000070: 48f9 5f38 b906 9239 623c 663a 0fe5 5ab9
8.473287e-05 -0.00031436927 0.0002884061 -0.00026670843 0.0 -6.467479e-05 0.00041929062 -0.0005973591
0.0 -0.0005588588 -0.00042661568 -0.00032375648 0.00098971 1.6250773e-05 0.000101937425 0.00012506853
0.0005933072 -0.00096082414 1.9873396e-05 0.0 0.0002584856 -0.0005294612 -0.0002549912 0.0
0.0005593898 -0.00012575994 0.00050707586 -0.00082045165 5.3399504e-05 0.000278523 0.00087828015 -0.00020875431

exp_avg_sq f4 [32, 1]
00000000: 829f 6d34 b7f7 5437 0c8f 0135 a1a3 6334
00000010: 0000 0000 5cca 1a34 3cff 0a36 2ef5 a936
00000020: 0000 0000 2db8 8436 d36f ca34 de2f e535
00000030: 3dc9 aa36 76b0 0836 002e 7834 c02d 3e35
00000040: bc43 a136 5c10 b637 16b0 0235 0000 0000
00000050: 17f4 ba37 14dd d736 d643 a534 0000 0000
00000060: e38e db36 0b5a c235 cfa8 cf36 14f4 8636
00000070: b055 bb34 e3fd 9334 ef28 c634 788d ff34
2.2130374e-07 1.269386e-05 4.8264405e-07 2.120055e-07 0.0 1.4415986e-07 2.0712168e-06 5.065135e-06
0.0 3.9553474e-06 3.7706795e-07 1.7075761e-06 5.089822e-06 2.0368293e-06 2.3113535e-07 7.084709e-07
4.806059e-06 2.1703709e-05 4.868501e-07 0.0 2.2286591e-05 6.433236e-06 3.0783002e-07 0.0
6.543343e-06 1.4480332e-06 6.1887326e-06 4.0219256e-06 3.489381e-07 2.756561e-07 3.6910157e-07 4.7600383e-07

exp_avg f4 [32, 32]
00000000: 1d47 8338 6471 0db7 ff5a d1b7 b55f 42b5
00000010: 0000 0000 24ea 9e38 8d8a 97b9 4e36 6638
00000020: 0000 0000 1d5a 97b8 f460 dbb7 b475 3e38
00000030: a9fa 6e39 e4e0 8d38 8aec ad38 a02b 0eb8
00000040: 2879 5db7 0f79 aa38 8137 1338 0000 0000
00000050: 4431 1b37 0e2a 38b8 da91 c7b8 0000 0000
00000060: 0ba5 3337 304c 8b38 6702 d9b6 011e 35b8
00000070: e680 ea38 64eb 2bb9 9157 a538 6243 6137
00000080: ae3d 6939 2da3 7838 3316 2339 d393 56b8
00000090: 0000 0000 d280 8e39 2044 ab37 38b9 c439
000000a0: 0000 0000 2a77 7837 1093 f938 8b5f c838
000000b0: ac29 6d38 467b 0a39 a3d9 0839 27d4 3239
000000c0: 0d9b 42b6 c57f 5f39 bb5c 6138 0000 0000
000000d0: 478d 82b7 0e43 d7b7 fcb2 1d39 0000 0000
000000e0: d8c6 0038 3396 2838 1c98 3b38 ecb5 2c39
000000f0: 1056 a039 5708 0f38 80bc fa37 ee66 9138
00000100: fe06 f237 910c f4b8 19e5 96b9 3a67 16b9
00000110: 0000 0000 5f19 08b9 c6e5 4bb9 89c3 8eb9
00000120: 0000 0000 bd50 90b8 8c03 b4b9 0abf 91b9
00000130: 8bcc 27b6 bc7d efb7 18b1 afb9 c251 84b9
00000140: ce11 07b9 739d 4539 bc7e 06b9 0000 0000
00000150: 7d3b c5b6 fdbc 3c38 4a8e 89b9 0000 0000
00000160: ed33 83b9 dc91 2338 80a9 3bb9 d0ce d0b9
00000170: ed41 10ba f9a9 72b9 850a 9437 cc7b c735
00000180: eb1e 1ab9 4347 8eb9 7f56 86b9 c25f 73b8
00000190: 0000 0000 d8c9 01ba 1ec9 cab8 7b16 1eba
000001a0: 0000 0000 bbaa c0b7 0a13 44b9 166a 9db8
000001b0: 1cbe 36b9 977b 55b9 6d1e 95b8 30c4 c4b8
000001c0: e90c 1639 769f 7cb9 2477 86b7 0000 0000
000001d0: 7267 08b6 1960 c539 0c8a 8e38 0000 0000
000001e0: 54b8 3fb8 e519 acb8 e6ad 0139 009e 99b9
000001f0: 6ea0 3dba 445e 3138 aeaf fdb8 6acf 82b8
00000200: 0000 0000 0000 0000 0000 0000 0000 0000
00000210: 0000 0000 0000 0000 0000 0000 0000 0000
00000220: 0000 0000 0000 0000 0000 0000 0000 0000
00000230: 0000 0000 0000 0000 0000 0000 0000 0000
00000240: 0000 0000 0000 0000 0000 0000 0000 0000
00000250: 0000 0000 0000 0000 0000 0000 0000 0000
00000260: 0000 0000 0000 0000 0000 0000 0000 0000
00000270: 0000 0000 0000 0000 0000 0000 0000 0000
00000280: 67e5 7439 ca58 1d39 b60f 7739 87a6 4e38
00000290: 0000 0000 fff5 b739 736b 8039 9b2a df39
000002a0: 0000 0000 a842 00b7 a26e 81b7 d7ca 5838
000002b0: 5b5b 27b9 60e2 2b39 c83a 1139 3b73 9639
000002c0: 9d0d ae37 6f95 b6b7 76c2 b838 0000 0000
000002d0: 4e96 97b6 1edc 7938 dff5 5339 0000 0000
000002e0: 0f1b 3f39 fc90 4637 28c2 0839 86e7 5e39
000002f0: 1c31 153a f74c 1739 cd1d b0b8 ff09 2737
00000300: 34e6 b139 259b a839 5e65 f739 2c50 aa39
00000310: 0000 0000 04a9 893a dc47 f938 fcab a83a
00000320: 0000 0000 caa0 33b8 0d0c a939 929e 5a3a
00000330: 28f3 c939 34a0 9c39 4714 8e3a 3a35 3b3a
00000340: 7e10 1339 1824 9eb9 9493 4d3a 0000 0000
00000350: 43d0 66b8 f596 c337 215f 063a 0000 0000
00000360: a7f1 2f3a cf36 aa39 681b 553a f46e 553a
00000370: e3ed 173b 78da 233a 2cd9 4d37 0d93 82b8
00000380: 76fe 0239 44a0 0435 32cb 0a3a 2b7b 9439
00000390: 0000 0000 cc9d 9239 2c8b 24b8 fcd2 a1b8
000003a0: 0000 0000 1a8e 8a38 ab9a d339 147a 9d39
000003b0: 01c0 9b39 781b 2439 a2ea 173a 7852 9b39
000003c0: c257 8e39 4ad2 24b9 3585 ac39 0000 0000
000003d0: 3948 c0b7 f4b6 2839 0107 f239 0000 0000
000003e0: 293e 6239 856c 01b8 30b0 fd38 e7b3 3b3a
000003f0: c68a f139 28bd 1f38 332a 0039 2b04 4837
6.259813e-05 -8.430656e-06 -2.4957115e-05 -7.2409904e-07 0.0 7.577639e-05 -0.00028904193 5.488685e-05
0.0 -7.217026e-05 -2.6151982e-05 4.540915e-05 0.00022790827 6.765293e-05 8.293342e-05 -3.3896067e-05
-1.3200835e-05 8.1287806e-05 3.5099223e-05 0.0 9.2501905e-06 -4.3908185e-05 -9.5162264e-05 0.0
1.07076585e-05 6.6422275e-05 -6.4673836e-06 -4.3181706e-05 0.00011181999 -0.0001639552 7.8841236e-05 1.3426734e-05
0.00022243589 5.9279777e-05 0.00015553161 -5.1159248e-05 0.0 0.0002718033 2.0416512e-05 0.00037522032
0.0 1.4809697e-05 0.00011900638 9.5545394e-05 5.6544013e-05 0.00013206629 0.00013051047 0.00017054436
-2.8998504e-06 0.00021314535 5.3730542e-05 0.0 -1.5562995e-05 -2.5661222e-05 0.00015039364 0.0
3.0702766e-05 4.0194205e-05 4.4725937e-05 0.0001647097 0.000305817 3.4101624e-05 2.98901e-05 6.933311e-05
2.8851904e-05 -0.00011637167 -0.0002878092 -0.0001434357 0.0 -0.00012979422 -0.00019445186 -0.00027230036
0.0 -6.881494e-05 -0.00034334918 -0.0002779889 -2.5004e-06 -2.854957e-05 -0.00033510546 -0.00025237916
-0.00012881236 0.00018846038 -0.00012826448 0.0 -5.877983e-06 4.4998702e-05 -0.0002623669 0.0
-0.00025024955 3.899807e-05 -0.00017896853 -0.0003982694 -0.0005502988 -0.00023142238 1.7647873e-05 1.4862685e-06
-0.00014698102 -0.00027137445 -0.00025622916 -5.8024896e-05 0.0 -0.00049510365 -9.6695716e-05 -0.00060305715
0.0 -2.2967686e-05 -0.00018699109 -7.5061034e-05 -0.00017427694 -0.00020359304 -7.110541e-05 -9.382551e-05
0.00014309924 -0.00024091997 -1.6029524e-05 0.0 -2.0325792e-06 0.00037646366 6.796801e-05 0.0
-4.5709618e-05 -8.206422e-05 0.00012367181 -0.00029300153 -0.0007233684 4.228788e-05 -0.00012096703 -6.237517e-05
0.0 0.0 0.0 0.0 0.0 0.0 0.0 0.0
0.0 0.0 0.0 0.0 0.0 0.0 0.0 0.0
0.0 0.0 0.0 0.0 0.0 0.0 0.0 0.0
0.0 0.0 0.0 0.0 0.0 0.0 0.0 0.0
0.00023355112 0.00015005763 0.00023561608 4.9269318e-05 0.0 0.0003508776 0.00024494118 0.00042565618
0.0 -7.644914e-06 -1.5429516e-05 5.1687322e-05 -0.00015960394 0.00016392162 0.00013850175 0.00028696083
2.0748756e-05 -2.1765676e-05 8.810025e-05 0.0 -4.5176484e-06 5.9571226e-05 0.00020214122 0.0
0.0001822526 1.18354765e-05 0.000130423 0.00021257819 0.0005691217 0.00014429154 -8.397885e-05 9.956303e-06
0.00033931585 0.0003215905 0.00047187036 0.0003248466 0.0 0.0010502641 0.0001188663 0.0012868638
0.0 -4.2826672e-05 0.0003224317 0.0008339669 0.00038518873 0.00029874 0.0010839783 0.0007141415
0.00014025156 -0.00030163 0.000784212 0.0 -5.5030232e-05 2.3316106e-05 0.00051258696 0.0
0.0006711729 0.00032465762 0.0008129389 0.00081418385 0.0023182563 0.0006250511 1.2269516e-05 -6.2262734e-05
0.0001249256 4.940705e-07 0.00052945607 0.00028320527 0.0 0.00027964858 -3.923026e-05 -7.716377e-05
0.0 6.606821e-05 0.00040360293 0.0003003633 0.00029706958 0.00015650492 0.0005795156 0.00029625348
0.00027149735 -0.00015718598 0.00032905643 0.0 -2.2921815e-05 0.00016089884 0.00046163055 0.0
0.00021576196 -3.0857063e-05 0.000120967976 0.00071602914 0.00046070496 3.808472e-05 0.00012222752 1.1921899e-05

exp_avg_sq f4 [32, 32]
00000000: dba0 b033 7517 2c34 3b8f 0d34 c983 6032
00000010: 0000 0000 989f 9634 c1e0 9934 e8a6 9a35
00000020: 0000 0000 1000 3b32 0d78 6534 64fe ed33
00000030: f896 6b33 c900 5633 b352 2034 9caa 0334
00000040: e424 1a33 ad5d 4d33 d6ee f633 0000 0000
00000050: 04e0 a733 eca0 c133 d485 ca33 0000 0000
00000060: 7f1f 4a33 c28f 5433 1792 4434 bf5b 9334
00000070: d6d0 8c35 21da 8132 c012 3832 9d83 9132
00000080: 8fa6 5437 d481 0f36 6f9f 4f37 6475 0f38
00000090: 0000 0000 f120 ae38 ec95 5736 39af 4937
000000a0: 0000 0000 dc2b 1535 4394 8736 c8c8 b536
000000b0: 2653 f035 4c54 2938 ece1 3738 c804 8037
000000c0: 5196 1e38 ff27 1b37 c331 8b38 0000 0000
000000d0: ba2a 9e35 fcd1 5b38 a9bd cf37 0000 0000
000000e0: 4610 3338 af49 3935 b163 4e38 4f25 6638
000000f0: 1e58 2f39 d18d 8235 9aa6 3633 06e0 ef33
00000100: af23 1b34 740b e632 287e 8e34 49ff f034
00000110: 0000 0000 9b9f 5b35 7204 6133 e833 fa33
00000120: 0000 0000 f38f 9d32 49c3 ea33 0bb8 cf33
00000130: ed2d d733 2ae8 a634 a116 1135 04b7 8a34
00000140: 21b4 a634 d861 cc33 960b 2a35 0000 0000
00000150: c700 7e33 723b db34 cbfd 9034 0000 0000
00000160: 4ddd 9d34 b91a 6c32 c4c3 a534 2902 5635
00000170: 9084 ae35 cfe0 2a33 a185 9b31 52f9 e230
00000180: 4168 1236 21af e334 032d 1136 0875 9136
00000190: 0000 0000 01b7 4337 6fb3 4535 b47b 2f36
000001a0: 0000 0000 07b2 3d33 954d 2135 cde7 6d35
000001b0: 0c9b df34 a73d b536 71b2 db36 606f 3436
000001c0: 8484 9e36 acb5 b535 2502 2537 0000 0000
000001d0: 46cd 5c33 bc20 e136 8c27 8c36 0000 0000
000001e0: 4d1a a536 76e9 2933 cbd5 c336 43c7 1337
000001f0: 53a2 d337 f8e3 7e33 b6b4 1033 6e66 1033
00000200: 0000 0000 0000 0000 0000 0000 0000 0000
00000210: 0000 0000 0000 0000 0000 0000 0000 0000
00000220: 0000 0000 0000 0000 0000 0000 0000 0000
00000230: 0000 0000 0000 0000 0000 0000 0000 0000
00000240: 0000 0000 0000 0000 0000 0000 0000 0000
00000250: 0000 0000 0000 0000 0000 0000 0000 0000
00000260: 0000 0000 0000 0000 0000 0000 0000 0000
00000270: 0000 0000 0000 0000 0000 0000 0000 0000
00000280: 0744 dc34 89e9 cd33 6a4b 2835 9737 e534
00000290: 0000 0000 a003 e835 ab46 c033 f72d 8335
000002a0: 0000 0000 2459 3a32 0d81 d934 49b8 1535
000002b0: c0ad 4434 d3f2 1035 a855 f035 c233 5435
000002c0: 8016 e134 b74d 1533 c1ba 8c35 0000 0000
000002d0: 2809 9533 bae9 f034 9cef 5935 0000 0000
000002e0: bf3c 4035 47b9 2234 5b56 8b35 a014 c135
000002f0: a39e 9136 2fdb 1134 c922 ad31 10b5 a831
00000300: 2649 1e35 7869 6235 c868 e334 7ff3 bf35
00000310: 0000 0000 3799 0037 ab3d 8335 5513 0237
00000320: 0000 0000 67d9 d533 8d73 ac34 2ed4 3235
00000330: 86af 8433 544f 0e36 9b5c 3436 b62a 8635
00000340: 8c43 ad35 4a1c 8935 b7ee 9036 0000 0000
00000350: 9826 af35 1548 d335 ef2b 3735 0000 0000
00000360: 517a c635 7c4d 8b34 20bb 2936 b0c2 3b36
00000370: 0673 a337 5810 1034 2686 0c2f 5849 4534
00000380: e7b5 7936 2757 0735 4b9c 4136 e238 4137
00000390: 0000 0000 ea9a da37 7f98 3235 1eb9 0c36
000003a0: 0000 0000 0e13 6234 18b3 4335 4c83 9c35
000003b0: 495d 0135 6156 6337 430c 5237 00d3 8236
000003c0: 9e1a 5537 93f6 3f36 da5e b537 0000 0000
000003d0: dea0 3735 1408 9c37 ebba db36 0000 0000
000003e0: cf45 5b37 0b7d 1734 2dca 8037 7763 8237
000003f0: 2c18 4c38 04a7 7434 f30b 7432 3b97 1332
8.224898e-08 1.6027282e-07 1.3183755e-07 1.30684805e-08 0.0 2.8055797e-07 2.8662e-07 1.152247e-06
0.0 1.0884847e-08 2.1370961e-07 1.1082446e-07 5.4852507e-08 4.9826472e-08 1.4931247e-07 1.2262393e-07
3.588947e-08 4.781548e-08 1.1498712e-07 0.0 7.817292e-08 9.0165344e-08 9.430701e-08 0.0
4.7060436e-08 4.9490843e-08 1.830707e-07 2.7447638e-07 1.0491592e-06 1.511677e-08 1.0714473e-08 1.6940072e-08
1.2674965e-05 2.138423e-06 1.23752825e-05 3.4203185e-05 0.0 8.3031024e-05 3.2124763e-06 1.2021331e-05
0.0 5.557065e-07 4.0405735e-06 5.4175944e-06 1.7905593e-06 4.0371247e-05 4.3841006e-05 1.5261016e-05
3.781013e-05 9.248032e-06 6.637305e-05 0.0 1.1784352e-06 5.2409232e-05 2.476464e-05 0.0
4.269208e-05 6.9025094e-07 4.9207072e-05 5.487102e-05 0.00016722127 9.727029e-07 4.25267e-08 1.11700544e-07
1.4448482e-07 2.6780732e-08 2.6541352e-07 4.4889228e-07 0.0 8.1816114e-07 5.2390938e-08 1.1650974e-07
0.0 1.8342666e-08 1.0931996e-07 9.672666e-08 1.00200715e-07 3.108883e-07 5.404964e-07 2.5837664e-07
3.105097e-07 9.517288e-08 6.3346795e-07 0.0 5.913969e-08 4.083518e-07 2.700675e-07 0.0
2.9404546e-07 1.3743084e-08 3.0876083e-07 7.9724356e-07 1.3002591e-06 3.978567e-08 4.5262856e-09 1.6514525e-09
2.181638e-06 4.2409468e-07 2.1632884e-06 4.334961e-06 0.0 1.1665515e-05 7.364933e-07 2.6149037e-06
0.0 4.4166907e-08 6.009007e-07 8.8626695e-07 4.1649798e-07 5.4013976e-06 6.547482e-06 2.688692e-06
4.724194e-06 1.3538424e-06 9.835266e-06 0.0 5.1409437e-08 6.7093333e-06 4.176929e-06 0.0
4.920445e-06 3.956071e-08 5.8363416e-06 8.808277e-06 2.5228748e-05 5.934632e-08 3.369197e-08 3.3620772e-08
0.0 0.0 0.0 0.0 0.0 0.0 0.0 0.0
0.0 0.0 0.0 0.0 0.0 0.0 0.0 0.0
0.0 0.0 0.0 0.0 0.0 0.0 0.0 0.0
0.0 0.0 0.0 0.0 0.0 0.0 0.0 0.0
4.102769e-07 9.588536e-08 6.269462e-07 4.269502e-07 0.0 1.7286402e-06 8.953551e-08 9.773638e-07
0.0 1.0846893e-08 4.0513297e-07 5.5774996e-07 1.8317132e-07 5.3997536e-07 1.7906323e-06 7.905147e-07
4.1925887e-07 3.4762447e-08 1.0485165e-06 0.0 6.940019e-08 4.4873542e-07 8.1187477e-07 0.0
7.161397e-07 1.5154829e-07 1.038144e-06 1.4385623e-06 4.3398045e-06 1.3583916e-07 5.0389173e-09 4.910028e-09
5.896603e-07 8.434504e-07 4.2358283e-07 1.4301476e-06 0.0 7.665068e-06 9.778208e-07 7.753105e-06
0.0 9.958131e-08 3.212157e-07 6.661893e-07 6.1786565e-08 2.1205824e-06 2.6875994e-06 9.996209e-07
1.2909163e-06 1.0215529e-06 4.3193245e-06 0.0 1.3049748e-06 1.5741704e-06 6.8236744e-07 0.0
1.4787748e-06 2.5947145e-07 2.5291884e-06 2.7978494e-06 1.9484676e-05 1.3416991e-07 1.2780585e-10 1.8373737e-07
3.7209772e-06 5.041824e-07 2.8850216e-06 1.15169405e-05 0.0 2.6059763e-05 6.653208e-07 2.0969378e-06
0.0 2.1054822e-07 7.2903777e-07 1.1661118e-06 4.819199e-07 1.3550366e-05 1.251983e-05 3.8988655e-06
1.2701987e-05 2.8604743e-06 2.162105e-05 0.0 6.8406905e-07 1.860041e-05 6.5484687e-06 0.0
1.3069671e-05 1.4108461e-07 1.5352934e-05 1.5543525e-05 4.8659902e-05 2.2785031e-07 1.4205386e-08 8.590912e-09

exp_avg f4 [32]
00000000: 2ece b8b8 a541 933a 6992 65ba 4d60 efba
00000010: 0000 0000 d4f5 bf3a 9370 893b 58fa 503a
00000020: 0000 0000 3a0e a1ba 67f5 433a 5772 24bb
00000030: 4393 4d3a 43c7 c5ba fb91 053a 8e92 8339
00000040: 249e 213a d8f3 b6bb cad9 1ab7 0000 0000
00000050: 417f a339 8eb8 0aba f0ec 01ba 0000 0000
00000060: b522 023b a478 32bb 6ba5 e539 9e83 193a
00000070: 4263 cb3a 3445 34bb 4678 1aba 6537 caba
-8.812208e-05 0.0011234774 -0.00087574736 -0.0018262953 0.0 0.0014645406 0.004194328 0.00079718744
0.0 -0.0012287565 0.00074752275 -0.0025092566 0.0007842073 -0.0015089292 0.00050953 0.0002509546
0.00061652274 -0.0055832677 -9.229823e-06 0.0 0.00031184594 -0.0005291783 -0.0004956266 0.0
0.0019857113 -0.0027232552 0.0004380153 0.00058560993 0.0015517252 -0.0027507069 -0.0005892556 -0.0015427886

exp_avg_sq f4 [32]
00000000: ee02 a336 e571 d439 14e2 5836 f28b 7c38
00000010: 0000 0000 711c 8d37 115d 8938 e76e da38
00000020: 0000 0000 a131 cf37 8c29 ca36 3f5b 0839
00000030: 00de 1539 5ae1 b638 22b3 ba38 690e 4938
00000040: 367b 4239 6681 8139 9ee6 e338 0000 0000
00000050: 1b90 d138 5b0e 3239 8e70 5638 0000 0000
00000060: f249 8439 df40 1437 5ffe 5a39 c305 1335
00000070: 4e53 5036 7f1a 9f37 7388 9635 1245 d836
4.8581196e-06 0.0004052065 3.2318103e-06 6.0211816e-05 0.0 1.6821754e-05 6.550004e-05 0.00010415707
0.0 2.4699433e-05 6.024906e-06 0.00013003963 0.00014292449 8.720411e-05 8.902537e-05 4.7935555e-05
0.00018547181 0.00024701207 0.00010867159 0.0 9.992738e-05 0.0001698075 5.11264e-05 0.0
0.00025232096 8.836591e-06 0.0002088486 5.477015e-07 3.1042905e-06 1.8966615e-05 1.1215583e-06 6.4453425e-06

exp_avg f4 [32]
00000000: 2ece b8b8 a541 933a 6992 65ba 4d60 efba
00000010: 0000 0000 d4f5 bf3a 9370 893b 58fa 503a
00000020: 0000 0000 3a0e a1ba 67f5 433a 5772 24bb
00000030: 4393 4d3a 43c7 c5ba fb91 053a 8e92 8339
00000040: 249e 213a d8f3 b6bb cad9 1ab7 0000 0000
00000050: 417f a339 8eb8 0aba f0ec 01ba 0000 0000
00000060: b522 023b a478 32bb 6ba5 e539 9e83 193a
00000070: 4263 cb3a 3445 34bb 4678 1aba 6537 caba
-8.812208e-05 0.0011234774 -0.00087574736 -0.0018262953 0.0 0.0014645406 0.004194328 0.00079718744
0.0 -0.0012287565 0.00074752275 -0.0025092566 0.0007842073 -0.0015089292 0.00050953 0.0002509546
0.00061652274 -0.0055832677 -9.229823e-06 0.0 0.00031184594 -0.0005291783 -0.0004956266 0.0
0.0019857113 -0.0027232552 0.0004380153 0.00058560993 0.0015517252 -0.0027507069 -0.0005892556 -0.0015427886

exp_avg_sq f4 [32]
00000000: ee02 a336 e571 d439 14e2 5836 f28b 7c38
00000010: 0000 0000 711c 8d37 115d 8938 e76e da38
00000020: 0000 0000 a131 cf37 8c29 ca36 3f5b 0839
00000030: 00de 1539 5ae1 b638 22b3 ba38 690e 4938
00000040: 367b 4239 6681 8139 9ee6 e338 0000 0000
00000050: 1b90 d138 5b0e 3239 8e70 5638 0000 0000
00000060: f249 8439 df40 1437 5ffe 5a39 c305 1335
00000070: 4e53 5036 7f1a 9f37 7388 9635 1245 d836
4.8581196e-06 0.0004052065 3.2318103e-06 6.0211816e-05 0.0 1.6821754e-05 6.550004e-05 0.00010415707
0.0 2.4699433e-05 6.024906e-06 0.00013003963 0.00014292449 8.720411e-05 8.902537e-05 4.7935555e-05
0.00018547181 0.00024701207 0.00010867159 0.0 9.992738e-05 0.0001698075 5.11264e-05 0.0
0.00025232096 8.836591e-06 0.0002088486 5.477015e-07 3.1042905e-06 1.8966615e-05 1.1215583e-06 6.4453425e-06

exp_avg f4 [1, 32]
00000000: 8af3 98b8 1b93 6e39 315b 1dba dcf9 183a
00000010: 0000 0000 7246 c839 61c6 e139 5570 b138
00000020: 0000 0000 871f e038 a3da 3638 ffc9 b1b9
00000030: 23ba 28ba 9dc9 be39 87a9 1a38 1948 78b8
00000040: b9d0 df39 0538 00b8 6e2a fb39 0000 0000
00000050: 3fed 56b9 63cc 343a 90a2 89b9 0000 0000
00000060: f08e 6539 79e8 d337 d1c5 a339 1f9a 00b9
00000070: b3f1 ac38 8e9a 8cb8 ada3 47b9 dfe3 fdaf
-7.2932875e-05 0.0002275225 -0.0006002663 0.0005835572 0.0 0.00038199459 0.00043063148 8.460941e-05
0.0 0.00010687025 4.3595803e-05 -0.0003391057 -0.0006436428 0.00036389838 3.6874346e-05 -5.9194954e-05
0.00042689385 -3.056975e-05 0.00047906063 0.0 -0.00020497011 0.0006896911 -0.00026251795 0.0
0.0002189239 2.5261414e-05 0.00031237167 -0.00012264446 8.246619e-05 -6.704508e-05 -0.00019039093 -4.6182344e-10

exp_avg_sq f4 [1, 32]
00000000: 8f1e f136 5d50 6f35 9402 a236 f29b 3738
00000010: 0000 0000 ec7d a538 9d65 a336 85e7 b235
00000020: 0000 0000 d815 2e36 e91c b035 74bf 1136
00000030: 8c21 7135 1071 5f38 c517 b637 b1d0 9236
00000040: 836b 6538 cba0 5a37 1c0c 9b38 0000 0000
00000050: d5d9 1e37 1535 b238 35d6 8737 0000 0000
00000060: 6c05 8838 2377 d934 7cfe 9738 bc65 1238
00000070: bfaa 1b39 e4dd ce34 59db 2533 9fe8 6932
7.185917e-06 8.915138e-07 4.8282764e-06 4.3775835e-05 0.0 7.891268e-05 4.869608e-06 1.3329415e-06
0.0 2.5940735e-06 1.3121436e-06 2.1718124e-06 8.9828313e-07 5.327264e-05 2.170716e-05 4.375434e-06
5.4697983e-05 1.303125e-05 7.3932315e-05 0.0 9.468252e-06 8.497589e-05 1.6193002e-05 0.0
6.485995e-05 4.0506083e-07 7.2476425e-05 3.490386e-05 0.0001484556 3.8531937e-07 3.861655e-08 1.3615277e-08
